model/20231112-225647.pt (torch, 181800 bytes, 10 tensors)

model_stack.0.weight f4 [6, 1, 5, 5]
0	0xbe50e3b8	-0.20399368
1	0xbc195714	-0.00935914
2	0x3d77e61a	0.060522176
3	0xbc8f8843	-0.01752103
4	0xbc53498a	-0.012895951
5	0xbe68b6ad	-0.22725935
6	0xbdd96d2d	-0.10616527
7	0xbe826b96	-0.25472707
8	0xbe28f5fb	-0.16500084
9	0xbdef3bfe	-0.116813645
10	0xbe7856a0	-0.24251795
11	0xbe833fc3	-0.25634584
12	0xbe447bcb	-0.19187848
13	0xbe4cd4ac	-0.20003003
14	0xbe7162bb	-0.23572819
15	0xbd462dc3	-0.048383486
16	0xbdb89123	-0.09012058
17	0xbdb9954d	-0.0906168
18	0xbd2b3e33	-0.041807365
19	0xbda76df0	-0.08175266
20	0x3dd76c11	0.10518659
21	0x3e683432	0.22676161
22	0x3e77ea60	0.242105
23	0x3e22a8e8	0.15884745
24	0x3ea78044	0.32715046
25	0xbc009919	-0.007849001
26	0x3ddf42d4	0.10901418
27	0x3d59c326	0.053164624
28	0x3e2b2367	0.16712724
29	0x3de58c2e	0.11208378
30	0x3ec96e05	0.3934175
31	0x3f08c88d	0.53431016
32	0x3f0e1c99	0.55512387
33	0x3ee88a60	0.45418072
34	0x3e91f8c1	0.28510097
35	0x3e16a3be	0.147109
36	0x3e130ac3	0.14359574
37	0x3e4aa572	0.19789675
38	0x3e8007bd	0.25005904
39	0x3d324054	0.04351838
40	0xbe8ff4c2	-0.28116423
41	0xbed8a7df	-0.42315575
42	0xbebdbba4	-0.3705722
43	0xbee94753	-0.4556223
44	0xbe1bdec0	-0.15221691
45	0xbeff0426	-0.49807853
46	0xbec95bce	-0.39327854
47	0xbf00cc37	-0.5031161
48	0xbed901cd	-0.42384186
49	0xbe11520c	-0.14191455
50	0xbe6f8be2	-0.23393205
51	0xbd886935	-0.06660692
52	0x3e0abdb9	0.13548936
53	0x3e6f24c5	0.2335387
54	0x3e331b11	0.17490794
55	0xbe67f28c	-0.22651118
56	0xbe3673a7	-0.17817555
57	0xbd80343b	-0.06259962
58	0x3ea7096a	0.3262437
59	0x3e4bb7b8	0.19894302
60	0xbed6c815	-0.41949525
61	0xbe944c0a	-0.28964263
62	0x3e2e0e6a	0.16997686
63	0x3f1772c9	0.59159523
64	0x3d5f2d08	0.054486305
65	0xbeb4a4aa	-0.3528188
66	0xbdf90104	-0.12158397
67	0x3ec9bf38	0.394037
68	0x3edbda1f	0.4293985
69	0xbe11550c	-0.14192599
70	0xbdac7ab2	-0.0842184
71	0x3cb5c90b	0.022190591
72	0x3e96117c	0.29310215
73	0x3e599779	0.21249188
74	0xbe38e518	-0.18056142
75	0x3e90a1aa	0.2824834
76	0x3ee1888a	0.44049484
77	0x3eb97ae6	0.36226577
78	0x3e8965db	0.26835522
79	0x3e6c811b	0.23096125
80	0xbdd9619d	-0.106143214
81	0x3e736ba1	0.23771526
82	0x3e0d50fc	0.13800424
83	0x3d179843	0.037010442
84	0xbdb9d5f5	-0.09074012
85	0xbeaf2e9f	-0.34215257
86	0xbe3b99dc	-0.18320411
87	0xbd8b7c9e	-0.06810878
88	0x3d11edfc	0.03562735
89	0xbd9c212b	-0.07623514
90	0xbe3d46cd	-0.1848404
91	0xbe2a4d65	-0.16631086
92	0x3e5a3c1d	0.21311994
93	0x3dcece82	0.10097982
94	0xbd65d698	-0.056112856
95	0xbd75707e	-0.059921734
96	0x39ba1ab6	0.00035496586
97	0x3d02f64a	0.03197316
98	0x3e47a91a	0.19498101
99	0xbe3c923c	-0.18415159
100	0x3e147e4f	0.14501308
101	0xbb1681a4	-0.0022965455
102	0xbe89b285	-0.26894012
103	0xbe206493	-0.15663366
104	0x3d4b8b74	0.04969354
105	0xbd57a24a	-0.052645005
106	0xbe73d0a1	-0.23810054
107	0xbd925854	-0.071457535
108	0x3c3730f0	0.011181101
109	0x3e303d40	0.17210865
110	0xbe80fecf	-0.25194404
111	0xbd843226	-0.064548776
112	0x3dbe3d52	0.0928904
113	0x3f019a70	0.5062628
114	0x3e3d916f	0.1851251
115	0x3cc4ceee	0.024024453
116	0x3e147436	0.14497456
117	0x3e9a9ff7	0.30200168
118	0x3e8811d9	0.26576117
119	0xbe95d180	-0.29261398
120	0x3e33ca46	0.1755763
121	0x3e9a3c44	0.30124104
122	0x3e91f831	0.28509668
123	0xbd7cf9ff	-0.061761852
124	0xbe961648	-0.29313874
125	0x3c95dd3e	0.018293973
126	0xbebb72ff	-0.36611173
127	0xbef350aa	-0.4752248
128	0xbe933c2e	-0.2875685
129	0x3d823048	0.06356865
130	0x3ea332c9	0.31874683
131	0xbc4c0d1e	-0.012454299
132	0xbeeec144	-0.46631825
133	0xbf02f34c	-0.5115249
134	0xbeb395bd	-0.3507518
135	0x3ed87699	0.42277983
136	0x3f368dcb	0.7131011
137	0x3ea44c4a	0.32089454
138	0xbe0f41cd	-0.13989945
139	0xbe1d1301	-0.1533928
140	0xbd73c9c3	-0.059518587
141	0x3ed86f56	0.42272443
142	0x3ed80446	0.4219076
143	0x3e7bf7a1	0.24606182
144	0x3dc125d3	0.094310425
145	0xbea77c50	-0.3271203
146	0x3db9ecf6	0.090784
147	0x3de22775	0.11042682
148	0x3e65eb69	0.22453083
149	0x3df0e679	0.11762709

model_stack.0.bias f4 [6]
0	0x3dca9b1d	0.09892867
1	0xbcbe97ec	-0.023265801
2	0xbe701f07	-0.23449336
3	0xbcb2af47	-0.021812094
4	0xbc958ca5	-0.018255541
5	0xbd8f2ff9	-0.06991572

model_stack.3.weight f4 [16, 6, 5, 5]
0	0x3ce45509	0.02787258
1	0x3d019330	0.03163451
2	0xbbd7f239	-0.0065901545
3	0xbce44d9b	-0.027869036
4	0x3ccb6a9f	0.024831114
5	0xbd203853	-0.039116215
6	0xbc9841f9	-0.018586146
7	0xbbfaef67	-0.0076579335
8	0x3c70db67	0.014700747
9	0xbc799282	-0.015232684
10	0x3caf298d	0.021382118
11	0x3da0284b	0.07820185
12	0xbc44111b	-0.011966969
13	0xbc6009a7	-0.013674176
14	0xbd00ac29	-0.031414185
15	0xbb9e5163	-0.0048314794
16	0x3c58ccc6	0.013232416
17	0xbd97812d	-0.07397685
18	0xbd76c006	-0.06024172
19	0xb8c2b151	-9.2836686e-05
20	0xbc0624d1	-0.008187489
21	0xbda491a0	-0.08035588
22	0xbe1630df	-0.1466708
23	0xbcc214a6	-0.023691487
24	0xbc024985	-0.007952099
25	0xbe10f890	-0.14157319
26	0xbda9717c	-0.082735986
27	0xbdbb2950	-0.09138739
28	0xbdabe465	-0.08393172
29	0xbd48c614	-0.049017027
30	0xbd285a14	-0.04110153
31	0xbe0e669b	-0.13906328
32	0xbe7f0224	-0.2490316
33	0xbd23d0df	-0.039994117
34	0x3d6bb039	0.057541106
35	0x3d99d1af	0.07510697
36	0xbe3352e7	-0.17512093
37	0xbe7c7c51	-0.24656798
38	0xbd38dcce	-0.04513245
39	0x3e0dd79b	0.13851778
40	0xbd9dac64	-0.076988965
41	0xbe2c149c	-0.16804737
42	0xbe42ba00	-0.19016266
43	0xbd5790b3	-0.05262823
44	0xbdc6d355	-0.09708277
45	0xbd9e4bd1	-0.077293046
46	0xbde2b1c8	-0.11069065
47	0x3d301106	0.042984985
48	0x3ccdbaa9	0.02511342
49	0x39fc233f	0.00048091446
50	0xbd36b481	-0.044605736
51	0x3dec98eb	0.11552604
52	0x3db14799	0.08656234
53	0x3d1c544b	0.038166326
54	0x3c699e92	0.0142589975
55	0xbd7823fb	-0.06058119
56	0xbc981bba	-0.018567909
57	0x3e84a369	0.25905922
58	0x3d92fa76	0.07176678
59	0x39344a24	0.00017193757
60	0xbde7e795	-0.11323468
61	0x3e0fbe1f	0.14037369
62	0x3ebdc696	0.37065572
63	0x3cad5324	0.021157809
64	0xbdfa5777	-0.12223714
65	0xbce5b01b	-0.028038075
66	0x3e0f7021	0.14007618
67	0x3e8a8276	0.2705266
68	0xbe1e6916	-0.15469775
69	0xbdece37c	-0.11566827
70	0x3dbfb38a	0.09360416
71	0x3e3c1727	0.18368207
72	0x3df96ab2	0.12178554
73	0xbe10fa8b	-0.14158075
74	0xbd9ee74b	-0.077589594
75	0xbe1fdd02	-0.15611652
76	0xbe25d774	-0.1619547
77	0x3dba2876	0.090897486
78	0xbb88f36b	-0.0041794083
79	0xbd76b2bd	-0.06022905
80	0xbdcf73b3	-0.1012949
81	0xbd16b541	-0.03679395
82	0x3dd371d2	0.10324444
83	0x3d53b9cc	0.05169086
84	0xbda5148c	-0.0806056
85	0xbd9c4f90	-0.07632363
86	0xbd30e3ec	-0.043186113
87	0x3dab8b6b	0.08376201
88	0xbd2b3daa	-0.041806854
89	0x3c4f23ac	0.012642782
90	0x3b8085eb	0.0039222143
91	0xbdb35abc	-0.087575406
92	0xbd22dbcc	-0.039760396
93	0xbd251f81	-0.040313248
94	0xbd85f1d5	-0.065402664
95	0xbceab083	-0.02864862
96	0xbd06ecf5	-0.032940824
97	0x3c43f965	0.011961316
98	0xbcc2cb1a	-0.023778487
99	0x3c4a3948	0.0123427585
100	0xbdb49980	-0.0881834
101	0xbd69ec61	-0.057110194
102	0x3d2d01b7	0.042237964
103	0xbccf7ef8	-0.025329098
104	0xbd1028ef	-0.035195287
105	0xbd14a187	-0.036286857
106	0xbdb62d96	-0.088954136
107	0x3e254ffc	0.16143793
108	0x3df37cbe	0.11889027
109	0xbd63ac94	-0.055584505
110	0xbe27943f	-0.16365145
111	0x3db5ce18	0.088772
112	0x3e5d049d	0.21583791
113	0x3d48ec55	0.04905351
114	0xbc68d5f0	-0.014211163
115	0x3db43b99	0.0880043
116	0x3e06924d	0.13141747
117	0x3dbabe9d	0.09118388
118	0xbe125cfc	-0.14293283
119	0xbddc9b51	-0.10771812
120	0x3e168dc0	0.14702511
121	0x3dda52d5	0.1066033
122	0xbd99209a	-0.074769214
123	0xbd93b2c3	-0.072118305
124	0xbe244414	-0.16041595
125	0x3b109475	0.0022061144
126	0xbe36b54b	-0.17842595
127	0xbe59a3e0	-0.2125392
128	0xbc3db1f4	-0.011578072
129	0xbd7c1570	-0.061543882
130	0x3de3c6e6	0.11121921
131	0xbe2839e3	-0.16428332
132	0xbe2a639b	-0.16639559
133	0xbd760fb3	-0.060073566
134	0xbca91d02	-0.020643715
135	0x3df330ad	0.118745185
136	0xbc041f61	-0.008064122
137	0xbe1f2716	-0.15542254
138	0xbe31d0ce	-0.17364809
139	0xbda6fd5c	-0.08153793
140	0xba9f9dcb	-0.0012177763
141	0xbe1d94ca	-0.1538879
142	0xbe47c790	-0.19509721
143	0xbd188a16	-0.037241064
144	0x3cbdea0c	0.023182891
145	0x3c9aa956	0.018879574
146	0xbe09ebb0	-0.13468814
147	0xbde533bd	-0.11191509
148	0x3d9869bf	0.074420445
149	0xbc4ef4a7	-0.012631572
150	0xbdd41b33	-0.1035675
151	0xbcaca12a	-0.021072943
152	0xbb8c38ab	-0.0042792163
153	0x3d161f9c	0.03665124
154	0x3aa0475b	0.0012228297
155	0xbd1b09ff	-0.03785133
156	0xbc5d2ec4	-0.013499919
157	0x3bde79b6	0.0067894114
158	0x3d537f30	0.051634967
159	0x3d8c11cc	0.06839332
160	0xbcd8585c	-0.02640932
161	0xbd7bc81b	-0.061470132
162	0x3be2afa5	0.006917911
163	0x3dc4e5e8	0.09614164
164	0x3cd14438	0.025545225
165	0x3c9dd25f	0.019265352
166	0x3d6707e5	0.056404013
167	0x3dd9d46d	0.1063622
168	0x3da3a82e	0.07991062
169	0x3d5d4048	0.05401638
170	0x3bc86bff	0.0061163898
171	0x3d1b3029	0.037887726
172	0xbd76a90e	-0.060219817
173	0xbb7bb378	-0.0038406532
174	0xbcdf3212	-0.027245555
175	0xbd136187	-0.03598168
176	0x3cfdc7db	0.030979088
177	0xbde8e615	-0.1137201
178	0xbd82296d	-0.063555576
179	0xbdcc15ae	-0.099650726
180	0xbb108519	-0.0022051989
181	0xbca6d95e	-0.02036732
182	0xbe21ac15	-0.157883
183	0xbe27f26c	-0.1640107
184	0xbe07d3ed	-0.13264437
185	0x3e417728	0.18893111
186	0x3d2b029b	0.04175053
187	0xbe12f34e	-0.14350626
188	0xbdab01a8	-0.08349925
189	0xbd41bb10	-0.047297537
190	0x3cf752b4	0.030190803
191	0xbd922d8a	-0.07137592
192	0xbe35de7c	-0.17760652
193	0xbc2684dd	-0.010163513
194	0x3d827512	0.06369986
195	0xbe5a30f1	-0.21307732
196	0xbe2344cb	-0.15944211
197	0xbdc97837	-0.09837382
198	0x3b28870a	0.0025715255
199	0x3d82de6a	0.06390078
200	0x3e6af207	0.22943889
201	0x3d5f55e4	0.05452527
202	0xbd004e46	-0.031324647
203	0xbe074a5b	-0.13211958
204	0xbd575b59	-0.05257735
205	0x3e87b480	0.26504898
206	0x3d86724b	0.065647684
207	0xbccc4d3e	-0.024939176
208	0xbd1ff3f9	-0.03905103
209	0xbd97dffd	-0.07415769
210	0x3e42b9b6	0.19016156
211	0x3b82e7a0	0.003994897
212	0xbe0758fa	-0.13217536
213	0xbbae8061	-0.0053253626
214	0x3ddd8923	0.108171724
215	0x3d693009	0.056930576
216	0xbdb6b360	-0.08920932
217	0xbbed6b06	-0.007245424
218	0x3dc06111	0.09393514
219	0x3cc625c0	0.024187922
220	0x3ca3061c	0.019900374
221	0x3b9c49f7	0.0047695595
222	0x3dc6f1af	0.09714066
223	0x3d9a35a8	0.07529765
224	0xbd5f712e	-0.054551296
225	0x3d5e1111	0.054215495
226	0xbd20da1e	-0.039270513
227	0xbd8100e2	-0.062989965
228	0xbe009ab7	-0.12559019
229	0xbdc167b5	-0.09443609
230	0x3db7ff05	0.08984188
231	0xbbec2839	-0.0072069434
232	0xbdd1fdce	-0.102534875
233	0xbd50a4a8	-0.05093828
234	0xbdefbd27	-0.11706
235	0x3dfe7301	0.12424279
236	0x3bb270fe	0.0054455986
237	0xbda34271	-0.07971657
238	0xbdbea4b8	-0.09308761
239	0xbda05290	-0.078282475
240	0x3c7566dc	0.014978137
241	0xbd43f1e6	-0.047838114
242	0xbd85af87	-0.0652762
243	0xbdade5b4	-0.08491078
244	0xbd1e50c4	-0.038651243
245	0xbc6f5be8	-0.0146093145
246	0xbd87754d	-0.0661417
247	0xbd2f8543	-0.042851698
248	0xbd126eff	-0.035750385
249	0xbcbd4f55	-0.023109118
250	0x3e0ee029	0.13952698
251	0x3c79149a	0.015202666
252	0xbde0b257	-0.109715156
253	0xbe26b27e	-0.16279027
254	0xbd438eea	-0.047743715
255	0x3ddff0bd	0.10934589

model_stack.3.bias f4 [16]
0	0x3d11fde3	0.035642516
1	0xbd36910c	-0.04457192
2	0xbd9a29d6	-0.07527511
3	0xbcc05835	-0.02347956
4	0x3d506fae	0.050887756
5	0xbd47cfae	-0.048782043
6	0xbcc567b2	-0.024097297
7	0x3c96f29d	0.018426234
8	0xbc32b1cd	-0.010906649
9	0xbd5d770c	-0.05406861
10	0x3d34cb71	0.04413933
11	0xbc187607	-0.009305484
12	0xbc37a284	-0.01120818
13	0xbd401a39	-0.046900008
14	0xba126948	-0.0005585146
15	0xbc8b78eb	-0.017025432

model_stack.7.weight f4 [120, 256]
0	0xbc9bb19d	-0.019005591
1	0xbc0461e0	-0.008079976
2	0xbc58cb61	-0.013232083
3	0x3c3a9437	0.011387876
4	0xbd1f33a2	-0.0388676
5	0xbd4644c2	-0.048405416
6	0x3d471b0c	0.04860978
7	0xbdd98d3f	-0.10622644
8	0xbdeda162	-0.11603047
9	0x3d18468f	0.037176665
10	0x3c47f41d	0.012204197
11	0xbd3e6c6b	-0.046490114
12	0xbe17baf9	-0.14817418
13	0xbdfa7726	-0.12229757
14	0x3d11c5ad	0.03558891
15	0x3d109a3e	0.035303347
16	0x3cfd1852	0.030895386
17	0xbccd95ad	-0.025095785
18	0x3d4a56c0	0.049399137
19	0x3cbe6e1e	0.023245867
20	0xbd128141	-0.035767797
21	0xbc99cb28	-0.01877363
22	0xbb9fd5cb	-0.004877781
23	0x3d4760a4	0.048676148
24	0xbc919bd9	-0.01777451
25	0xbd94a427	-0.07257872
26	0xbc385919	-0.011251711
27	0xba429f4c	-0.000742425
28	0xbd634edf	-0.05549514
29	0xbca22ad4	-0.019795813
30	0x3c773bd5	0.015089949
31	0xbcb7e976	-0.02245019
32	0xbc9c2b1d	-0.019063527
33	0xbc48aa91	-0.012247697
34	0x3d0e4188	0.034730464
35	0x3c70bb19	0.014693045
36	0xbd3a10d3	-0.0454262
37	0x3b9c1235	0.0047629126
38	0x3cca2772	0.024677012
39	0xbd002cf0	-0.031292856
40	0x3ce9884b	0.028507372
41	0xbc325cbd	-0.010886368
42	0x3d977081	0.07394505
43	0xbd0ac17a	-0.03387592
44	0x3dd786c0	0.105237484
45	0x3d0070fe	0.031357758
46	0x3cc2d684	0.02378393
47	0xbd2133c2	-0.039356
48	0xbcd57572	-0.026056979
49	0x3b1f71b8	0.0024329256
50	0x3d719084	0.05897571
51	0xbcb59621	-0.022166314
52	0x3c6415a5	0.013921176
53	0x3c26d569	0.010182717
54	0x3d971da7	0.073787026
55	0xbd171972	-0.0368895
56	0x3a3311b4	0.0006830946
57	0xbccd97c9	-0.02509679
58	0x3d2012e5	0.03908052
59	0x3d5d67a4	0.054053918
60	0x3c070cd0	0.008242801
61	0xbd1004e2	-0.035160907
62	0x3d336134	0.043793872
63	0x3d9bffb1	0.07617129
64	0xbca1dc0b	-0.019758245
65	0xbc687347	-0.0141876405
66	0xbc332dd4	-0.010936219
67	0xbd19405d	-0.037414897
68	0xbd17aa12	-0.037027426
69	0x3b6bcf35	0.003598166
70	0x3d8f5b2b	0.06999811
71	0x3d4166f4	0.047217324
72	0xbd5dbab4	-0.054133132
73	0x3d6e9b66	0.05825367
74	0x3c8c1308	0.017098919
75	0xbd3f4c25	-0.046703476
76	0xbd405ecd	-0.04696541
77	0x3dd5fb6b	0.10448345
78	0x3c1d8e92	0.009616511
79	0xbd869cb3	-0.06572857
80	0xbd2038d9	-0.039116714
81	0xbcfe83ef	-0.03106877
82	0xbd24b59c	-0.04021226
83	0xbcdb725b	-0.026787927
84	0x3b69b3e9	0.0035660213
85	0xbdb3a29b	-0.08771249
86	0xbb544d2c	-0.003239463
87	0xbc91cee5	-0.01779885
88	0xbda7e1f7	-0.08197396
89	0x3c9dbfdf	0.01925653
90	0x3c29b307	0.010357625
91	0x3d110f93	0.035415243
92	0xbc3a7499	-0.011380338
93	0x3d69d8c9	0.057091508
94	0xbd9ee955	-0.07759348
95	0xbadf5a37	-0.0017040436
96	0x3d35a32d	0.04434507
97	0x3b92b4e5	0.0044771307
98	0xbc4b9286	-0.012425071
99	0xbcb8aef7	-0.022544367
100	0xbce73369	-0.028222756
101	0xbca30787	-0.01990105
102	0x3d1dbf85	0.038512725
103	0x3d432770	0.047645032
104	0xbb6e5643	-0.0036367334
105	0x3c9b12aa	0.018929798
106	0x3d518543	0.05115248
107	0xbcdc8690	-0.026919633
108	0xbd2758cc	-0.040856168
109	0xbc64f755	-0.013974984
110	0x3c12a73e	0.008951006
111	0xbd4c9e4e	-0.04995566
112	0xbd25e681	-0.04050303
113	0x3aec71fe	0.0018039343
114	0x3aedb5d3	0.0018135853
115	0x3c9fe264	0.019517131
116	0x3ce9275e	0.028461155
117	0xbcea982b	-0.028637012
118	0x3c74d1ef	0.01494263
119	0xbb553961	-0.0032535421
120	0x3d69c9af	0.057077106
121	0x3d796dd8	0.06089577
122	0x3b1c8805	0.0023884785
123	0xbc5b7ebc	-0.013396915
124	0x3c972a15	0.018452683
125	0xbd65e19e	-0.05612337
126	0x3d0a12ec	0.03370945
127	0x3c3fed75	0.011714329
128	0xbd6c1bf8	-0.05764386
129	0x3d5095e2	0.05092419
130	0x3ca12b1b	0.019673875
131	0xbd0ef81b	-0.03490458
132	0x3d313106	0.043259643
133	0x3d8412d2	0.06448902
134	0xbb64a549	-0.0034888557
135	0x3a541179	0.0008089762
136	0x3c41ae1d	0.011821297
137	0x3d966ba4	0.073447496
138	0xbd2c28a8	-0.04203096
139	0xbd525e44	-0.05135943
140	0xbd27fca1	-0.04101241
141	0x3dbe3cdc	0.09288952
142	0x3bc9bd25	0.006156581
143	0xbdaf4ab6	-0.08559172
144	0xbaff7fbe	-0.0019493026
145	0x3ccc2f9d	0.024925048
146	0xbd4a70da	-0.04942403
147	0xbdc61984	-0.096728355
148	0xbdccea4c	-0.10005626
149	0x3cbce01f	0.023056088
150	0x3c5ec08e	0.013595713
151	0x3ce8f755	0.02843825
152	0xbd2ce04e	-0.0422061
153	0xbc8e3624	-0.0173598
154	0xbd9435ff	-0.072368614
155	0xbd03cc9f	-0.032177564
156	0x3d6d2d84	0.057904735
157	0xbc8bddfa	-0.01707362
158	0x3d2cb7b6	0.042167388
159	0x3da28952	0.07936348
160	0xbaa8fe17	-0.0012893107
161	0x3cbb4e0f	0.02286437
162	0x3bca4282	0.006172479
163	0xbd858803	-0.06520083
164	0x3c339c04	0.01096249
165	0xbd72dd21	-0.059292916
166	0x3dc934ca	0.09824522
167	0x3cadfb48	0.021237984
168	0xbd224a3e	-0.039621584
169	0xbdd57998	-0.10423583
170	0x3c248792	0.010042088
171	0xbd9d0789	-0.07667453
172	0x3d1c8d19	0.0382205
173	0xbd32c382	-0.043643482
174	0xbd0a3d44	-0.033749834
175	0xbc8f7bdb	-0.017515114
176	0x3b4852f1	0.0030567015
177	0x3c91ec5c	0.0178129
178	0x3d0b24ba	0.033970572
179	0x3c6b564e	0.014363838
180	0x3c14a640	0.00907284
181	0x3cc03df0	0.023467034
182	0xbd22c45f	-0.039738055
183	0xbd5e2296	-0.054232202
184	0xbd49e682	-0.049292095
185	0x3d97593a	0.073900655
186	0x3d22961d	0.03969394
187	0xbc027c53	-0.0079642115
188	0xbe442178	-0.19153392
189	0xbc5ab92a	-0.013349811
190	0xbbbb0f7c	-0.005708633
191	0x3d00dd5b	0.0314611
192	0xba95a6ae	-0.0011417472
193	0xbc062d93	-0.008189577
194	0x3c463370	0.012097225
195	0xbd81187a	-0.06303497
196	0xbd24d0a7	-0.04023805
197	0x3c8964c7	0.016771687
198	0x3d073ab6	0.033014975
199	0xbca37629	-0.019953804
200	0xbdd5ff49	-0.104490824
201	0xbc7f421c	-0.015579727
202	0xbd2e40a7	-0.042542126
203	0xbd0a5b6f	-0.033778604
204	0xbd48d436	-0.049030505
205	0xbcdfdb00	-0.027326107
206	0x3c93db55	0.018048922
207	0xbd2bed23	-0.041974198
208	0xbac6f56c	-0.0015179343
209	0xbd20fb9e	-0.03930246
210	0x3cd8a0de	0.026443895
211	0xbd8b1975	-0.06791965
212	0x3d195efd	0.037444104
213	0xbcd0b146	-0.025475156
214	0x3cfd5c85	0.030927906
215	0xbd61b7ce	-0.05510693
216	0x3c6a4222	0.014297994
217	0xbde18850	-0.11012328
218	0x3dfdbcd3	0.12389531
219	0xbcc80a33	-0.024418926
220	0xbce2d247	-0.027688159
221	0xbd9df387	-0.07712465
222	0x3e1c4c0d	0.15263386
223	0x3db39794	0.087691456
224	0xbd01beb0	-0.031675994
225	0x3c94840a	0.018129367
226	0x3d58a3ce	0.05289059
227	0xbcc254dc	-0.023722105
228	0xbd5f0854	-0.0544513
229	0x3c29e448	0.010369368
230	0x3a630868	0.00086606154
231	0xbc2e1338	-0.010624699
232	0xbcfd30f5	-0.030907134
233	0xbc2f097d	-0.0106834145
234	0xbd434e37	-0.047682013
235	0x3d3ada45	0.045618314
236	0x3d84f808	0.06492621
237	0x3dc00878	0.09376615
238	0x3d2ffaa5	0.042963643
239	0xbd491520	-0.049092412
240	0xbbe26b78	-0.006909784
241	0xbcda1225	-0.02661998
242	0x3d953560	0.07285571
243	0x3cf74ab7	0.030186994
244	0x3c2facb9	0.010722333
245	0x3d58ad89	0.05289987
246	0xbd69d66f	-0.057089265
247	0xbd4098a1	-0.04702056
248	0x3c30540b	0.010762225
249	0x3c842dbf	0.016135095
250	0x3c8333fa	0.016015995
251	0x3c2a8b99	0.010409259
252	0x3de4b94f	0.11168157
253	0x3d01cef1	0.031691495
254	0x3c290d11	0.010318057
255	0xbc3d318e	-0.011547459

model_stack.7.bias f4 [120]
0	0x3c1132a6	0.008862173
1	0x3ccec30b	0.025239488
2	0xbcbd8a2e	-0.023137178
3	0xbd0aaf0a	-0.033858337
4	0x3d200d50	0.039075196
5	0x3bc794b7	0.0060907262
6	0x3c868436	0.016420465
7	0xbcf741be	-0.030182716
8	0x3ad04882	0.001589075
9	0xbcca7cb8	-0.024717674
10	0xbbe3af97	-0.006948422
11	0xbd208fe9	-0.039199743
12	0x3cd12a7a	0.02553295
13	0xbcdf48de	-0.027256425
14	0x3d54b931	0.051934425
15	0xbbefa880	-0.007313788
16	0x3c40246a	0.011727432
17	0x3c9c0577	0.019045575
18	0xbbd2d946	-0.0064345924
19	0xbd0fa8b5	-0.035073
20	0xbd25931a	-0.04042349
21	0x3887f3cb	6.4827116e-05
22	0xbcffee24	-0.031241484
23	0xbcd9bdc9	-0.026579754
24	0x3ce4acae	0.027914371
25	0xbc87537d	-0.016519303
26	0x3d1938b5	0.037407596
27	0xbcfb76ea	-0.030696351
28	0x3cc7477d	0.02432608
29	0x3c38de21	0.011283428
30	0x3d1eef24	0.03880228
31	0x3d1b5cd8	0.03793034
32	0x3d5938e4	0.05303277
33	0xbc08cd7e	-0.008349774
34	0x3b241c6d	0.0025041357
35	0xbcce1dfa	-0.025160778
36	0xbcc8e984	-0.024525411
37	0x3d3756c8	0.044760495
38	0xbbc09d28	-0.0058781095
39	0x3c4b7f03	0.012420419
40	0xbbb4f921	-0.0055228625
41	0xbbec33cb	-0.0072083226
42	0xbc743738	-0.014905743
43	0x3d02d367	0.03193989
44	0x3c91e401	0.017808916
45	0xbd1f0959	-0.038827274
46	0xbabb99a4	-0.0014312756
47	0x3b266fdc	0.0025396263
48	0xbd27ec59	-0.040996883
49	0xbc47bb77	-0.012190691
50	0x3ccb3080	0.0248034
51	0x3c7af9b1	0.01531832
52	0x3c18e5e1	0.009332151
53	0xbcdada0d	-0.026715303
54	0x3d4067be	0.046973936
55	0xbd0e8307	-0.034792926
56	0xbbc7bbc3	-0.006095381
57	0x3bd36605	0.0064513707
58	0xbccd54a5	-0.025064776
59	0x3ccd1147	0.025032653
60	0xbd17d63f	-0.037069555
61	0xbccf955a	-0.025339771
62	0xbc975d9d	-0.018477255
63	0x3c769ab5	0.0150515335
64	0x3d2ec0a4	0.042664185
65	0xbc1001e6	-0.008789515
66	0xbd1b715d	-0.03794991
67	0xbd1f2fc5	-0.038863916
68	0x3c9f08a2	0.019413296
69	0x3c46b9c7	0.012129254
70	0x3d08771b	0.033316713
71	0xbcaaa273	-0.020829415
72	0x3c07bab6	0.008284261
73	0xbd082455	-0.033237774
74	0x3cb25268	0.02176781
75	0xbc710431	-0.014710472
76	0x3c55714b	0.013027499
77	0x3c9b5746	0.018962514
78	0x3c44f469	0.012021163
79	0x3cdeadbf	0.027182458
80	0x3c381ebd	0.011237797
81	0xbcbfdeb1	-0.023421617
82	0xbd1b9466	-0.03798332
83	0x3cc8bc7e	0.024503943
84	0xbb6a9ce4	-0.003579908
85	0x3c5a33e4	0.013318036
86	0xba5bf8a1	-0.00083912356
87	0xbce03218	-0.027367637
88	0x3c54af57	0.012981257
89	0xbd20bc1c	-0.039241895
90	0x3d2aafc4	0.04167153
91	0xbc51558d	-0.012776745
92	0xbb85472f	-0.0040673236
93	0x3c77a729	0.015115538
94	0xbd08fd81	-0.033444885
95	0xbc0ed655	-0.008718093
96	0xbc9de0d9	-0.019272255
97	0x3c81b0fa	0.01583146
98	0x3aae5046	0.001329907
99	0xbcb34a39	-0.021885978
100	0xbbacfae3	-0.0052789315
101	0x3cd57bd8	0.02606003
102	0xbc398826	-0.011323964
103	0xbcdef158	-0.027214691
104	0x3d1a5ac2	0.03768421
105	0xbcf72605	-0.030169496
106	0xbc97def5	-0.018538931
107	0x3b39f688	0.0028375704
108	0x3d5bcef2	0.053664155
109	0x3cfa239f	0.030534564
110	0xbc99dd94	-0.018782414
111	0x3cfdef13	0.030997789
112	0xbcf5a846	-0.029987466
113	0xbcc94495	-0.024568835
114	0x3b6e9fb6	0.0036411113
115	0xbb67db1f	-0.003537841
116	0xbb2649d7	-0.0025373602
117	0x3ce4110e	0.027840164
118	0x3c636f26	0.01388148
119	0x3d3644ef	0.044499334

model_stack.9.weight f4 [84, 120]
0	0xbd529b74	-0.051417783
1	0xbd0180db	-0.031617027
2	0xbca16fc9	-0.019706624
3	0x3c71472d	0.014726442
4	0xbd06a6e3	-0.032874
5	0x3cd68096	0.026184361
6	0xbd3ea67d	-0.046545494
7	0x3d478d7f	0.048718926
8	0xbd01bd39	-0.031674597
9	0x3d29726e	0.041368894
10	0x3ca4c5a9	0.020113783
11	0x3bb06aab	0.0053838096
12	0x3d131bb3	0.035915088
13	0xbd403f75	-0.046935517
14	0x3becfedb	0.0072325296
15	0xbc6fd6a5	-0.014638578
16	0x3cbe1d6d	0.02320739
17	0xbd5c1837	-0.05373403
18	0xbd0862ca	-0.033297338
19	0x3d63fcb4	0.05566092
20	0xbb44691f	-0.0029969884
21	0x3c42927a	0.011875743
22	0x3c633638	0.013867907
23	0xbd1d93e8	-0.038471133
24	0x3d01263c	0.031530604
25	0xbb768bdc	-0.0037619984
26	0xbd9f956f	-0.07792174
27	0x3c4f4eba	0.012653047
28	0xbd6e4c15	-0.058178026
29	0xbc814e66	-0.015784454
30	0x3bfbbd7e	0.0076825013
31	0x3c3af682	0.011411311
32	0xbda4298b	-0.08015736
33	0xbd5ee7cf	-0.05442029
34	0xbcccffd3	-0.02502433
35	0xbc90d940	-0.017681718
36	0xbd005d09	-0.031338725
37	0xbd17fe51	-0.03710777
38	0x3de735c2	0.1128955
39	0x3d4c9d24	0.04995455
40	0x3bb8637c	0.005627094
41	0xbd28352d	-0.041066337
42	0xbb0eccf5	-0.0021789644
43	0xbc79b5c6	-0.015241092
44	0x3ce4e852	0.02794281
45	0x39f75e3b	0.00047181718
46	0xbce3f0c9	-0.027824776
47	0xbb9b4dad	-0.0047394843
48	0xbd1b38be	-0.03789591
49	0xbd8448d7	-0.064592056
50	0x3c90a2f5	0.017655829
51	0xbcdabea5	-0.026702235
52	0x3da80aca	0.08205183
53	0xbc7ea7ca	-0.015542934
54	0x3d1015bb	0.035176974
55	0xbda34669	-0.07972414
56	0x3c938c29	0.01801117
57	0x3d38cc93	0.045116972
58	0x3d8f3325	0.06992177
59	0x3cf9e7b1	0.030505987
60	0x3d56626e	0.052339964
61	0xbcf2595f	-0.029583631
62	0xbd5d45d0	-0.054021657
63	0x3da93385	0.0826178
64	0xbd291eee	-0.041289262
65	0x3d1bdf70	0.038054883
66	0xbc70cd79	-0.014697426
67	0xbc785ee6	-0.015159344
68	0x3d55d5d4	0.052205876
69	0x3d0bae48	0.034101754
70	0x3d4fbb72	0.05071587
71	0xbd1cda37	-0.038294043
72	0xbda441d3	-0.080203675
73	0xbcaf4033	-0.021392917
74	0x3d89d226	0.06729536
75	0x3c7ff9a6	0.015623486
76	0x3d9b9382	0.07596494
77	0x3d8d42cf	0.06897508
78	0xbc3bcfa6	-0.011463081
79	0xbd105dfc	-0.03524588
80	0xbd01ebef	-0.031719144
81	0xbd67b5be	-0.056569807
82	0xbd606527	-0.054783966
83	0xbd3f4bfd	-0.046703327
84	0x3d73a9b4	0.059488013
85	0xbcfb7aff	-0.030698298
86	0x3d082f93	0.033248495
87	0x3c3ca64d	0.011514259
88	0xbd1d4ed4	-0.038405254
89	0xbd1175bf	-0.035512682
90	0xbc85da8c	-0.016339563
91	0x3b453cad	0.003009598
92	0x3d051d18	0.03249845
93	0x3d4ca96f	0.049966272
94	0x3ce62666	0.028094482
95	0x3d1cda59	0.03829417
96	0x3da1a30a	0.07892425
97	0xbbb7f804	-0.0056142826
98	0x3d90ecfe	0.07076453
99	0x3c970b1d	0.018437916
100	0x3d154e6b	0.03645174
101	0x3d0ba0ec	0.034089014
102	0xbd64e7ef	-0.05588525
103	0xbd1dc021	-0.038513307
104	0x3bd53fa3	0.00650783
105	0xbd607de2	-0.05480755
106	0xbc53280c	-0.012887966
107	0xbd2e3bc4	-0.042537466
108	0xbd17f9b0	-0.037103355
109	0x3d90bb45	0.07066969
110	0xbc97e8cc	-0.018543623
111	0xbc99c545	-0.018770823
112	0x3b634052	0.003467579
113	0xbca92bec	-0.020650826
114	0x3c1f736c	0.009732109
115	0x3d04ade0	0.032392383
116	0xbcc220ef	-0.023697345
117	0xbc8db387	-0.01729752
118	0xbd3bdf99	-0.045867536
119	0xbcb65391	-0.022256644
120	0xb8256e8f	-3.944203e-05
121	0x3d0fd9c2	0.03511978
122	0x3d462b14	0.048380926
123	0xbda3d206	-0.07999043
124	0x3d0ebe92	0.03484971
125	0xbcdc2257	-0.026871843
126	0x3b1fffcf	0.0024413948
127	0x3ca4f79c	0.0201376
128	0xbd7dfeff	-0.06201076
129	0x3d9a77cd	0.075423814
130	0x3dc4a086	0.0960093
131	0x3d391944	0.04519011
132	0x3cb08345	0.02154697
133	0xbcf6015c	-0.030029945
134	0x3dbc801b	0.09204122
135	0xbd56d22e	-0.052446537
136	0x3c3fcbc9	0.011706301
137	0x3dd10103	0.10205271
138	0xbd9fea93	-0.07808413
139	0xbce3f402	-0.027826313
140	0xbd63c937	-0.055611815
141	0x3ce9de2b	0.02854832
142	0x3c8c34da	0.017115045
143	0x3c772764	0.015085075
144	0x3d370c89	0.04468969
145	0x3b73c82c	0.003719817
146	0x3d9c5666	0.07633667
147	0x3c79a29a	0.015236521
148	0xbd484ebc	-0.048903212
149	0xbd0701e3	-0.032960784
150	0xbdafa749	-0.08576829
151	0xbc9f450f	-0.01944211
152	0x3c922f43	0.017844802
153	0xbc143b4c	-0.009047341
154	0x3c9d4d2d	0.01920184
155	0x3cc00753	0.023440992
156	0x3c38cc65	0.0112792
157	0x3d3a8d15	0.045544703
158	0xbd7542db	-0.05987821
159	0xbd3f5492	-0.046711512
160	0x3dc7c3b5	0.09754125
161	0x3b630f65	0.0034646627
162	0x3d07ee98	0.033186525
163	0x3d01c3d2	0.03168089
164	0x3d29abc2	0.041423567
165	0xbd3a92dc	-0.045550212
166	0xbd58df7c	-0.052947506
167	0x3d36994a	0.04457978
168	0xbda52b6f	-0.08064925
169	0x3dcf3897	0.101182155
170	0x3d3e51c5	0.0464647
171	0x3cfb9f95	0.030715743
172	0xbcd211f8	-0.025643334
173	0xbd9ac8aa	-0.07557805
174	0xbd919a56	-0.07109515
175	0xbdce62a6	-0.100774094
176	0xbcc112ec	-0.023568593
177	0x3bbea632	0.005818152
178	0xbc4e24bd	-0.012582001
179	0xba6aa5c1	-0.0008951091
180	0xbd0feb3c	-0.035136446
181	0xbcf94eea	-0.030433137
182	0x3ccb3933	0.024807548
183	0xbd1e5115	-0.038651545
184	0xbd09fb4d	-0.033686925
185	0x3d2b518a	0.04182581
186	0x3d5e3b37	0.05425569
187	0x3d1adc5a	0.0378078
188	0xbcc368f1	-0.02385375
189	0xbd03a308	-0.0321379
190	0x3d05621f	0.03256428
191	0x3da3659e	0.07978366
192	0xbc6975c8	-0.014249273
193	0xbcaea617	-0.021319432
194	0xbdd2c455	-0.102913536
195	0x3c38a18c	0.0112689845
196	0xbc4fae1d	-0.012675789
197	0xbce3dd42	-0.027815465
198	0xbd7462df	-0.059664603
199	0xbd5b0718	-0.053473562
200	0x3dd14481	0.10218144
201	0x3d0b10eb	0.03395168
202	0xbd1f0a64	-0.03882827
203	0xbd4b6ffe	-0.04966735
204	0xbd38992f	-0.045067962
205	0x3d385e29	0.045011673
206	0x3b952eb0	0.0045526847
207	0xbd768662	-0.06018675
208	0xbcfd5090	-0.030922204
209	0x3dc576a2	0.09641768
210	0x3df23ef0	0.118284106
211	0x3c5b968b	0.013402591
212	0x3dae0128	0.08496314
213	0xbcd9ab74	-0.026571013
214	0xbc9ea224	-0.019364424
215	0xbdbdcacf	-0.09267198
216	0xbd7588f2	-0.059945054
217	0x3d056398	0.032565683
218	0xbc97350a	-0.018457908
219	0x3b42818a	0.0029679262
220	0xbc67f0cb	-0.014156531
221	0xbc657c63	-0.014006707
222	0xbd512520	-0.051060796
223	0xbce1f135	-0.027580837
224	0x3c7dbae5	0.015486454
225	0xbdcbd81e	-0.099533305
226	0x3d181d02	0.03713704
227	0x3cd31e9e	0.025771435
228	0x3d99f40c	0.07517251
229	0x3c95a282	0.018265966
230	0x3d8fc401	0.07019807
231	0xbc935aab	-0.01798757
232	0xbce9620b	-0.028489133
233	0x3d8cea06	0.06880574
234	0x3ce806f0	0.02832362
235	0x3c618da3	0.013766679
236	0xbd99ff87	-0.07519441
237	0xbd07085c	-0.032966956
238	0xbc3cfe70	-0.011535272
239	0xb9d504a8	-0.00040629995
240	0xbdc2f5d0	-0.09519541
241	0xbd78d32f	-0.060748275
242	0x3cb3990f	0.02192357
243	0xbcdb739f	-0.02678853
244	0x3d980057	0.0742194
245	0xbc0f4c15	-0.008746167
246	0x3cda060a	0.026614208
247	0x3cc23668	0.023707584
248	0x3d9fb921	0.077989824
249	0x3cc63fb9	0.024200307
250	0x3d974824	0.073868066
251	0x3d5f8cc7	0.054577615
252	0x3d86865d	0.065685965
253	0x3d44b495	0.04802378
254	0xbd7e4816	-0.062080465
255	0xbe16c0d5	-0.14721997

model_stack.9.bias f4 [84]
0	0xbc8df2e8	-0.01732774
1	0xbd02fe07	-0.03198054
2	0x3d24b7a9	0.040214214
3	0xbd230735	-0.039801795
4	0xbd337595	-0.043813307
5	0xba7dd721	-0.0009683241
6	0x3c819014	0.015815772
7	0x3c98f7df	0.018672882
8	0xbc466d96	-0.012111088
9	0xbcb48cec	-0.022039853
10	0x3db63c6e	0.08898245
11	0x3d0165f6	0.03159138
12	0x3d44ebb5	0.04807635
13	0x3d9a32fc	0.07529256
14	0x3c9fe6bb	0.0195192
15	0x3d5d6ba6	0.05405774
16	0x3d227c76	0.039669476
17	0x3bbf7bd7	0.0058436203
18	0x3cb64c16	0.022253077
19	0xbca6be45	-0.0203544
20	0xbd3b54c2	-0.04573513
21	0x3cf42006	0.029800426
22	0x3d9494e7	0.07254963
23	0xbd2ff199	-0.042955015
24	0x3d43c6d5	0.047797043
25	0x3d03cfd2	0.032180615
26	0x3bac1f5e	0.0052527627
27	0x3ce94e33	0.028479671
28	0x3ba7752f	0.005110405
29	0xbd0f1683	-0.03493358
30	0xbd0be314	-0.034152105
31	0x3d880629	0.066418
32	0xbc8384ae	-0.016054478
33	0x3d7c1bf2	0.06155009
34	0x3cc4314b	0.023949286
35	0x3ccb3b93	0.02480868
36	0xbcccd7b8	-0.025005206
37	0x3d3255b6	0.04353877
38	0x3b9d19bc	0.0047943275
39	0x3d098bb8	0.03358051
40	0xbcf5cff4	-0.030006386
41	0xbd4e8b41	-0.05042577
42	0x3d01501f	0.03157055
43	0x3bf54a44	0.00748566
44	0x3c4efecd	0.012633991
45	0x3d625e76	0.055265866
46	0x3c2574aa	0.010098616
47	0x3cfd689e	0.030933674
48	0x3d097113	0.0335551
49	0x3d46d39c	0.04854165
50	0xbd1936d5	-0.037405808
51	0x3d0f8c1b	0.035045724
52	0xbcda04e0	-0.026613653
53	0xbc36a0d7	-0.011146746
54	0x3d1da2e8	0.038485438
55	0xbc29bcef	-0.010359987
56	0x3bc8be89	0.006126229
57	0xbcba66b2	-0.022754047
58	0x3d11c58e	0.035588793
59	0x3c6ca086	0.014442569
60	0x3d97bc41	0.074089535
61	0x3c827966	0.015927028
62	0x3c77f2c5	0.015133564
63	0xbd01058b	-0.031499427
64	0xbb92ad4f	-0.0044762264
65	0xbcad6ce5	-0.021170089
66	0x3cf4116d	0.029793466
67	0xbbb77990	-0.005599208
68	0xbc92471e	-0.017856177
69	0x3bedb26e	0.0072539365
70	0xbd682dc4	-0.05668427
71	0xbca456b3	-0.020060873
72	0x3d211428	0.039325863
73	0x3ca83e26	0.020537447
74	0xbd0cfbf8	-0.034419984
75	0xbc78b8bd	-0.015180764
76	0x3d6f0340	0.05835271
77	0x3c8d34ec	0.01723715
78	0x3d53fa62	0.051752456
79	0x3d4a6e8a	0.049421825
80	0x3cd74479	0.026277767
81	0x3cf5921d	0.029976899
82	0xbd0369db	-0.032083374
83	0x3d5c6588	0.053807765

model_stack.11.weight f4 [10, 84]
0	0xbd746868	-0.059669882
1	0xbe12410f	-0.1428263
2	0x3c617283	0.013760212
3	0x3c9d2dfe	0.01918697
4	0x3c6f4489	0.014603742
5	0xbcb84fe5	-0.022499034
6	0x3e86aad3	0.26302204
7	0xbe1f441f	-0.1555333
8	0x3e176280	0.14783669
9	0xbd3b2e4f	-0.04569846
10	0xbc81b11c	-0.015831523
11	0xbe31f976	-0.17380318
12	0xbe31b165	-0.17352827
13	0xbdae44aa	-0.085091904
14	0x3e1ac3c3	0.1511374
15	0x3c383fc7	0.011245674
16	0xbe152f51	-0.14568831
17	0x3db6902b	0.089142166
18	0x3d619652	0.055074997
19	0x3cfc714d	0.030815745
20	0x3ca240bf	0.019806264
21	0x3ce77f21	0.028258862
22	0x3e1554fa	0.14583197
23	0x3dbc8693	0.092053555
24	0xbdab41eb	-0.08362182
25	0x3dc1723b	0.09445616
26	0xbdf96515	-0.12177483
27	0x3d4e7275	0.050402123
28	0xbdcf468f	-0.1012088
29	0x3d93a4ca	0.072091654
30	0xbc089e0d	-0.0083384635
31	0xbe302c2e	-0.17204353
32	0x3bdd86b7	0.006760444
33	0x3d40178d	0.04689746
34	0xbe2d54d1	-0.16926886
35	0x3e3abc76	0.18235955
36	0xbd086e8a	-0.033308543
37	0x3d168d39	0.036755774
38	0x3e02f02a	0.12786928
39	0xbd939a41	-0.07207156
40	0x3d0b7321	0.034045342
41	0x3e1e1d86	0.1544095
42	0x3d9db472	0.07700433
43	0xbdfe7772	-0.12425126
44	0x3e01f5ba	0.12691393
45	0xbe7da9de	-0.2477183
46	0xba6c1847	-0.0009006303
47	0xbe541b23	-0.20713477
48	0x3d01c800	0.031684875
49	0xbbfbfc00	-0.007689953
50	0xbc10a2d4	-0.008827884
51	0x3d7289d6	0.05921348
52	0x3e234904	0.15945822
53	0xbe29914f	-0.16559337
54	0xbda75863	-0.08171155
55	0xbc876efa	-0.01653241
56	0x3d9b645f	0.07587504
57	0x3cc27d38	0.02374135
58	0x3cbab578	0.02279161
59	0xbd2e58b7	-0.042565074
60	0xbe168571	-0.14699341
61	0x3dcf5b6d	0.1012486
62	0x3dadb3f3	0.08481588
63	0x3d5079c5	0.05089738
64	0xbd889124	-0.066683084
65	0x3e61594a	0.22006717
66	0x3e01779e	0.12643287
67	0xbab4b6a7	-0.0013787345
68	0xbdae5abf	-0.08513402
69	0x3e823d8b	0.2543758
70	0x3d9ed974	0.0775632
71	0xbda47378	-0.080298364
72	0xbe0ef7f1	-0.1396177
73	0x3d11af3c	0.035567507
74	0xbd5035fc	-0.050832734
75	0x3d8d0fc8	0.06887776
76	0x3c34adcc	0.0110277645
77	0x3ec008aa	0.3750661
78	0xbe0e9436	-0.13923725
79	0xbe8874ff	-0.2665176
80	0x3e210ec4	0.15728289
81	0xbd8a7d73	-0.06762209
82	0xbe1c117b	-0.15241043
83	0x3cfd03db	0.030885627
84	0xbc894a60	-0.016759098
85	0x3cecb3f2	0.028894398
86	0xbe738d75	-0.2378443
87	0xbd03aa0c	-0.03214459
88	0xbcc8ac5a	-0.024496246
89	0xbd29ec30	-0.04148501
90	0xbe290e9c	-0.1650948
91	0x3c32b89e	0.010908274
92	0xbde8fde7	-0.11376553
93	0x3e1f6081	0.15564157
94	0x3c9df736	0.019282918
95	0x3e08551f	0.13313721
96	0x3da80472	0.08203973
97	0x3e015a83	0.12632184
98	0xbce88bf5	-0.02838705
99	0xbd46516a	-0.048417486
100	0xbc6b38e2	-0.014356824
101	0xbd6af66a	-0.057363905
102	0x3bf3e6fc	0.007443307
103	0x3dbe4aca	0.09291609
104	0x3d003e40	0.031309366
105	0x3dd4e7fd	0.10395811
106	0x3d47698a	0.048684634
107	0xbd8aa1e5	-0.0676916
108	0xbe3b9677	-0.18319117
109	0x3e038473	0.12843494
110	0xbe50df05	-0.20397575
111	0x3e94111e	0.2891931
112	0x3d19c59d	0.037541974
113	0xbe04c951	-0.12967421
114	0xbd2bb853	-0.041923832
115	0x3e43423b	0.19068234
116	0xbe238341	-0.15968038
117	0x3e940d38	0.28916335
118	0xbd9de9db	-0.0771062
119	0x3e2e7f55	0.17040761
120	0xbd0901ec	-0.0334491
121	0x3dccedd4	0.100062996
122	0xbe32ec9f	-0.17473076
123	0xbc9c584c	-0.019085072
124	0x3d6547b8	0.0559766
125	0xbd69a87d	-0.05704545
126	0xbdcd6332	-0.10028686
127	0x3cc83909	0.024441259
128	0x3e3443ec	0.17604035
129	0x3e605509	0.21907438
130	0x3e176f37	0.14788519
131	0x3e6912fc	0.22761148
132	0xbd17b28e	-0.037035517
133	0x3ea58c56	0.3233363
134	0x3d937c54	0.07201448
135	0x3c9b20d6	0.018936556
136	0xbdffaad8	-0.12483758
137	0xbe77d579	-0.24202527
138	0x3e1d9f87	0.15392886
139	0xbdd543bb	-0.10413309
140	0xbe01996e	-0.12656185
141	0x3a7f2aa4	0.0009733832
142	0xbe5ae16f	-0.21375059
143	0xbcf609fe	-0.030034062
144	0xbd62e3b1	-0.055392925
145	0x39a57f49	0.00031566087
146	0xbe10de02	-0.1414719
147	0xbca99de3	-0.020705169
148	0xbd39cedc	-0.045363292
149	0xbe196fd8	-0.14984071
150	0xbdab6224	-0.08368328
151	0xbe10cf74	-0.14141637
152	0xbe0b0df8	-0.13579547
153	0x3d939874	0.072068125
154	0x3b98ee48	0.004667077
155	0xbdcdd056	-0.100495026
156	0xbe2a05bc	-0.1660375
157	0x3c468db3	0.012118745
158	0x3ca4b3af	0.020105211
159	0x3d410ee0	0.047133327
160	0xbd3f9a7d	-0.04677819
161	0xbddc732e	-0.10764156
162	0x3e08d668	0.1336304
163	0xbd9ea69a	-0.077466205
164	0x3e0120e3	0.12610202
165	0xbe0a7e0d	-0.13524647
166	0x3daaa175	0.08331577
167	0xbcee334b	-0.029077193
168	0x3e2f18d2	0.17099312
169	0xbdd5763b	-0.10422941
170	0x3eadd134	0.33948672
171	0xbe6ccd83	-0.23125271
172	0x3d5c77d1	0.053825203
173	0x3e20ff18	0.1572231
174	0xbc3cdf1a	-0.011527801
175	0xbdaaf1ae	-0.08346878
176	0x3d3b7a87	0.045771148
177	0xbd424c47	-0.047436025
178	0xbd97bc0b	-0.07408913
179	0xbe12fe31	-0.14354779
180	0xbd3eb70b	-0.046561282
181	0x3da403e6	0.08008556
182	0xbd8b9fc5	-0.06817583
183	0xbd7d74df	-0.061879035
184	0xbdcf793f	-0.10130548
185	0xbda8075c	-0.08204529
186	0xbd19c90c	-0.03754525
187	0xbe1c3371	-0.15253998
188	0x3d83a0ed	0.064271785
189	0xbd9d2915	-0.076738514
190	0x3e34f60f	0.17671989
191	0x3e42683a	0.18985072
192	0xbc773e81	-0.015090586
193	0xbdd046a5	-0.101697244
194	0xbd90894d	-0.07057438
195	0x3e14feb2	0.14550284
196	0x3c9374b7	0.01799999
197	0x3dd42732	0.103590384
198	0x3d8d81a1	0.069094904
199	0x3d404921	0.04694474
200	0x3b6d2a59	0.0036188571
201	0x3e0108f4	0.12601072
202	0x3de405d9	0.11133928
203	0xbe020425	-0.12696894
204	0xbd0d7a38	-0.034540385
205	0xbce5c59b	-0.028048327
206	0xbd88b496	-0.06675069
207	0x3d9d2b23	0.07674243
208	0xbd9486fc	-0.07252309
209	0xbd1ad6c1	-0.03780246
210	0xbb4fbf56	-0.0031699738
211	0x3cb59a94	0.022168435
212	0xbe0fd905	-0.1404763
213	0x3e877f02	0.26464087
214	0x3e9f2b66	0.31087798
215	0x3d43d50a	0.04781059
216	0xbca3e6fc	-0.020007603
217	0xbdf12254	-0.11774126
218	0xbaf455ef	-0.0018641333
219	0xbe0fc1fd	-0.14038844
220	0xbe03e742	-0.12881187
221	0xbea26dfa	-0.3172453
222	0xbdf4aca4	-0.11946991
223	0xbd4e2f3a	-0.050338008
224	0xbdd41941	-0.10356379
225	0xbd0ca1d4	-0.03433402
226	0xbbba2c1f	-0.005681529
227	0xbe1771bc	-0.1478948
228	0xbe1e77d7	-0.15475403
229	0xbd8a3edb	-0.0675027
230	0x3e209d92	0.15685108
231	0xbd818a0c	-0.063251585
232	0xbd80b28c	-0.06284055
233	0xbd3dc089	-0.046326194
234	0x3daf7cad	0.08568702
235	0x3dc0d6b5	0.09415952
236	0x3d00bfb5	0.031432826
237	0xbe4bc811	-0.19900538
238	0xbd026d8a	-0.031842746
239	0x3d255286	0.040361904
240	0x3e98dcc0	0.2985592
241	0x3e6c331e	0.23066375
242	0x3b8903a3	0.0041813417
243	0xbc33029a	-0.010925913
244	0xbc62023c	-0.013794478
245	0x3e5cc1e0	0.21558332
246	0xbe5a85c1	-0.21340086
247	0x3e2f5356	0.17121634
248	0xbe82818c	-0.2548946
249	0xbe4e6275	-0.20154746
250	0xbd089d03	-0.033352863
251	0xbe498eeb	-0.19683425
252	0xbda2a5a0	-0.07941747
253	0xbe33d371	-0.17561127
254	0x3e4e6ac7	0.2015792
255	0xbc64e824	-0.013971362

model_stack.11.bias f4 [10]
0	0x3b911f21	0.0044287597
1	0xbc138cae	-0.009005709
2	0x3cb8a812	0.02254108
3	0x3d9e079d	0.07716296
4	0xbd2d2a22	-0.04227651
5	0x3d1f9271	0.038958017
6	0x3c17b980	0.009260535
7	0xbd5fee74	-0.054670766
8	0x3de84473	0.11341181
9	0x3ce8b7d4	0.028407969
