model/20231112-225813.pt (torch, 181800 bytes, 10 tensors)

model_stack.0.weight f4 [6, 1, 5, 5]
0.08548129 -0.020312745 -0.030520769 -0.053916197 -0.21699402 0.10747202 0.06028537 -0.054040667
-0.30266726 -0.49228132 0.047360037 0.42266786 0.5577095 0.18525387 -0.32358655 -0.058952358
0.09957225 0.57793087 0.34782645 0.016087234 -0.18931028 -0.32428554 0.19430277 0.26879084
0.17099744 -0.033895213 0.18607166 0.24265859 0.06443177 0.02485083 0.044738267 0.37049624
0.3297305 -0.041584913 -0.25092062 0.14114998 0.5745726 0.23094389 -0.26402384 -0.2655894
0.27691075 0.480439 -0.021303741 -0.29001153 -0.33282208 0.39048642 0.33386734 -0.06882701
-0.29061988 -0.27267644 0.13197672 -0.03444943 -0.31699973 -0.35849875 -0.079363495 -0.13815144
-0.36632782 -0.48815712 -0.040696975 0.24057616 -0.15184852 -0.26261202 0.08038871 0.5305613
0.31741044 0.34003812 0.46578166 0.4766598 0.33631548 -0.0704756 0.22383927 0.30335972
0.20940603 -0.0181317 -0.13765465 0.1374816 0.12119501 0.09265805 0.12830257 0.067102045
-0.025242044 -0.08345786 0.2010752 0.23327605 0.17630498 -0.041456994 0.155266 0.49812785
0.3661793 0.09179491 0.10383604 0.3973541 0.45102137 0.015135141 -0.15862525 0.20119163
0.32365298 0.19155093 -0.090776965 -0.1793604 0.16104881 0.054928508 -0.1462647 -0.21299659
-0.14653984 0.28449678 0.44788367 0.33238354 0.22001359 -0.06630499 -0.019214083 0.4006986
0.38802013 0.5416448 0.20471239 -0.25392997 0.009767697 -0.027858252 0.27853745 0.28507742
-0.19453184 -0.16496162 -0.18545344 0.14846401 0.188128 0.37457794 0.5390307 0.57213384
0.44840407 0.4161118 0.338264 0.41548377 0.19613054 0.20441292 0.0027796149 -0.18318766
-0.33332658 -0.36571103 -0.37020218 -0.21075384 -0.51842237 -0.50440943 -0.36309698 -0.1894099
-0.118610255 -0.15758431 -0.03271854 0.014558626 -0.0038081934 -0.0032984351
00000000: d110 af3d ea66 a6bc b106 fabc 3bd7 5cbd
00000010: ae33 5ebe 4a1a dc3d cbed 763d bf59 5dbd
00000020: 34f7 9abe 4c0c fcbe 99fc 413d ec67 d83e
00000030: 0dc6 0e3f 31b3 3d3e 23ad a5be 0778 71bd
00000040: 89ec cb3d 47f3 133f 4f16 b23e 60c9 833c
00000050: 8eda 41be c108 a6be 4ef7 463e f49e 893e
00000060: f419 2f3e b5d5 0abd 9289 3e3e 7e7b 783e
00000070: cef4 833d f893 cb3c 793f 373d afb1 bd3e
00000080: 70d2 a83e f154 2abd ab78 80be 9f89 103e
00000090: 3117 133f 8e7c 6c3e 222e 87be 55fb 87be
000000a0: 3fc7 8d3e 1afc f53e 2f85 aebc 647c 94be
000000b0: a867 aabe d6ed c73e a9f0 aa3e 2df5 8cbd
000000c0: 21cc 94be 3f9c 8bbe e824 073e d81a 0dbd
000000d0: ca4d a2be 268d b7be 5489 a2bd 9277 0dbe
000000e0: 528f bbbe bbef f9be dfb1 26bd 9959 763e
000000f0: 2e7e 1bbe 1575 86be d6a2 a43d ded2 073f
00000100: 9f83 a23e 7a19 ae3e ef7a ee3e c10c f43e
00000110: 8b31 ac3e 8355 90bd 1f36 653e f751 9b3e
00000120: 896e 563e ee88 94bc 57f5 0cbe fac7 0c3e
00000130: 1735 f83d 81c3 bd3d c061 033e cc6c 893d
00000140: 67c8 cebc f4eb aabd a8e6 4d3e ebdf 6e3e
00000150: 4b89 343e cfce 29bd 0dfe 1e3e 9d0a ff3e
00000160: da7b bb3e f8fe bb3d fda7 d43d ff71 cb3e
00000170: 46ec e63e 62f9 773c a86e 22be 2e05 4e3e
00000180: d8b5 a53e ed25 443e 46e9 b9bd 41aa 37be
00000190: fbe9 243e b7fc 603d 6ac6 15be c71b 5abe
000001a0: 8a0e 16be 90a9 913e 0251 e53e 2d2e aa3e
000001b0: 3e4b 613e e9ca 87bd da66 9dbc 5e28 cd3e
000001c0: 93aa c63e 3ca9 0a3f 20a0 513e 1c03 82be
000001d0: b108 203c fd36 e4bc 769c 8e3e abf5 913e
000001e0: 5b33 47be b3eb 28be 82e7 3dbe f306 183e
000001f0: a0a4 403e aec8 bf3e eafd 093f 5d77 123f
00000200: 3895 e53e 9b0c d53e f030 ad3e 4aba d43e
00000210: 72d6 483e 9f51 513e 332a 363b 8c95 3bbe
00000220: c8a9 aabe 7a3e bbbe 248b bdbe dbcf 57be
00000230: 54b7 04bf fa20 01bf d9e7 b9be abf4 41be
00000240: efe9 f2bd c85d 21be e003 06bd 4e87 6e3c
00000250: e292 79bb 8f2a 58bb

model_stack.0.bias f4 [6]
-0.06897413 0.09620709 0.13996874 0.052098792 0.014659716 0.04859971
00000000: 4f42 8dbd 3908 c53d f753 0f3e 8b65 553d
00000010: 4e2f 703c 7d10 473d

model_stack.3.weight f4 [16, 6, 5, 5]
-0.054254416 0.0027916613 0.006118739 0.0501464 0.04301398 -0.06879335 -0.02249446 0.030682243
0.010132512 -0.06456475 -0.05731039 -0.06278192 0.08300769 0.047241926 -0.0725179 -0.01578375
0.016917987 0.057928 0.09711684 -0.053498242 -0.041734595 -0.017482536 0.04717617 0.06709253
-0.0008148618 -0.076836444 -0.0655278 0.08325037 0.21783793 0.07212442 -0.044175632 -0.043428797
0.20129251 0.24381873 -0.07522906 -0.08853969 0.014411685 0.18713088 0.13482022 -0.04362391
-0.018193698 0.050618764 0.058026668 0.057618465 -0.029779742 0.042626314 0.0998165 0.011806138
0.044943213 -0.01902298 -0.059329987 -0.06812266 0.07504899 0.049952228 0.007993921 -0.16986075
-0.11799675 0.052530233 -0.0026084234 0.0121871745 0.0007985022 0.04698548 -0.025110856 0.006286191
0.07084566 0.045409296 -0.04590227 -0.07926004 0.092616886 0.053337105 0.00973038 -0.020172996
-0.0444028 -0.03665736 -0.011562377 -0.08517699 0.021221744 0.13499385 0.13457611 -0.041449454
-0.15800337 -0.08122563 0.16484019 0.04565478 -0.11436398 -0.14154339 -0.044835374 0.047093
-0.039145764 -0.07313325 -0.04503871 -0.06550094 -0.064122684 0.033290055 -0.038038496 0.009883016
-0.05555326 0.0202935 -0.022452304 -0.0705789 -0.051590275 -0.024975663 -0.015463484 -0.033476148
-0.03435122 -0.06657467 0.026964867 0.017997323 -0.12711255 -0.04136691 -0.1071726 -0.092663996
-0.03528217 -0.065689765 -0.08757441 0.03253406 0.031707313 0.003737237 0.07126435 -0.010661084
-0.018494785 -0.01986274 0.014512317 0.064589985 -0.011850672 -0.092153475 -0.14701284 -0.14309788
-0.07494518 0.013947343 0.06833674 0.017410126 -0.08294681 0.014404113 0.04414351 -0.040139627
-0.10077409 -0.11611717 -0.016237238 -0.019499268 0.021043478 -0.08783904 -0.061301317 -0.105308324
0.024133833 0.010193792 -0.040073257 0.017176606 0.041633673 0.012910447 0.01720744 0.12852441
0.07341806 0.12347133 0.03249756 0.17011352 0.30983737 0.18472776 0.13660237 -0.024094056
-0.08054154 0.14506193 0.04199923 0.038821954 -0.03992479 0.06075035 -0.090225786 -0.13905647
-0.0439561 -0.012746627 -0.10180945 -0.12159443 -0.14284363 -0.094062336 0.04435981 -0.078797154
-0.0327052 -0.07444238 -0.13206148 -0.016226145 -0.14479922 -0.15599239 -0.16348903 -0.034915052
0.064270586 -0.08152423 -0.1925131 -0.096184105 0.09570105 0.13636763 -0.048539322 -0.047072843
0.17807733 0.1016241 0.060911197 -0.078206934 0.1671113 0.03753849 -0.032327395 0.03884924
0.033621095 -0.03300093 0.040459845 -0.0279179 -0.113267876 0.03142947 0.08499366 0.092377774
-0.12802851 -0.05292958 0.22863032 -0.059993155 -0.060574178 -0.0345655 -0.027326876 0.059986033
0.3290488 0.19625671 0.058014236 -0.018033262 0.21288541 0.1254498 -0.09002594 0.0017961932
-0.02384119 -0.046872504 -0.12043143 -0.21965837 -0.12050786 -0.11847127 -0.045422204 -0.041323394
-0.18395384 -0.1180145 -0.1276781 0.09603383 -0.09595301 -0.019521223 0.110843875 0.050102383
-0.10713473 0.22791967 0.17764595 0.092377655 0.002742677 0.073350996 0.108470865 -0.114202715
-0.017344758 0.019561918 0.014543559 -0.009712873 -0.015435388 0.09679821 0.0509486 0.12685609
00000000: e139 5ebd 4ef4 363b b47f c83b 5066 4d3d
00000010: 6d2f 303d 87e3 8cbd 4d46 b8bc 5459 fb3c
00000020: d602 263c 863a 84bd 4dbe 6abd cf93 80bd
00000030: f0ff a93d c080 413d 4484 94bd ec4c 81bc
00000040: 9797 8a3c e945 6d3d 32e5 c63d f920 5bbd
00000050: e5f1 2abd 8937 8fbc cd3b 413d cf67 893d
00000060: 739c 55ba 6d5c 9dbd 7033 86bd 2c7f aa3d
00000070: e810 5f3e f8b5 933d 82f1 34bd 65e2 31bd
00000080: a01f 4e3e 9eab 793e b211 9abd 4c54 b5bd
00000090: fd1e 6c3c 3d9f 3f3e 500e 0a3e fcae 32bd
000000a0: f30a 95bc 9f55 4f3d 5fad 6d3d 5701 6c3d
000000b0: a5f4 f3bc ee98 2e3d 986c cc3d 886e 413c
000000c0: 6016 383d 15d6 9bbc 0004 73bd e583 8bbd
000000d0: 49b3 993d b59a 4c3d eff8 023c faef 2dbe
000000e0: 48a8 f1bd f129 573d 15f2 2abb b7ac 473c
000000f0: 9352 513a d973 403d 48b5 cdbc 64fc cd3b
00000100: 8817 913d 19ff 393d 0504 3cbd 1653 a2bd
00000110: ecad bd3d 0278 5a3d 2c6c 1f3c d741 a5bc
00000120: b6df 35bd 0726 16bd 2070 3dbc 4671 aebd
00000130: 39d9 ad3c d43b 0a3e 52ce 093e e7c6 29bd
00000140: a3cb 21be a059 a6bd decb 283e 8200 3b3d
00000150: aa37 eabd c0f0 10be 4ca5 37bd 97e4 403d
00000160: 4f57 20bd e3c6 95bd 837a 38bd 5b25 86bd
00000170: c152 83bd 275b 083d 41ce 1bbd 60ec 213c
00000180: d18b 63bd 8e3e a63c e5ed b7bc ac8b 90bd
00000190: 5350 53bd c399 ccbc 8e5a 7dbc 491e 09bd
000001a0: ddb3 0cbd 4d58 88bd 6de5 dc3c 1f6f 933c
000001b0: cb29 02be 5970 29bd 4f7d dbbd 9fc6 bdbd
000001c0: 0984 10bd 5b88 86bd 365a b3bd 6f42 053d
000001d0: 87df 013d 6fec 743b 0bf3 913d d4ab 2ebc
000001e0: 6082 97bc 2fb7 a2bc 12c5 6d3c c147 843d
000001f0: 5229 42bc f6ba bcbd 898a 16be 4088 12be
00000200: dc7c 99bd 6683 643c 22f4 8b3d ae9f 8e3c
00000210: 04e0 a9bd 3bff 6b3c d3cf 343d 7369 24bd
00000220: a562 cebd d7ce edbd f503 85bc eebc 9fbc
00000230: 5f63 ac3c f4e4 b3bd 1717 7bbd e4ab d7bd
00000240: 51b4 c53c dd03 273c db23 24bd f4b5 8c3c
00000250: 1288 2a3d 5786 533c 9ef6 8c3c e79b 033e
00000260: 355c 963d 89de fc3d 291c 053d 3d32 2e3e
00000270: 01a3 9e3e 4629 3d3e 7ee1 0b3e e660 c5bc
00000280: f7f2 a4bd 1d8b 143e 6207 2c3d c503 1f3d
00000290: 2d88 23bd 5cd5 783d 4cc8 b8bd d264 0ebe
000002a0: 500b 34bd 3bd7 50bc 7981 d0bd 8006 f9bd
000002b0: 9a45 12be c1a3 c0bd a2b2 353d 6760 a1bd
000002c0: e3f5 05bd 3f75 98bd 203b 07be b1ec 84bc
000002d0: 3f46 14be 78bc 1fbe ab69 27be 1603 0fbd
000002e0: 4ca0 833d 2df6 a6bd 2722 45be 2cfc c4bd
000002f0: e9fe c33d f5a3 0b3e 2bd1 46bd 74cf 40bd
00000300: e759 363e 4c20 d03d 057e 793d f52a a0bd
00000310: 3a1f 2b3e f6c1 193d bb69 04bd 6120 1f3d
00000320: 46b6 093d fc2b 07bd 39b9 253d 14b4 e4bc
00000330: fdf8 e7bd 30bc 003d 2811 ae3d 8f30 bd3d
00000340: e819 03be b0cc 58bd 111e 6a3e 62bb 75bd
00000350: a11c 78bd 8e94 0dbd 9ddc dfbc eab3 753d
00000360: 1679 a83e 85f7 483e 56a0 6d3d 7eba 93bc
00000370: a2fe 593e ea75 003e 855f b8bd 3e6e eb3a
00000380: 994e c3bc 62fd 3fbd c1a4 f6bd 20ee 60be
00000390: d3cc f6bd 11a1 f2bd a20c 3abd b842 29bd
000003a0: 655e 3cbe 96b1 f1bd 0cbe 02be 62ad c43d
000003b0: 0383 c4bd f9ea 9fbc 1d02 e33d 2838 4d3d
000003c0: 7469 dbbd c663 693e d2e8 353e 7f30 bd3d
000003d0: 7cbe 333b 0c39 963d f925 de3d 1de3 e9bd
000003e0: 9816 8ebc 5140 a03c 1c48 6e3c be22 1fbc
000003f0: b6e4 7cbc 243e c63d 7baf 503d 90e6 013e

model_stack.3.bias f4 [16]
-0.012418422 -0.023657609 -0.054391507 -0.010795556 0.007623856 0.040212516 -0.06335355 -0.028763108
-0.002956013 0.020472424 -0.057747856 0.0576213 -0.013756599 0.034732416 -0.035978507 0.0051126056
00000000: a376 4bbc 9acd c1bc a1c9 5ebd d8df 30bc
00000010: 8ad1 f93b e1b5 243d 82bf 81bd 9ca0 ebbc
00000020: abb9 41bb c9b5 a73c 0489 6cbd 5004 6c3d
00000030: 5c63 61bc 9443 0e3d 335e 13bd a587 a73b

model_stack.7.weight f4 [120, 256]
0.006774369 -0.0310326 0.036276177 0.025587881 -0.023303982 -0.0028175055 0.032690912 0.05092117
-0.034610737 0.02449658 -0.018529607 0.020763202 -0.014077075 -0.038581338 0.002512465 -0.013019857
-0.004948439 0.04344093 -0.01239754 -0.045664076 0.034488376 0.03843665 0.010318494 -0.042668026
0.031577066 -0.018188154 -0.054878328 -0.048587978 0.021310342 -0.011887623 0.006958528 -0.034107525
-0.0011451235 -0.0049920427 0.07482487 -0.00044932685 -0.005144035 0.08076022 0.0044918107 -0.027667072
0.0091358945 -0.004983537 0.014448379 -0.021576302 -0.05208573 -0.03663224 -0.00062506273 -0.027432913
-0.06415673 -0.03940111 -0.033596985 0.048261758 0.07946885 0.06283937 0.02904672 0.016122306
0.058581553 0.013775307 -0.023368942 -0.021129262 0.036110938 0.0015915317 -0.04325399 -0.054501254
-0.018741347 0.0217819 -0.010503863 0.014039578 0.008112326 -0.020314295 0.011472722 -0.021985356
-0.017299213 0.027957417 0.02989651 0.024848513 -0.009759484 -0.009501224 -0.028892288 0.022241633
0.004078863 0.06045445 -0.015725123 -0.0027935496 0.025594546 -0.029943597 -0.015522633 0.023026733
-0.013017148 -0.024433952 -0.028605742 0.013117226 0.029125439 0.016106697 -0.042367697 0.03641106
0.017240895 -0.024172211 0.01735909 -0.005779347 0.012136485 0.0031028155 0.017986678 -0.057740096
-0.01323838 -0.0058500585 -0.020001564 -0.012564133 -0.0018936631 -0.0262863 0.018656315 0.050159145
0.0520387 0.038508445 -0.020113261 -0.060326733 0.00039082952 -0.008823126 -0.042545408 -0.029197868
0.05094436 -0.02968742 -0.027519098 0.04721793 0.014238257 0.028225496 0.024698079 0.0031451054
0.04357851 -0.0024413154 0.008864407 0.034348197 -0.0022578216 -0.021445952 0.03957941 0.031406645
-0.03320303 0.016327757 0.045796413 0.06802357 0.005885633 -0.018875249 -0.025793143 -0.07744616
-0.05844472 -0.013474142 -0.05716781 -0.024609841 -0.08689165 -0.036693178 -0.04086669 0.03913837
0.020242192 -0.027620116 -0.027206663 0.053872522 0.06612575 0.025685435 0.027812291 0.028417794
-0.014487899 -0.0020897058 -0.028160945 0.028291805 -0.019542187 0.010985032 0.009937249 -0.018704807
-0.011691248 -0.002116011 -0.0298772 0.017122274 0.019038454 0.017758371 -0.010877075 -0.00848006
-0.038162377 -0.029535627 -0.036839712 0.0023076725 -0.05739201 -0.046086818 -0.03332723 -0.0038323558
0.03156936 0.0055995462 0.024069611 0.009169547 0.007184455 0.02413388 -0.011589746 -0.018885298
-0.0011654542 -0.026354877 -0.033946175 -0.034751646 0.014942388 -0.025345817 -0.005299918 -0.055317607
-0.008078398 0.025253247 -0.00570614 0.022860086 0.07599267 0.007130773 0.016418071 -0.00040365016
0.039664183 -0.0113834385 -0.032808084 -0.024983613 0.020836972 -0.006200044 -0.038077537 -0.047119565
0.0043619317 0.01862347 0.06802953 0.031014977 0.026461791 0.028003637 0.027630666 0.045585632
-0.03570639 0.036700107 0.0018382915 0.008675822 0.050842885 -0.04804575 -0.044742703 0.0028284627
0.032966144 0.014378683 0.025531389 0.0669709 -0.0048429263 -0.018661642 0.013419681 0.032207575
0.0073736245 0.009019842 0.008405993 0.011085141 0.0011486685 -0.03221294 0.0022163931 0.037660606
-0.0088269105 -0.026120147 -0.025769075 -0.021738611 -0.012643574 0.01754167 0.0149136735 0.041452795
00000000: 87fb dd3b 1438 febc 5496 143d ad9d d13c
00000010: fee7 bebc e6a5 38bb e8e6 053d b792 503d
00000020: fdc3 0dbd 0dad c83c 67cb 97bc 9717 aa3c
00000030: 88a3 66bc 7707 1ebd 2ba8 243b 3d51 55bc
00000040: 8426 a2bb 1eef 313d 0d1f 4bbc 410a 3bbd
00000050: af43 0d3d c06f 1d3d e70e 293c abc4 2ebd
00000060: f456 013d 53ff 94bc 19c8 60bd 3004 47bd
00000070: 0793 ae3c 4ec4 42bc 5d04 e43b 55b4 0bbd
00000080: f817 96ba 4a94 a3bb c83d 993d a193 ebb9
00000090: 4b8f a8bb 9d65 a53d 0a30 933b 0ea6 e2bc
000000a0: b8ae 153c f04c a3bb e5b8 6c3c c9c0 b0bc
000000b0: d957 55bd b00b 16bd 40db 23ba fdba e0bc
000000c0: 9b64 83bd 0f63 21bd fe9c 09bd 1fae 453d
000000d0: 90c0 a23d edb1 803d 63f3 ed3c ed12 843c
000000e0: 36f3 6f3d d3b1 613c 3970 bfbc 4617 adbc
000000f0: 10e9 133d f19a d03a 192b 31bd b53c 5fbd
00000100: 7487 99bc f56f b23c 6518 2cbc 4206 663c
00000110: 90e9 043c 2a6a a6bc 15f8 3b3c a21a b4bc
00000120: 14b7 8dbc f406 e53c 87e9 f43c 1c8f cb3c
00000130: 3ee6 1fbc 06ab 1bbc 85af ecbc 1634 b63c
00000140: fca7 853b 169f 773d f9d1 80bc fc13 37bb
00000150: a7ab d13c 464c f5bc a452 7ebc 8fa2 bc3c
00000160: e045 55bc b629 c8bc 9756 eabc a2e9 563c
00000170: 7998 ee3c 31f2 833c c089 2dbd c323 153d
00000180: c73c 8d3c cd04 c6bc a634 8e3c ad60 bdbb
00000190: 1cd8 463c 9b58 4b3b cc58 933c e180 6cbd
000001a0: cae5 58bc d9b1 bfbb 52da a3bc cbd9 4dbc
000001b0: ca34 f8ba 5e56 d7bc 21d5 983c ad73 4d3d
000001c0: 8826 553d 08bb 1d3d 91c4 a4bc 2a19 77bd
000001d0: 40e8 cc39 df8e 10bc 1844 2ebd 5e30 efbc
000001e0: 09ab 503d 0833 f3bc bb6f e1bc 9767 413d
000001f0: 9447 693c 2839 e73c a053 ca3c 1d1e 4e3b
00000200: 617f 323d 7afe 1fbb 053c 113c b2b0 0c3d
00000210: f6f7 13bb 6caf afbc 051e 223d 41a4 003d
00000220: e6ff 07bd cac1 853c 0595 3b3d f14f 8b3d
00000230: 45dc c03b 44a0 9abc 244c d3bc 189c 9ebd
00000240: bb63 6fbd a6c2 5cbc cb28 6abd 949a c9bc
00000250: 40f4 b1bd 964b 16bd d563 27bd 8e4f 203d
00000260: f4d2 a53c 9543 e2bc 82e0 debc 6fa9 5c3d
00000270: f06c 873d 436a d23c 9ad6 e33c 6fcc e83c
00000280: a75e 6dbc 72f3 08bb c8b1 e6bc 37c4 e73c
00000290: f016 a0bc 90fa 333c d8cf 223c d33a 99bc
000002a0: a68c 3fbc c6ac 0abb 08c1 f4bc 0344 8c3c
000002b0: 88f6 9b3c 017a 913c c235 32bc f3ef 0abc
000002c0: 2750 1cbd b3f4 f1bc 3de5 16bd 523c 173b
000002d0: e213 6bbd 88c5 3cbd 2282 08bd 4328 7bbb
000002e0: e04e 013d 667c b73b a22d c53c de3b 163c
000002f0: 946b eb3b 6ab4 c53c ebe2 3dbc 57b5 9abc
00000300: 27c2 98ba 2fe6 d7bc 250b 0bbd be57 0ebd
00000310: ebd0 743c 08a2 cfbc efaa adbb b794 62bd
00000320: 425b 04bc e6df ce3c 92fa babb 1345 bb3c
00000330: 0ca2 9b3d 42a9 e93b 317f 863c 02a1 d3b9
00000340: e976 223d 9a81 3abc c561 06bd 6faa ccbc
00000350: 4cb2 aa3c bd29 cbbb 31f7 1bbd 7200 41bd
00000360: 89ee 8e3b 3f90 983c 1153 8b3d 1f13 fe3c
00000370: 66c6 d83c e267 e53c b559 e23c 00b8 3a3d
00000380: dd40 12bd da52 163d d4f2 f03a 0925 0e3c
00000390: a140 503d 9fcb 44bd 2044 37bd bb5d 393b
000003a0: 8207 073d 9194 6b3c 3427 d13c 0a28 893d
000003b0: 69b1 9ebb 4de0 98bc 39de 5b3c 17ec 033d
000003c0: 729e f13b f6c7 133c 4ab9 093c 749e 353c
000003d0: eb8e 963a b7f1 03bd e840 113b 0242 1a3d
000003e0: bf9e 10bc ebf9 d5bc ab19 d3bc 2c15 b2bc
000003f0: fe26 4fbc 8cb3 8f3c 7b58 743c 68ca 293d

model_stack.7.bias f4 [120]
0.02570872 0.030614087 0.022396347 0.019391708 0.0283191 0.0089089405 0.021600882 -0.0043885773
-0.018926382 0.012779477 0.014291832 -0.0072132554 -0.02069733 0.004643611 -0.020398127 0.0022281255
-0.0043405415 -0.012138301 -0.024519138 -0.008419984 -0.00044400673 0.015121395 0.0025769467 -0.0096595045
-0.004859093 -0.02626332 -0.026159681 0.005270723 -0.008836815 0.0035334253 0.017158756 -0.0047099586
-0.010442613 0.017272897 0.028080733 0.022186559 0.020246118 -0.010314524 0.029148784 -0.039326396
-0.018577317 -0.0052469433 0.012819992 0.00095610396 0.017492846 -0.009339932 0.016955694 0.017487982
-0.011887133 -0.007445024 -0.0053765606 -0.021346385 -0.01931051 0.02897459 -0.03043361 -0.01819766
-0.02879728 -0.01799763 -0.026770705 -0.016902206 0.018362666 -0.022155367 -0.006759069 -0.011892916
0.03119687 0.003779212 -0.005128274 0.023576785 0.02546256 0.03579012 0.00856136 -0.0045974753
0.014596966 0.021977773 0.010546618 0.026346337 -0.022720797 0.0007132196 -0.02415884 -0.02058135
0.011414064 0.021469353 0.012384758 -0.01150488 0.012304657 0.022649096 0.010399581 0.0074885893
-0.012682602 0.025701787 -0.02723963 -0.017904822 0.009777771 0.021443967 0.02329421 -0.013436747
0.02573397 0.0019025154 -0.0038107245 0.012276318 -0.015133469 -0.0031552988 -0.0064502503 -0.023943555
-0.0041523767 -0.017573243 -0.029018115 -0.017701445 0.0188376 0.023429507 0.0085624065 0.011189566
0.026474478 -0.0189844 -0.014454915 0.026357094 0.0107055465 0.004375901 -0.028547399 -0.018568862
00000000: 189b d23c 65ca fa3c 8b78 b73c 5cdb 9e3c
00000010: 75fd e73c cef6 113c 55f4 b03c 0ece 8fbb
00000020: 800b 9bbc 0361 513c 4a28 6a3c 2c5d ecbb
00000030: 728d a9bc 6f29 983b f919 a7bc be05 123b
00000040: 1a3b 8ebb b9df 46bc 5cdc c8bc f9f3 09bc
00000050: 93c9 e8b9 babf 773c fee1 283b e642 1ebc
00000060: 0739 9fbb 2d26 d7bc d44c d6bc 07b6 ac3b
00000070: 4ac8 10bc 0a91 673b 8590 8c3c ff55 9abb
00000080: 7e17 2bbc e47f 8d3c 9109 e63c 96c0 b53c
00000090: 30db a53c 40fe 28bc 6ec9 ee3c b714 21bd
000000a0: 752f 98bc 8dee abbb f20a 523c 0da3 7a3a
000000b0: 284d 8f3c 8406 19bc abe6 8a3c f542 8f3c
000000c0: 40c2 42bc 63f5 f3bb dc2d b0bb 9dde aebc
000000d0: 1331 9ebc 1f5c ed3c e84f f9bc 4213 95bc
000000e0: 46e8 ebbc c46f 93bc 3d4e dbbc 7f76 8abc
000000f0: 4d6d 963c 2c7f b5bc 2e7b ddbb 81da 42bc
00000100: 9490 ff3c a8ac 773b 150b a8bb 1a24 c13c
00000110: dc96 d03c a998 123d f244 0c3c 6ba6 96bb
00000120: 1d28 6f3c bb0a b43c b9cb 2c3c 46d4 d73c
00000130: f720 babc 5bf7 3a3a c2e8 c5bc 389a a8bc
00000140: 0e02 3b3c 7fe0 af3c 71e9 4a3c f77e 3cbc
00000150: 7999 493c 998a b93c 0163 2a3c d762 f53b
00000160: b0ca 4fbc 8e8c d23c a525 dfbc 22ad 92bc
00000170: f232 203c 42ab af3c 80d3 be3c cd25 5cbc
00000180: 0cd0 d23c d35d f93a 59bd 79bb 9c22 493c
00000190: 5ff2 77bc 21c9 4ebb 9f5c d3bb 4625 c4bc
000001a0: a910 88bb c3f5 8fbc 66b7 edbc 9f02 91bc
000001b0: 4f51 9a3c 3def bf3c 5649 0c3c 7154 373c
000001c0: 01e1 d83c 2c85 9bbc 4fd4 6cbc d5ea d73c
000001d0: 5166 2f3c b863 8f3b 3cdc e9bc ba1d 98bc

model_stack.9.weight f4 [84, 120]
-0.0112060085 -0.017246248 0.04382517 -0.011057178 0.0039215446 -0.029343342 -0.03332743 -0.028528335
-0.03153144 -0.022352137 0.01787111 0.041535188 -0.009972235 -0.00096551556 0.037948374 -0.03267232
0.011949942 -0.036655787 -0.038969375 0.021600287 -0.034493677 -0.021590825 -0.006032826 -0.034329314
0.030411182 -0.012226298 -0.02722534 0.019618906 -0.0051371693 -0.0063911974 -0.028505633 -0.01800163
-0.034442812 0.01697383 -0.020741312 0.021617947 -0.000420381 -0.04011674 -0.01457257 -0.01785628
-0.020657785 -0.040832847 -0.0026906151 -0.032657903 -0.021543298 0.04208972 -0.00466763 -0.02609362
-0.043582223 -0.008584969 0.01971532 -0.009443668 0.022646034 0.01845353 0.0343702 -0.032092877
-0.023784546 0.0025838267 0.005531706 0.02453156 -0.026084913 -0.005524624 -0.03872579 0.014289386
0.010485703 0.015921293 0.024009913 -0.028696315 0.030471155 0.034548208 0.004591575 0.042049885
-0.001139566 -0.03562819 0.025953226 -0.039585255 0.008123332 0.033723466 -0.017361775 -0.011310677
-0.0033036496 0.042474933 -0.0055150604 0.031885646 -0.018943444 0.016105667 0.021783806 0.030664457
0.0040513487 0.0008228997 -0.023196278 -0.025331171 0.04260337 -0.023022544 -0.002531727 -0.023243845
0.036955833 0.02743587 0.043279335 0.029455096 -0.041171934 0.005442692 -0.026304903 -0.031089125
0.011995635 -0.004263929 -0.022472462 -0.030218177 0.037027933 -0.036638584 -0.01381187 0.010091609
-0.0042759688 -0.023116264 -0.028145522 0.023992509 0.031248214 0.009271781 0.03980865 -0.023268338
0.0041244 -0.04559641 -0.0067632506 0.048374176 -0.015956003 -0.056918934 0.02950844 0.073707774
-0.039104518 -0.054342642 -0.016736256 0.046497524 -0.014567652 0.035755426 0.03237086 0.019552264
-0.03067901 -0.047890555 -0.027269876 0.019928003 0.018240426 0.027786797 -0.05370479 -0.052800167
0.027185712 0.0150355585 0.05926918 -0.013268367 0.053834993 0.00039370384 0.0006206425 0.040851247
0.02470767 0.012134843 -0.06127837 0.017749542 -0.016885368 0.029447187 -0.019487325 -0.01618405
-0.049030215 -0.030417208 0.06707246 0.03769567 0.049539264 -0.043716874 0.02709473 -0.020092238
0.005219376 0.039578058 -0.05316119 0.029538102 0.094916314 -0.042168025 0.023117151 0.0104177855
0.06953826 -0.0058576306 0.01500645 -0.009713226 -0.013292507 0.014934259 0.01046251 0.021264048
-0.050860006 -0.0101742465 -0.0519107 -0.018065039 -0.036778636 0.06257888 0.020716416 0.022914449
-0.031159861 0.014888104 0.007848965 -0.048903923 0.035166673 -0.02188762 0.046067204 -0.0007751144
-0.03379552 -0.027039764 0.033027172 -0.07096444 -0.010714198 -0.024428481 -0.0010532755 -0.03742762
0.038071517 -0.0398224 0.03432942 0.013841949 0.013223862 -0.023455437 -0.07962156 0.04950112
0.023371983 0.050069135 0.006366974 0.018169325 -0.047386844 0.038984433 0.037070047 0.0040821475
0.03644082 -0.021502642 0.0071734805 0.00059276976 -0.007275319 0.035339862 -0.009800714 0.005756179
0.009762153 0.0053971796 0.008791923 -0.012359413 0.033019975 -0.026196457 0.0060011433 -0.019669099
0.018372614 0.06352986 -0.006515253 -0.026313238 -0.078904726 -0.025962532 0.021831019 -0.019141262
0.020509237 0.034654588 -0.04785546 -0.014926635 -0.047045942 0.030582448 -0.0024499102 -0.030629471
00000000: 6899 37bc 0148 8dbc 0582 333d 2a29 35bc
00000010: 4d80 803b 7361 f0bc 5882 08bd 41b4 e9bc
00000020: 1c27 01bd d41b b7bc 6f66 923c cd20 2a3d
00000030: 9662 23bc a71a 7dba c16f 1b3d 69d3 05bd
00000040: b1c9 433c 6124 16bd 5a9e 1fbd 16f3 b03c
00000050: 3e49 0dbd 3edf b0bc 03af c5bb e59c 0cbd
00000060: df20 f93c d050 48bc ad07 dfbc d4b7 a03c
00000070: b355 a8bb 406d d1bb a584 e9bc 2878 93bc
00000080: e813 0dbd b40c 8b3c afe9 a9bc 1f18 b13c
00000090: 9566 dcb9 7351 24bd cac1 6ebc 5547 92bc
000000a0: 843a a9bc 5840 27bd 0855 30bb 4bc4 05bd
000000b0: 927b b0bc 4566 2c3d ebf2 98bb 4ac2 d5bc
000000c0: 4683 32bd f8a7 0cbc 0682 a13c 9db9 1abc
000000d0: 2d84 b93c db2b 973c c4c7 0c3d d273 03bd
000000e0: cfd7 c2bc 6b55 293b 5043 b53b 69f6 c83c
000000f0: 07b0 d5bc e807 b5bb ef9e 1ebd 071e 6a3c
00000100: 3acc 2b3c 5f6d 823c 70b0 c43c 8914 ebbc
00000110: a59e f93c 6c82 0d3d ec74 963b 803c 2c3d
00000120: 7d5d 95ba ddee 11bd dc9b d43c 2624 22bd
00000130: b917 053c 9e21 0a3d 483a 8ebc 6b50 39bc
00000140: 0b82 58bb 32fa 2d3d aeb7 b4bb 869a 023d
00000150: 482f 9bbc 08f0 833c f473 b23c 0734 fb3c
00000160: 2dc1 843b ddb7 573a 1f06 bebc 5183 cfbc
00000170: df80 2e3d c699 bcbc 55eb 25bb e069 bebc
00000180: 005f 173d 31c1 e03c ac45 313d d04b f13c
00000190: e7a3 28bd 9c58 b23b 617d d7bc 9fae febc
000001a0: 5789 443c 6eb8 8bbb 2b18 b8bc 1c8c f7bc
000001b0: 9aaa 173d 5712 16bd 2e4b 62bc 4757 253c
000001c0: 6d1d 8cbb 525e bdbc 7091 e6bc f08b c43c
000001d0: 41fc ff3c abe8 173c 650e 233d 3e9d bebc
000001e0: fa25 873b 4dc3 3abd 429e ddbb 0024 463d
000001f0: 2ab6 82bc d423 69bd afbb f13c 1af4 963d
00000200: 0f2c 20bd 6496 5ebd 791a 89bc 3074 3e3d
00000210: 29ad 6ebc 4874 123d 4f97 043d 122c a03c
00000220: 8c52 fbbc e328 44bd 1365 dfbc 0d40 a33c
00000230: f26c 953c 23a1 e33c 8ef9 5bbd fd44 58bd
00000240: 92b4 de3c b457 763c 3dc4 723d 9163 59bc
00000250: 1582 5c3d 096a ce39 9db2 223a a353 273d
00000260: bd67 ca3c 38d1 463c 07ff 7abd 7d67 913c
00000270: 2f53 8abc 3a3b f13c e2a3 9fbc 6a94 84bc
00000280: e8d3 48bd 822d f9bc 495d 893d c666 1a3d
00000290: afe9 4a3d 7710 33bd c4f5 dd3c 7a98 a4bc
000002a0: 4d07 ab3b 9a1c 223d 8cbf 59bd e4f9 f13c
000002b0: 7c63 c23d 61b8 2cbd 2e60 bd3c 5caf 2a3c
000002c0: 136a 8e3d 5ef1 bfbb 9ddd 753c 3924 1fbc
000002d0: d1c8 59bc d2ae 743c f36a 2b3c f131 ae3c
000002e0: 9552 50bd e2b1 26bc 50a0 54bd 22fd 93bc
000002f0: 32a5 16bd 5b29 803d 79b5 a93c 15b7 bb3c
00000300: f742 ffbc 3ced 733c f298 003c 7b4f 48bd
00000310: ee0a 103d ab4d b3bc f7b0 3c3d 0c31 4bba
00000320: 2c6d 0abd 7f82 ddbc 8047 073d ce55 91bd
00000330: 9b8a 2fbc 3d1e c8bc 100e 8aba b44d 19bd
00000340: e1f0 1b3d d01c 23bd 029d 0c3d 58c9 623c
00000350: e6a8 583c 9e25 c0bc a110 a3bd b0c1 4a3d
00000360: 9a76 bf3c 4b15 4d3d 0da2 d03b d6d7 943c
00000370: b518 42bd 24ae 1f3d c3d6 173d 89c3 853b
00000380: f842 153d 4f26 b0bc 840f eb3b 1b64 1b3a
00000390: cd65 eebb 88c0 103d 2d93 20bc 549e bc3b
000003a0: 70f1 1f3c d3da b03b ff0b 103c 237f 4abc
000003b0: f43f 073d f499 d6bc 3da5 c43b 1721 a1bc
000003c0: 2a82 963c f11b 823d e77d d5bb dc8e d7bc
000003d0: cd98 a1bd 60af d4bc f7d6 b23c 23ce 9cbc
000003e0: fd02 a83c f8f1 0d3d 1604 44bd d88e 74bc
000003f0: 3fb3 40bd 0b88 fa3c ac8e 20bb a8ea fabc

model_stack.9.bias f4 [84]
0.01358994 -0.011203863 -0.04275671 0.04360449 0.0019853846 0.030061455 -0.006646113 0.020537265
-0.0030499059 0.01754022 0.0073992657 -0.044090055 0.01701325 -0.03890406 -0.038162623 -0.024716346
0.035161853 0.031260364 -0.018635096 0.030640768 -0.025594736 0.03158141 -0.03840907 0.033530008
0.036719937 0.036397822 -0.04222195 -0.015997775 -0.0057396768 0.027204836 -0.041537683 0.027394392
0.042446163 0.0016932979 -0.007842769 -0.032988284 0.052318502 0.03966249 0.02662982 -0.032543942
0.0062093837 -0.04269779 -0.022580031 -0.04159793 0.005404052 -0.044886913 0.050817255 0.0046476964
-0.0046503213 0.047381304 0.022837948 0.012606758 -0.03932533 0.02123737 0.034968678 0.0072130137
-0.036741085 -0.011417955 0.036641926 0.030991947 0.03305861 -0.024400277 0.017548174 -0.0084486725
0.03935287 0.02698757 -0.026101993 -0.04102028 -0.03253251 0.031290963 0.013418891 0.0385043
0.0120440135 -0.018462729 0.054223873 0.01167773 0.031689603 0.017239977 0.033508103 -0.025861027
-0.014929353 -0.029063964 -0.0008535762 -0.019924525
00000000: 57a8 5e3c 6890 37bc a921 2fbd 9f9a 323d
00000010: 3a1d 023b 7143 f63c a3c7 d9bb c43d a83c
00000020: eee0 47bb 82b0 8f3c 8a75 f23b c697 34bd
00000030: 5f5f 8b3c dd59 1fbd 6950 1cbd ef79 cabc
00000040: e005 103d de0a 003d a1a8 98bc 5902 fb3c
00000050: 0dac d1bc 825b 013d d452 1dbd c356 093d
00000060: a567 163d e215 153d ecf0 2cbd c40d 83bc
00000070: e613 bcbb addc de3c 6b23 2abd 346a e03c
00000080: 07dc 2d3d a6f1 dd3a f57e 00bc b91e 07bd
00000090: ed4b 563d 2375 223d c826 da3c cc4c 05bd
000000a0: 1678 cb3b e1e3 2ebd c2f9 b8bc 9762 2abd
000000b0: 7914 b13b 57db 37bd c125 503d b44b 983b
000000c0: b961 98bb e612 423d a616 bb3c 938c 4e3c
000000d0: 9913 21bd fef9 ad3c 513b 0f3d 255b ec3b
000000e0: d27d 16bd 6012 3bbc d815 163d d3e2 fd3c
000000f0: 7768 073d 17e3 c7bc 30c1 8f3c 4d6c 0abc
00000100: 7a30 213d 0915 dd3c d9d3 d5bc e204 28bd
00000110: cf40 05bd f42a 003d e8da 5b3c afb6 1d3d
00000120: 4154 453c 263f 97bc da19 5e3d f353 3f3c
00000130: f5cc 013d da3a 8d3c cb3f 093d 81da d3bc
00000140: 3f9a 74bc 8d17 eebc 87c2 5fba c238 a3bc

model_stack.11.weight f4 [10, 84]
-0.0013688734 -0.012938091 0.03846772 -0.1010993 -0.031126447 0.23781596 -0.112865046 0.16308014
-0.006644536 -0.13583426 0.0822693 -0.00013076283 0.17499381 0.05505034 -0.09141912 -0.021861907
-0.16533117 0.05427524 -0.009002538 0.04120408 -0.046911664 -0.106047325 0.08801574 -0.05349706
0.18376592 -0.10455856 0.25079525 0.06722247 -0.022006396 -0.15774715 0.06715259 -0.15615395
0.071449675 0.012427141 0.17069373 -0.034410965 -0.13551745 0.15814652 0.018927783 -0.035651397
-0.19641338 0.040410362 -0.027317405 0.10940639 -0.11680992 0.046443317 -0.036522415 -0.01465196
0.38219294 -0.07766736 0.032618504 -0.06940898 -0.05630777 0.02102884 -0.10887728 -0.0023512763
-0.11232867 0.045416165 -0.07092133 0.043729443 -0.14906798 -0.0746206 -0.091848195 0.111757584
-0.10846393 0.05274618 0.09934165 -0.060449403 0.036491904 -0.054993007 0.01164731 -0.18405838
0.03623209 0.009815377 -0.14229876 0.068663225 0.18254367 -0.056133743 0.23136921 0.005814358
-0.062868975 0.24830842 0.059353746 -0.07479455 -0.012122135 0.0393317 0.11897411 0.13359721
0.022951597 0.21011019 -0.25558048 -0.15665011 0.076846786 0.2016486 -0.033016816 -0.052637946
-0.012843549 -0.043736987 0.056128666 0.11440628 -0.08809198 -0.06448473 0.009719493 -0.00046702678
0.028495949 -0.24190576 -0.052021477 -0.061597597 -0.12185944 0.16848378 -0.21385913 0.053951044
0.013954645 0.12543263 -0.031509854 -0.0800381 -0.14527628 -0.22086886 0.42125064 0.019568492
0.035923235 0.021117184 -0.14861709 0.04890587 -0.1447315 0.030090671 -0.1129203 -0.14684242
0.0004327618 0.057209812 0.04400863 -0.07199745 -0.08615857 0.10826899 -0.16707075 0.034981865
-0.0112134125 -0.03554 -0.11938522 -0.20569827 -0.034632597 0.02909632 -0.031502765 0.15243873
0.063304774 0.16674311 0.056498874 0.0064929076 0.043485742 -0.041781273 -0.069741055 -0.043611545
-0.01488873 -0.2270551 0.0152892545 0.08710716 0.06914758 0.030117339 0.31951576 -0.001790703
0.13232182 -0.018396096 -0.054724965 0.030714976 -0.009291182 -0.1360158 0.02664706 0.08242352
0.0148947295 -0.07554232 -0.11709771 0.2719306 0.021372825 -0.06653255 -0.18625447 0.24212949
0.13039115 -0.10664296 0.03561344 0.042157717 -0.029522602 -0.03914772 0.07209149 0.18872543
-0.014144485 -0.24095811 -0.03259633 -0.19020927 0.015722355 0.00428701 0.00874368 0.03387318
-0.16743903 -0.1254809 0.3259986 -0.14814998 0.24123724 0.11357074 -0.087550305 0.08581132
0.106721096 -0.05048156 -0.09307437 0.014132045 -0.15485114 -0.070146374 0.060116954 0.0043147528
-0.05188413 -0.042112004 -0.088043064 -0.045659676 -0.06895757 0.008637344 -0.03128649 0.018317634
-0.09637774 0.054206677 0.22207436 0.0022093228 0.0016811596 0.040201847 -0.013849347 0.07907051
0.3873402 -0.04736537 -0.14521442 -0.0034268973 -0.2768603 -0.1117249 -0.13020325 -0.0008059301
0.21172662 0.03649114 0.27722466 -0.06291425 -0.04180976 -0.12848265 -0.034545753 -0.17311011
-0.27758998 0.040889546 -0.17532039 -0.08102077 0.10523846 -0.0013507293 0.0036332568 0.022788865
-0.0052421256 -0.047114186 -0.03476902 0.28133404 0.040726196 -0.08202801 -0.010735868 -0.04081504
00000000: c56b b3ba 49fa 53bc 5490 1d3d 260d cfbd
00000010: e4fc febc 0786 733e ca25 e7bd 7bfe 263e
00000020: 68ba d9bb 2318 0bbe cf7c a83d 611d 09b9
00000030: 9431 333e 777c 613d f339 bbbd be17 b3bc
00000040: 934c 29be b74f 5e3d 627f 13bc 9cc5 283d
00000050: 7226 40bd 572f d9bd 9941 b43d bc1f 5bbd
00000060: 222d 3c3e cc22 d6bd 3c68 803e efab 893d
00000070: c246 b4bc 7888 21be 4c87 893d d2e6 1fbe
00000080: 3554 923d 359b 4b3c 56ca 2e3e 83f2 0cbd
00000090: 16c5 0abe 29f1 213e 700e 9b3c 3307 12bd
000000a0: 9720 49be 5685 253d c0c8 dfbc 7510 e03d
000000b0: 0a3a efbd 593b 3e3d 8798 15bd c60e 70bc
000000c0: cbae c33e 1110 9fbd fb9a 053d 4c26 8ebd
000000d0: faa2 66bd ad44 ac3c 0dfb debd df17 1abb
000000e0: 930c e6bd 4d06 3a3d 343f 91bd a51d 333d
000000f0: 47a5 18be afd2 98bd e81a bcbd 29e1 e43d
00000100: 5622 debd 610c 583d a373 cb3d cb99 77bd
00000110: 8978 153d 5940 61bd 5cd4 3e3c cd79 3cbe
00000120: 1a68 143d add0 203c c4b6 11be 4e9f 8c3d
00000130: baec 3a3e 7fec 65bd 0dec 6c3e 5f86 be3b
00000140: 73c1 80bd 9044 7e3e ea1c 733d e32d 99bd
00000150: eb9b 46bc 471a 213d b3a8 f33d b5cd 083e
00000160: fd04 bc3c 2027 573e 72db 82be e368 20be
00000170: d961 9d3d f87c 4e3e a43c 07bd e39a 57bd
00000180: c06d 52bc 8e25 33bd 2ce7 653d d74d ea3d
00000190: 9169 b4bd 9210 84bd 823e 1f3c 46db f4b9
000001a0: 5670 e93c 25b6 77be 7914 55bd c34d 7cbd
000001b0: 7191 f9bd 0387 2c3e e3fd 5abe c5fb 5c3d
000001c0: 06a2 643c 6971 003e 7a10 01bd 04eb a3bd
000001d0: 4ec3 14be 722b 62be 2aae d73e 1a4e a03c
000001e0: 3e24 133d f2fd ac3c 142f 18be 8651 483d
000001f0: 7f34 14be b680 f63c c242 e7bd dc5d 16be
00000200: 4ee4 e239 d654 6a3d 6542 343d 6673 93bd
00000210: e873 b0bd 22bc dd3d 9814 2bbe 2549 0f3d
00000220: 76b8 37bc 6492 11bd 3d80 f4bd 91a2 52be
00000230: e9da 0dbd 685b ee3c 0b09 01bd e618 1c3e
00000240: efa5 813d b5be 2a3e 5d6b 673d 75c2 d43b
00000250: 1b1e 323d d722 2bbd 66d4 8ebd 05a2 32bd
00000260: dcef 73bc 2281 68be c87f 7a3c 3d65 b23d
00000270: 3f9d 8d3d a3b8 f63c 9297 a33e 06b6 eaba
00000280: 5f7f 073e 69b3 96bc 4927 60bd f99d fb3c
00000290: 0b3a 18bc ba47 0bbe ef4a da3c aacd a83d
000002a0: 0609 743c efb5 9abd edd0 efbd 7d3a 8b3e
000002b0: 1016 af3c 3842 88bd 7eb9 3ebe cbf0 773e
000002c0: 4285 053e a067 dabd 66df 113d 92ad 2c3d
000002d0: 62d9 f1bc 5c59 20bd b4a4 933d 3d41 413e
000002e0: 45be 67bc b9bd 76be bb83 05bd 38c6 42be
000002f0: 2bcc 803c 0c7a 8c3b a741 0f3c 9bbe 0a3d
00000300: 2375 2bbe 117e 00be 4ae9 a63e a1b4 17be
00000310: e506 773e c797 e83d 934d b3bd d8bd af3d
00000320: 9790 da3d c1c5 4ebd c69d bebd 188a 673c
00000330: 4c91 1ebe e7a8 8fbd 323d 763d c562 8d3b
00000340: 7484 54bd a37d 2cbd ec4f b4bd a405 3bbd
00000350: a039 8dbd a683 0d3c 4326 00bd dd0e 963c
00000360: b161 c5bd d207 5e3d 7667 633e 49ca 103b
00000370: 5b5a dc3a b1aa 243d 5fe8 62bc b8ef a13d
00000380: 7451 c63e 3102 42bd 17b3 14be cc95 60bb
00000390: a2c0 8dbe 06d0 e4bd 0054 05be 0e45 53ba
000003a0: ddce 583e bc77 153d 64f0 8d3e 30d9 80bd
000003b0: b640 2bbd f590 03be d97f 0dbd c743 31be
000003c0: 4620 8ebe cc7b 273d 3087 33be 38ee a5bd
000003d0: 4387 d73d f40a b1ba ef1b 6e3b b7af ba3c
000003e0: 23c6 abbb cefa 40bd f669 0ebd 040b 903e
000003f0: 83d0 263d 4dfe a7bd 7ee5 2fbc ac2d 27bd

model_stack.11.bias f4 [10]
-0.03889618 0.0623092 0.05810296 -0.077571884 -0.0020343156 0.011465641 -0.0521104 -0.0021862506
-0.0031596746 -0.008667175
00000000: 9a51 1fbd ef37 7f3d 5ffd 6d3d 02de 9ebd
00000010: 2752 05bb 62da 3b3c b771 55bd 3347 0fbb
00000020: 8b12 4fbb c400 0ebc
