model/20231112-201815.pt (torch, 181800 bytes, 10 tensors)

model_stack.0.weight f4 [6, 1, 5, 5]
0	0xbe156285	-0.14588363
1	0x3eceba7a	0.40376645
2	0x3f567d3d	0.8378485
3	0x3f2bde39	0.6713596
4	0xbed41768	-0.41424108
5	0xbd403fb0	-0.046935737
6	0x3e846c9e	0.25864118
7	0x3e8c5b14	0.27413237
8	0x3e865250	0.26234674
9	0xbe3e2297	-0.18567882
10	0xbca5e8d1	-0.020252617
11	0x3d8a9c92	0.06768145
12	0x3d86fd3d	0.0659127
13	0x3d6351ca	0.055497922
14	0x3d33f83e	0.043937914
15	0x3e0cd07c	0.13751405
16	0xbd09ad9a	-0.033612825
17	0x3dcb1f49	0.099180765
18	0x3d0e5c67	0.03475609
19	0x3e803614	0.25041258
20	0xbd51924f	-0.05116492
21	0x3ddc7af1	0.10765637
22	0x3e2565f8	0.16152179
23	0x3de9dbe6	0.114188954
24	0x3e85b177	0.26111957
25	0x3e99f2fc	0.30068195
26	0x3eb82616	0.35966557
27	0x3ecf2f74	0.4046589
28	0x3e9a2e73	0.30113563
29	0x3d203331	0.03911132
30	0xbe441430	-0.19148326
31	0xbd5702af	-0.052492794
32	0xbe6525b0	-0.22377658
33	0x3ea01345	0.312647
34	0x3e6d2d84	0.23161894
35	0xbdb17cbd	-0.0866637
36	0xbe0efc0d	-0.13963337
37	0xbf09ab91	-0.53777415
38	0x3eb17352	0.34658295
39	0x3df2551a	0.11832638
40	0x3c535cdf	0.01290056
41	0xbd275e59	-0.04086146
42	0xbef2e82a	-0.47442752
43	0x3f08c6fa	0.53428614
44	0x3ebac1dc	0.36476028
45	0xbea09ad0	-0.31368113
46	0xbe9a13b1	-0.30093148
47	0xbee48e02	-0.44639593
48	0x3e47585d	0.19467302
49	0x3dc9a307	0.09845548
50	0x3e4e454b	0.2014362
51	0x3ece0504	0.40238202
52	0x3f23ea82	0.64029706
53	0x3e22c56f	0.15895627
54	0xbd03a26e	-0.032137327
55	0x3e3383f5	0.17530806
56	0xbd94bf9d	-0.0726311
57	0x3ec6eb80	0.38851547
58	0x3e7bf8c6	0.24606618
59	0x3e2efeca	0.17089382
60	0x3e9ef3a3	0.31045255
61	0x3d239d98	0.039945215
62	0xbe288bd4	-0.1645959
63	0x3e9ee80b	0.3103641
64	0x3e0a5154	0.13507587
65	0xbd8c6bbf	-0.068564884
66	0xbe8f0a1b	-0.27937397
67	0xbd1436b9	-0.036185
68	0xbee11d58	-0.439677
69	0xbeb50361	-0.3535414
70	0xbe8781eb	-0.26466307
71	0xbebbc297	-0.36671898
72	0xbee19135	-0.44056097
73	0xbed48335	-0.41506353
74	0xbe496769	-0.19668354
75	0xbdca1e9c	-0.098691195
76	0xbe27f1f2	-0.16400889
77	0x3c51140a	0.012761125
78	0x3ed8cb24	0.42342484
79	0xbe0e720d	-0.13910694
80	0x3c701571	0.0146535495
81	0xbf0d3544	-0.551594
82	0x3e114b2f	0.14188837
83	0x3f142755	0.57872516
84	0xbe4b85f6	-0.19875321
85	0x3e2b7a5b	0.16745894
86	0xbed9b598	-0.42521358
87	0xbde57c8e	-0.112053975
88	0x3eaa373f	0.33245274
89	0x3d4cffde	0.0500487
90	0xbe38706c	-0.18011636
91	0xbe3e6281	-0.18592264
92	0xbe5f0a4c	-0.21781272
93	0x3f0b1bf7	0.54339546
94	0x3d63da36	0.055628024
95	0xbe9c19a3	-0.3048831
96	0xbf0accf4	-0.54218984
97	0x3d7dfa34	0.06200619
98	0x3f25c644	0.64755654
99	0x3d9dce35	0.077053465
100	0xbe9a5e97	-0.3015029
101	0x3e4b0ae6	0.19828376
102	0x3e9370c0	0.2879696
103	0xbe39d109	-0.18146147
104	0x3ca45afe	0.02006292
105	0x3ddcc141	0.10779048
106	0x3ea08edd	0.31358996
107	0x3eb5464d	0.35405198
108	0xbf08c358	-0.5342307
109	0xbe6f3988	-0.2336179
110	0xbb9e5adc	-0.0048326086
111	0x3d6f7dc2	0.05846954
112	0x3f3534f0	0.707839
113	0xbf163cb8	-0.586864
114	0xbe432c3e	-0.19059846
115	0x3e38d5f8	0.18050373
116	0x3ec7c6b3	0.39018783
117	0x3f1bd481	0.6087113
118	0xbec37cc0	-0.38181114
119	0xbf4f5521	-0.8098927
120	0xbc9f8f59	-0.019477533
121	0x3d32c1ae	0.04364174
122	0x3f33929c	0.70145583
123	0x3e094672	0.13405779
124	0xbf5d1c42	-0.86371243
125	0x3e9864af	0.29764315
126	0xbe5090c4	-0.20367724
127	0xbeaf499a	-0.3423584
128	0xbe99bfdf	-0.300292
129	0xbe6e057b	-0.23244278
130	0x3d50347c	0.050831303
131	0xbe71ba3d	-0.236062
132	0xbeb57b85	-0.354458
133	0xbeec5e2a	-0.4616559
134	0xbef30d90	-0.47471285
135	0xbe654210	-0.22388482
136	0x3d79ed41	0.06101728
137	0xbe7c8fa5	-0.24664171
138	0xbf09e010	-0.5385752
139	0xbee64f41	-0.4498234
140	0xbe3fbd1c	-0.18724483
141	0x3d999704	0.07499507
142	0xbca50426	-0.02014358
143	0xbf07a499	-0.5298553
144	0xbeb92bac	-0.36166131
145	0xbe67ed71	-0.2264917
146	0xbd243015	-0.040084917
147	0xbdcd3e5b	-0.10021659
148	0xbe47f276	-0.19526085
149	0xbe7d0e19	-0.24712409

model_stack.0.bias f4 [6]
0	0x3edaf85c	0.42767608
1	0x3f415f97	0.75536484
2	0x3ef5a287	0.4797556
3	0x3bf6f206	0.0075361757
4	0xbcf1be20	-0.029509604
5	0x3e8b4732	0.27202755

model_stack.3.weight f4 [16, 6, 5, 5]
0	0xbea62323	-0.32448682
1	0xbebb6752	-0.36602265
2	0xbdfb7878	-0.12278837
3	0x3e3248f2	0.17410639
4	0xbeb741eb	-0.3579248
5	0xbe676026	-0.22595271
6	0xbe9e4c73	-0.309177
7	0xbd9ab3cf	-0.07553827
8	0xbd01cdf0	-0.031690538
9	0xbe0c8ede	-0.13726375
10	0xbdfa0135	-0.122072615
11	0x3de8813f	0.11352777
12	0x3d99eccc	0.075158685
13	0xbdad84ad	-0.084725715
14	0x3d1a0412	0.037601538
15	0x3d85db85	0.06536011
16	0x3e20013a	0.15625468
17	0x3e455ded	0.19274111
18	0xbcb02968	-0.021504119
19	0x3db7d7ef	0.08976733
20	0x3e665850	0.22494626
21	0x3e8973bb	0.26846108
22	0x3e24b75a	0.16085568
23	0x3e340f89	0.17584051
24	0xbca9770a	-0.020686645
25	0xbe87e1d0	-0.2653947
26	0xbd0e1905	-0.03469183
27	0x3e2901e4	0.16504627
28	0x3d81c667	0.0633667
29	0x3d3d88f1	0.046273176
30	0xbd6d3699	-0.057913397
31	0xbe01c44f	-0.12672542
32	0xbe398b71	-0.18119599
33	0x3d999823	0.07499721
34	0xbd8a447d	-0.06751344
35	0xbce84d88	-0.028357282
36	0xbc04a461	-0.008095832
37	0xbd9f3d3f	-0.07775354
38	0x3de50b0a	0.11183746
39	0x3d25dd6b	0.040494364
40	0x3db70b3d	0.089376904
41	0x3d736fa7	0.05943265
42	0xbd0f5beb	-0.03499977
43	0x3b8f01ba	0.0043642195
44	0x3d8bbdf1	0.06823338
45	0x3d7cea6d	0.061747003
46	0x3d23bd54	0.03997548
47	0x3db79c35	0.08965341
48	0x3e08e497	0.1336845
49	0xbde13e47	-0.109982066
50	0xbd74b428	-0.059742123
51	0xbd5629a2	-0.052285798
52	0xbd1ea2ac	-0.038729355
53	0x3de2f1cd	0.11081276
54	0x3d91cdc6	0.07119326
55	0xbd98bfae	-0.07458435
56	0xbd8045a6	-0.062632844
57	0xbd5a0272	-0.05322499
58	0x3defe203	0.1171303
59	0xbb75ad7f	-0.0037487445
60	0xbe258532	-0.16164091
61	0xbdaf28f0	-0.0855273
62	0x3e098602	0.13430026
63	0x3de17afa	0.11009784
64	0x3d3cf3df	0.04613101
65	0x3b11c504	0.0022242675
66	0x3d6c39f2	0.05767245
67	0xbd952610	-0.072826505
68	0x3bcb347b	0.0062013245
69	0x3e2a7a59	0.16648234
70	0x3cc56763	0.02409715
71	0x3de40cff	0.11135291
72	0x3cac3461	0.02102107
73	0x3d1daa51	0.038492505
74	0x3e2795a4	0.16365677
75	0xbe0e6de2	-0.13909104
76	0x3d48da13	0.049036097
77	0x3df254ed	0.118326046
78	0x3d41297f	0.047158714
79	0x3d1edab7	0.0387828
80	0xbdebfa80	-0.115223885
81	0xbb803080	-0.0039120317
82	0xbcccf27d	-0.025017971
83	0x3de3d9ba	0.111255124
84	0x3d1960d0	0.037445843
85	0x3d01b4ff	0.031666752
86	0x3c9beb12	0.019032989
87	0xbdfd7fa0	-0.12377858
88	0xbd822f87	-0.06356721
89	0x3b80169e	0.003908946
90	0x3d690eec	0.056898996
91	0x3db2fd09	0.08739669
92	0xbcf16da2	-0.029471222
93	0xbd8c07cb	-0.06837424
94	0xbd778d31	-0.060437385
95	0x3d24ce39	0.04023573
96	0xbcb2894c	-0.021793984
97	0x3dc308d7	0.095231704
98	0xbcb22999	-0.021748351
99	0xbc40d192	-0.011768715
100	0xbe06a760	-0.13149786
101	0xbca9816e	-0.0206916
102	0x3d91bd38	0.07116169
103	0x3e805fe9	0.25073174
104	0x3d0fa639	0.03507063
105	0xbe153568	-0.14571154
106	0xbdbbd78f	-0.09171974
107	0x3cf5e6fc	0.030017368
108	0x3d9bed76	0.076136515
109	0x3d5d776f	0.05406898
110	0x3c0b0fb5	0.008487632
111	0xbd84c475	-0.06482784
112	0xbd809f9c	-0.06280443
113	0xbd71bde3	-0.05901898
114	0x3d090aad	0.033457447
115	0x3d40312c	0.046921894
116	0x3bbd35d7	0.0057742405
117	0xbcad37f5	-0.021144846
118	0xbdf7e96c	-0.121050686
119	0x3ce1e427	0.027574612
120	0xbda6c213	-0.081424855
121	0xbda239fb	-0.07921215
122	0xbe1d233d	-0.15345474
123	0xbd02317e	-0.03178548
124	0x3e52fd9e	0.2060456
125	0x3e480a22	0.19535115
126	0x3e029699	0.12752761
127	0x3d14c098	0.036316484
128	0x3d093122	0.033494122
129	0x3e31eb4d	0.17374916
130	0x3d0ca45d	0.034336437
131	0xbd2e3fec	-0.04254143
132	0xbc99019c	-0.018677525
133	0x3daa5df2	0.083187
134	0x3e42f0da	0.1903719
135	0xbd36eeec	-0.044661447
136	0xbde007c8	-0.10938984
137	0xbc8e2521	-0.017351689
138	0xbd0181aa	-0.031617798
139	0x3e0773a5	0.13227709
140	0xbe4091e4	-0.18805653
141	0xbce18085	-0.027527103
142	0xbd1fa56b	-0.038976114
143	0xbcfd5439	-0.03092395
144	0x3cfa904e	0.030586388
145	0xbe1f1028	-0.15533507
146	0xbd431bb7	-0.047633853
147	0xbdd49883	-0.10380652
148	0xbad3dff4	-0.0016164766
149	0x3b1f07d2	0.0024266136
150	0x3e005203	0.12531285
151	0x3cab0b0d	0.020879293
152	0xbd96c209	-0.07361228
153	0x3d9a0f87	0.07522493
154	0x3d5c630a	0.05380539
155	0x3d97b23d	0.07407043
156	0xbe1698cd	-0.14706726
157	0x3d35acb6	0.044354163
158	0xbcd73eee	-0.026275124
159	0x3d76dc9c	0.060268983
160	0xbd14058d	-0.036138106
161	0xbdd2ae3b	-0.10287138
162	0x3cf285e2	0.029604856
163	0x3da929a3	0.08259895
164	0x3c7661b5	0.015037944
165	0xbe05a2d4	-0.13050395
166	0xbe074858	-0.1321119
167	0xbd6cd3a7	-0.057819035
168	0x3dd33700	0.10313225
169	0xbd9856fc	-0.07438466
170	0xbe81b4f5	-0.25333372
171	0xbe754c3c	-0.23954862
172	0xbcda1d56	-0.026625317
173	0xbd86224c	-0.0654951
174	0x3d49e721	0.049292687
175	0xbde4390f	-0.111436956
176	0x3da43bdc	0.0801923
177	0x3dbc0cc7	0.091821246
178	0xbd14c2d6	-0.036318623
179	0x3d8e8564	0.06959036
180	0xbe27e6a9	-0.16396584
181	0xbbb5a708	-0.0055435933
182	0x3dd08d85	0.10183243
183	0xbc879d12	-0.01655439
184	0xbd3b2dbd	-0.045697916
185	0xbddbf270	-0.10739601
186	0x3d6c053e	0.057622187
187	0x3dd43ea9	0.10363514
188	0x3c5e1d67	0.013556815
189	0x3d6472e0	0.055773616
190	0xbc5711a4	-0.013126764
191	0x3da66431	0.08124579
192	0xbd094603	-0.033514034
193	0xbd162eb3	-0.03666563
194	0x3db82f3b	0.089933835
195	0xbd20b7b9	-0.03923771
196	0x3cc61f8b	0.024184963
197	0xbdba0065	-0.090821065
198	0x3da5fa03	0.081043266
199	0x3e1c443a	0.15260401
200	0x3d9ea73f	0.077467434
201	0x3bf16059	0.007366222
202	0xbc90fa11	-0.017697366
203	0xbd89f147	-0.06735473
204	0xbd37f3ba	-0.04491017
205	0x3b722621	0.0036948996
206	0xbd5eb362	-0.05437029
207	0xbcb87494	-0.022516526
208	0xbd86b7fc	-0.06578061
209	0xbc0176ba	-0.007901842
210	0x3dc682bc	0.09692904
211	0xbdb9855a	-0.09058638
212	0xbd415dce	-0.0472086
213	0xbc213165	-0.009838437
214	0xbd5c31c5	-0.0537584
215	0x3a1fea3a	0.0006100271
216	0xbc25fb52	-0.01013072
217	0x3a3a0fd4	0.00070976955
218	0x3ddb0bf2	0.10695638
219	0x3db1b330	0.086767554
220	0xbdf4a807	-0.11946111
221	0xbdb8ccd3	-0.09023442
222	0xbbf7dc24	-0.0075640846
223	0x3e504d27	0.20341931
224	0x3daa8780	0.08326626
225	0x3cf7e9ef	0.030262915
226	0x3d2fd65c	0.04292904
227	0x3db9a747	0.09065109
228	0xbdb6e228	-0.08929855
229	0xbd120f21	-0.03565896
230	0xbda49953	-0.08037057
231	0xbd626826	-0.055275105
232	0x3da981c9	0.08276708
233	0xbd91af39	-0.07113499
234	0xbc17f02f	-0.009273573
235	0xbe13945d	-0.14412065
236	0xbd3df11b	-0.046372514
237	0x3d923982	0.07139875
238	0xbcc31bcb	-0.023816964
239	0xbd31b589	-0.043386016
240	0xbddf0d8a	-0.10891254
241	0x3e10f31d	0.1415524
242	0x3d59f0a3	0.053208005
243	0x3d0bed19	0.03416166
244	0x3d1db3ec	0.038501665
245	0xbd6dc427	-0.058048394
246	0x3e390eaa	0.18072
247	0xbc247b9f	-0.010039239
248	0xbd971d7c	-0.073786706
249	0x3cee6ecc	0.029105566
250	0xbd757214	-0.059923247
251	0xbdd9dc1d	-0.106376864
252	0xbd2a477c	-0.04157208
253	0xbd41f51d	-0.0473529
254	0x3c942ced	0.018087829
255	0x3c2792dc	0.010227885

model_stack.3.bias f4 [16]
0	0x3d985217	0.074375324
1	0xbd34bd08	-0.044125587
2	0x3d0ef67a	0.034903027
3	0xbd8aabb2	-0.067710295
4	0x3dcc3e53	0.09972825
5	0xbca43dd4	-0.020049013
6	0x3bfdb400	0.007742405
7	0x3d580c43	0.05274607
8	0x3d97c620	0.07410836
9	0x3c1d5ab9	0.0096041495
10	0x3dbe6722	0.09297015
11	0xbcb75ecd	-0.022384072
12	0x3db79912	0.08964743
13	0xbd0948fd	-0.033516873
14	0x3dcca79f	0.09992909
15	0x3e09fcfd	0.13475414

model_stack.7.weight f4 [120, 256]
0	0xbc114bbf	-0.008868157
1	0xbc3f4891	-0.011675016
2	0xbd34f66c	-0.04418032
3	0x3dd4e5de	0.10395406
4	0x3cbfdddf	0.023421226
5	0xbcc6b6c3	-0.02425707
6	0xbd93e6f5	-0.07221786
7	0x3ba82613	0.005131492
8	0x3d8296de	0.06376432
9	0x3dbdb0f2	0.09262265
10	0xbd279643	-0.040914785
11	0x3cde42f2	0.027131531
12	0xbd161080	-0.03663683
13	0x3cac87fd	0.021060938
14	0xbcb2bd52	-0.02181879
15	0x3d3ed6eb	0.04659168
16	0x3dbbd758	0.09171933
17	0x3c9fe253	0.0195171
18	0xbccf31c5	-0.025292287
19	0x3c2f8046	0.010711735
20	0x3dced1da	0.1009862
21	0x3c6a6ccb	0.014308165
22	0x3d56c628	0.05243507
23	0x3bf9e9e8	0.0076267608
24	0xbd1f430d	-0.038882304
25	0x3c5a5d7a	0.013327951
26	0x3ba01b70	0.0048860833
27	0x3bfb113e	0.0076619675
28	0xbe599678	-0.21248806
29	0xbdb197d7	-0.08671539
30	0xbce5cd01	-0.028051855
31	0x3c7b162c	0.01532511
32	0x3d213765	0.03935947
33	0x3d80227c	0.062565774
34	0xbcb87b1c	-0.02251964
35	0xbdeb3aa2	-0.11485793
36	0xbd484b08	-0.04889968
37	0x3d2d170a	0.0422583
38	0xbd392cbe	-0.045208685
39	0x3b9cda27	0.004786748
40	0x3b872d28	0.004125256
41	0xbd0f7895	-0.035027105
42	0x3d287d72	0.04113526
43	0x3cfc84b0	0.03082499
44	0x3d5e9f41	0.054351095
45	0xbbaa2694	-0.005192587
46	0xbcda2c54	-0.026632465
47	0xbd3833db	-0.04497133
48	0x3d9bbc81	0.07604314
49	0xbcd7d8f9	-0.026348578
50	0xbd4b8bd0	-0.049693882
51	0xbcefef59	-0.029288935
52	0xbd1ff72a	-0.039054073
53	0xbb3f96d1	-0.002923418
54	0x3d9ccd1e	0.076563105
55	0xbd6b5bce	-0.0574606
56	0xbc8311f5	-0.015999774
57	0xbd7009e3	-0.05860318
58	0x3d724871	0.059151117
59	0xbc8cfc20	-0.017210066
60	0xbca36a68	-0.0199482
61	0xbd62ac90	-0.05534035
62	0x3d1263a1	0.035739545
63	0x3d8b8603	0.0681267
64	0xbd213ce0	-0.039364696
65	0xbce44f93	-0.027869975
66	0x3da6e87e	0.08149813
67	0xbd6e4ff2	-0.05818171
68	0xbcc37dec	-0.023863755
69	0xbd3d6f00	-0.046248436
70	0x3d0326a7	0.032019284
71	0xbd41f101	-0.04734898
72	0x3d1948e9	0.03742305
73	0xbd71d8c9	-0.059044633
74	0x3d4a612e	0.049409084
75	0xbd5a1cad	-0.053250004
76	0xbca810d3	-0.020515835
77	0x3c495c5f	0.012290089
78	0xbc54a0b0	-0.012977764
79	0x3d43c670	0.047796667
80	0x3da3b3d0	0.07993281
81	0xbd0d6a3e	-0.03452515
82	0xbdac5eba	-0.08416505
83	0x3d8f4f9b	0.069976054
84	0x3d4016e3	0.046896826
85	0xbb989e81	-0.004657567
86	0xbd030e6b	-0.031996172
87	0x3cfdaae7	0.030965282
88	0x3d98c7e2	0.074599996
89	0x3cd9535b	0.026529005
90	0xbcee2722	-0.029071394
91	0xbd1d958b	-0.038472693
92	0x3cb72edb	0.02236121
93	0xbcf874b2	-0.030329082
94	0x3d84317b	0.0645475
95	0xbd074a9f	-0.03303015
96	0x3dc6eecb	0.09713515
97	0x3d0006df	0.031256553
98	0x3d430f6d	0.047622133
99	0xbe278dab	-0.16362636
100	0xbc81989b	-0.015819838
101	0xbbe86211	-0.0070917686
102	0x3cc47760	0.023982704
103	0x3973b7c2	0.00023242741
104	0x3d47b068	0.04875222
105	0x3cc013f4	0.023447014
106	0xbd86cbdd	-0.065818526
107	0x3ddafb9c	0.10692522
108	0x3da31463	0.07962873
109	0x3c912c70	0.017721385
110	0xbdb7f1e8	-0.08981687
111	0x3d6b6b43	0.05747534
112	0x3b868e76	0.004106338
113	0x3d15bddd	0.03655802
114	0xbaeaf185	-0.0017924762
115	0xbd0511e3	-0.03248776
116	0x3d2bd3cb	0.04195003
117	0x3d88b62e	0.06675373
118	0x3d32e736	0.04367753
119	0x3da5c028	0.080932915
120	0xbbb25bb6	-0.0054430617
121	0x3da4ed36	0.08053057
122	0xbd33b309	-0.043871913
123	0x3cf803c4	0.030275233
124	0xbc74a37f	-0.014931559
125	0x3d8f1a36	0.06987421
126	0xbd276c64	-0.040874854
127	0xbd934d38	-0.07192463
128	0x3cf0670e	0.029346015
129	0xbd0cdba6	-0.03438916
130	0xbdb12a84	-0.08650687
131	0xbd6a8782	-0.057258137
132	0x3d84ca0e	0.064838514
133	0x3bd5bb1a	0.0065225484
134	0xbd5cb130	-0.053879917
135	0xbd8e58d8	-0.06950539
136	0xb978ff73	-0.00023746285
137	0x3d1e98ef	0.038720068
138	0x3cf299c5	0.029614339
139	0xbd6abce3	-0.057309043
140	0xbbbff09f	-0.0058575417
141	0x3d1871df	0.03721797
142	0x3cf384be	0.029726382
143	0xbd6ff630	-0.058584392
144	0xbb5faec6	-0.0034131273
145	0xbbb33d5e	-0.005469962
146	0x3d61d1c7	0.0551317
147	0xbca96bbd	-0.020681256
148	0x3da7dcbc	0.081963986
149	0x3d36ddb1	0.044645015
150	0x3d1332be	0.035937063
151	0x3cd2123b	0.025643459
152	0xbc99eefb	-0.018790713
153	0xbd12aa6a	-0.03580705
154	0xbc84270e	-0.016131904
155	0x3be8d183	0.007105054
156	0xbd04ea5b	-0.03245006
157	0x3c68f0a5	0.01421753
158	0xbdc886c3	-0.09791329
159	0x3dccd102	0.100008026
160	0xbb4ca810	-0.0031228103
161	0xbcf2f0fe	-0.02965593
162	0xbd8feecd	-0.070279695
163	0x3c09dd89	0.0084146345
164	0x3cd0c4fa	0.02548455
165	0xbc52c5f0	-0.012864575
166	0xbc905431	-0.01761827
167	0xbda5906a	-0.080841854
168	0x3ca0c8ea	0.019627053
169	0x3d8b8a56	0.06813495
170	0xbd080316	-0.033206068
171	0xbda5c6e1	-0.08094574
172	0x3ce98db1	0.028509947
173	0xbe128d66	-0.14311752
174	0x3da50628	0.08057815
175	0xbd62a77a	-0.0553355
176	0xbd88c296	-0.06677739
177	0x3c91aba6	0.017782044
178	0x3c9f3b58	0.019437477
179	0xbd52dfac	-0.05148284
180	0x3bf6f69d	0.007536723
181	0x3d72a127	0.059235718
182	0x3cb34ebe	0.021888133
183	0xbb8f693d	-0.004376559
184	0xbd377ce2	-0.044796832
185	0x3d48ad46	0.04899337
186	0xbd1b0449	-0.037845884
187	0x3dfa22ae	0.12213646
188	0xbbea0c12	-0.007142552
189	0x3d037f4a	0.032103814
190	0xbdcdcc48	-0.10048729
191	0xbd1d15de	-0.038350932
192	0x3d2d4a8f	0.042307433
193	0x3b7c9c15	0.003854518
194	0xbcd384a6	-0.025820088
195	0xbcb19611	-0.021678003
196	0x3ca84a8a	0.020543355
197	0x3dbf45fa	0.09339519
198	0xbc31775c	-0.01083168
199	0x3c5c5355	0.013447602
200	0x3b25ea9e	0.0025316845
201	0x3d205ba4	0.039149895
202	0xbc6d8fa7	-0.014499581
203	0xbdb6358b	-0.08896931
204	0xbcf46d6e	-0.029837336
205	0x3d028584	0.03186561
206	0xbb90195d	-0.004397555
207	0xbc91fb53	-0.017820036
208	0xbdd9a473	-0.10627069
209	0xbc41baa4	-0.011824284
210	0x3d26b817	0.040702906
211	0xba141380	-0.00056486577
212	0xbd3a6b5d	-0.045512546
213	0x3ce9d63b	0.028544536
214	0x3d296437	0.041355338
215	0xbd250bcf	-0.040294465
216	0x3d2287a0	0.039680123
217	0xbcf42b16	-0.029805701
218	0x3dadc373	0.084845446
219	0xbc4d5ed8	-0.01253482
220	0xbcdcb115	-0.026939908
221	0xbdc90d5e	-0.09817003
222	0x3d086748	0.03330162
223	0x3d9f57fa	0.07780452
224	0x3c51419c	0.01277199
225	0x3dbb73bf	0.09152936
226	0x3d0b9b70	0.034083784
227	0xbbcf0e13	-0.0063188164
228	0x3ce9c571	0.02853653
229	0x3a5321e8	0.00080540637
230	0xbd3ee134	-0.04660149
231	0x3de34415	0.1109697
232	0x3d499f1c	0.049224004
233	0x3d8fa75e	0.07014345
234	0xbdbebf6c	-0.093138546
235	0x3dda46fd	0.10658071
236	0x3cb95557	0.022623701
237	0x3de3b683	0.11118796
238	0xbdc9d67d	-0.098553635
239	0x3cb687bb	0.022281518
240	0xbd739481	-0.059467796
241	0x3d281d0b	0.041043323
242	0xb6ad8253	-5.1709735e-06
243	0x3c93f5ed	0.018061602
244	0x3a7c4322	0.00096230407
245	0xbd05f4bf	-0.03270411
246	0xbd6268b9	-0.055275653
247	0xbd285dd0	-0.04110509
248	0xbd02ce2c	-0.031934902
249	0xbc5e1807	-0.013555533
250	0x3ace4ec7	0.001574003
251	0x3da999f5	0.08281318
252	0x3dbfcdf9	0.09365458
253	0xbd1228a5	-0.035683293
254	0xbcf22b5b	-0.02956169
255	0x3e15b551	0.14619948

model_stack.7.bias f4 [120]
0	0x3d537db9	0.05163357
1	0x3c6402d3	0.013916689
2	0x3d91eb3a	0.07124944
3	0xbd1f88b5	-0.038948733
4	0x3d24bccf	0.040219124
5	0x3b765e0e	0.0037592682
6	0xbd27a654	-0.040930107
7	0xbd4bf367	-0.049792673
8	0xbcb8814c	-0.022522591
9	0x3d65088d	0.055916358
10	0x3d322daf	0.0435006
11	0x3dc6932a	0.09696038
12	0xbcda888b	-0.026676437
13	0xbc496733	-0.012292671
14	0x3ce7d782	0.028301004
15	0x3c925dd5	0.017867008
16	0x3d271379	0.040790055
17	0x3c9884d3	0.018618023
18	0x3ca8d838	0.020610914
19	0x3cd236eb	0.025660953
20	0x3c0c4018	0.008560203
21	0x3cb54d0e	0.02213147
22	0x3c46d010	0.012134567
23	0xbbfd7d94	-0.0077359173
24	0x3cbdd498	0.023172662
25	0xbd2dc564	-0.042424574
26	0x3c284e9b	0.010272647
27	0xbca3cdd5	-0.01999561
28	0xbd379189	-0.044816528
29	0xbc5ec801	-0.013597489
30	0xbd92e717	-0.07172983
31	0x3d05f9a9	0.032708798
32	0xbcd76e24	-0.026297636
33	0xbc076058	-0.008262716
34	0x3cfe315f	0.031029401
35	0x3c154717	0.009111187
36	0xbc56025b	-0.013062085
37	0xbca4a993	-0.02010039
38	0xbc881777	-0.016612751
39	0x3cf60e56	0.030036133
40	0xbccb97a7	-0.024852587
41	0xbd28721a	-0.04112444
42	0xbcbd43d9	-0.023103641
43	0x3be973e2	0.00712441
44	0x3b69d8ad	0.0035682127
45	0xbcc343af	-0.023835985
46	0x3d484156	0.048890434
47	0x3ab0f68b	0.001350121
48	0xbc8f5d45	-0.017500529
49	0x3d72d170	0.059281766
50	0x3d3397a1	0.043845776
51	0xbc4c7389	-0.012478718
52	0xbd7e9150	-0.0621503
53	0x3d7393ec	0.05946724
54	0xbc03d321	-0.0080459425
55	0x3bfebf9b	0.007774306
56	0x3d08a990	0.033364832
57	0xbc523e2a	-0.012832204
58	0xbc02c244	-0.007980887
59	0x3d42709d	0.047470678
60	0xbce2e431	-0.0276967
61	0xbd2607b3	-0.040534686
62	0x3d29a8eb	0.04142086
63	0x3c1e7f4f	0.009673907
64	0xbc227df5	-0.009917726
65	0x3d35cc7f	0.044384476
66	0xbd45f858	-0.048332542
67	0x3d64189f	0.055687543
68	0x3d0e3942	0.034722574
69	0xbd842f0f	-0.06454288
70	0x3ce0ad08	0.027426258
71	0xbc73a052	-0.014869766
72	0x3d8cd893	0.06877246
73	0x3d2f4dcc	0.042798802
74	0xbcae2f46	-0.021262776
75	0xbc583a6d	-0.013197524
76	0x3c9f5d13	0.019453561
77	0x3c51b09f	0.012798457
78	0xbcb28f91	-0.021796973
79	0x3d750daa	0.059827484
80	0x3b4472ae	0.002997558
81	0xbcc0f537	-0.023554428
82	0x3bc4ec00	0.0060095787
83	0xbd14f6fe	-0.036368363
84	0x3d2617c5	0.040550012
85	0x3d5f0e00	0.05445671
86	0x3cbb3245	0.022851119
87	0xbc97094b	-0.018437048
88	0x3cf89ac6	0.03034724
89	0xbb89b368	-0.004202295
90	0x3d1e8cd3	0.03870852
91	0x3d18fdee	0.03735154
92	0xbcd7707d	-0.026298756
93	0xbd16a901	-0.03678227
94	0x3c695036	0.014240315
95	0x3d2f53e3	0.04280461
96	0x3d07f044	0.03318812
97	0x3c92f259	0.017937826
98	0x3d332a53	0.043741535
99	0xbc245038	-0.010028891
100	0xbc8a280e	-0.016864803
101	0x3d35c18f	0.044374045
102	0x3c285685	0.010274534
103	0x3d7a10a6	0.061051033
104	0x3c8f16dc	0.017466955
105	0x3d0df582	0.034657963
106	0xbcc06067	-0.023483468
107	0xbd08d7d8	-0.03340897
108	0x3c04b9c3	0.00810093
109	0xbd8de3f9	-0.06928248
110	0xbc16345f	-0.00916776
111	0x3d724dea	0.059156336
112	0xbcf37993	-0.029721057
113	0x3cea073a	0.028567899
114	0xbada3257	-0.0016647083
115	0xbbb4d9ae	-0.0055191135
116	0x3d873ceb	0.06603416
117	0x3c5dd7eb	0.013540248
118	0x3d8a984f	0.06767332
119	0xbc8a9164	-0.01691503

model_stack.9.weight f4 [84, 120]
0	0x3e67e5eb	0.226463
1	0xbd684f5b	-0.056716304
2	0xbd157252	-0.036485977
3	0xbc3c4611	-0.0114913145
4	0xba250673	-0.00062952115
5	0x3c2de388	0.01061333
6	0xbd638ada	-0.05555234
7	0xbd40f78e	-0.047111087
8	0x3dfc6985	0.12324814
9	0xbd0fe618	-0.035131544
10	0xbd801110	-0.062532544
11	0x3ccc94dd	0.024973327
12	0xbe0e33d7	-0.13886963
13	0xbcfd296a	-0.030903537
14	0xbdedd898	-0.116135776
15	0x3dc73cc1	0.09728385
16	0xbc7f224c	-0.015572142
17	0x3d0ff4fe	0.035145752
18	0x3d13a861	0.03604925
19	0xbdb4ebad	-0.08834014
20	0xbd313385	-0.043262023
21	0x3e29db20	0.16587496
22	0x3d94aca4	0.07259491
23	0xbcdcaea4	-0.026938744
24	0x3db57366	0.08859901
25	0xbb3b66dd	-0.0028595247
26	0x3b539279	0.003228335
27	0x3d9c0ff7	0.076202326
28	0x3d3e6a61	0.04648817
29	0xbc52b30d	-0.012860072
30	0xb991acc6	-0.0002778528
31	0x3ba92117	0.0051614153
32	0x3c9ee2f2	0.019395325
33	0xbd7fd2e2	-0.062456973
34	0x3cd36a7d	0.025807614
35	0x3daa6052	0.08319153
36	0xbda622fa	-0.0811214
37	0x3e36292c	0.17789143
38	0xbbdb49dc	-0.0066921543
39	0x3cdb0001	0.0267334
40	0xbcff3de8	-0.031157449
41	0xbe32296e	-0.17398617
42	0x3d4af086	0.049545787
43	0xbd6c9077	-0.05775496
44	0xbc363352	-0.011120634
45	0x3db3817e	0.08764933
46	0xbe36dc9e	-0.17857596
47	0xbd5254c4	-0.05135037
48	0x3c3653bd	0.011128363
49	0xbc95d617	-0.018290563
50	0x3dc40dc6	0.095729396
51	0x3d8ee855	0.069779076
52	0x3cbd7797	0.023128314
53	0x3cdac1c0	0.026703715
54	0xbca3720e	-0.019951846
55	0x3da20c55	0.079125084
56	0x3d447e9e	0.047972314
57	0x3cf39986	0.029736292
58	0xbc971576	-0.01844285
59	0xbc78d3b9	-0.015187197
60	0xbdb161d8	-0.0866124
61	0x3d296af2	0.041361757
62	0xbd6bc268	-0.057558447
63	0x3d8f1ff1	0.06988514
64	0xbdc9952e	-0.09842907
65	0x3daf1a32	0.08549918
66	0x3d826131	0.06366194
67	0xbe28fc30	-0.16502452
68	0xbda34079	-0.079712816
69	0x3ce0737c	0.027398817
70	0xbd869ce9	-0.06572897
71	0xbc4d4a19	-0.012529873
72	0xbdf66f34	-0.12032929
73	0x3e24f79d	0.16110082
74	0x3bc63ee2	0.0060499767
75	0xbbfd9e4a	-0.007739817
76	0xbb69ef42	-0.0035695587
77	0x3d8bce3b	0.06826445
78	0xbe423411	-0.18965174
79	0x3d865bf5	0.06560508
80	0x3c5b2a4a	0.013376782
81	0x3db35303	0.087560676
82	0x3dbcf6ba	0.09226747
83	0xbd1469fc	-0.036233887
84	0xbd52de9b	-0.051481824
85	0x3cec8793	0.02887324
86	0x3d263e60	0.04058683
87	0x3d3452ac	0.044024155
88	0xbc0eaa84	-0.008707646
89	0x3de3693c	0.11104056
90	0x3e2e9ae3	0.17051272
91	0xbd8e395e	-0.06944536
92	0xbdc9d981	-0.09855939
93	0xbc80b531	-0.015711399
94	0x3d02b6d6	0.031912647
95	0x3dd290b3	0.102815054
96	0xbd4100e8	-0.047120005
97	0xbbefd4d1	-0.007319071
98	0x3d1a3011	0.037643496
99	0x3e07ded5	0.13268597
100	0xbda84bff	-0.0821762
101	0xbb09864c	-0.0020984588
102	0xbcdecd0d	-0.027197385
103	0xbe8cee6e	-0.27525657
104	0xbd686d25	-0.056744713
105	0xbd4645e2	-0.04840649
106	0x3cc7468c	0.024325632
107	0xbd836b16	-0.064169094
108	0x3e05375d	0.130094
109	0xbc9d41ea	-0.01919647
110	0xbd18c2b3	-0.037295055
111	0x3df32f7c	0.11874291
112	0xbdbb5239	-0.09146542
113	0x3d94b2f5	0.07260696
114	0x3c1ec806	0.009691244
115	0xbb8d9fd6	-0.0043220324
116	0x3d9fa835	0.07795755
117	0xbdf8d07b	-0.121491395
118	0x3d8bb5a3	0.06821754
119	0x3d825352	0.06363548
120	0x3d6a367e	0.057180874
121	0xbdf34931	-0.118791945
122	0xbd85ddd8	-0.06536454
123	0x3c9a4a71	0.018834325
124	0x3c17897d	0.009249088
125	0x3d418e46	0.047254823
126	0xbd13fb21	-0.036128167
127	0x3d82606e	0.06366049
128	0xbd35176e	-0.044211797
129	0x3cdd9411	0.027048143
130	0xbd012af8	-0.03153512
131	0x3e09b810	0.1344912
132	0xbdcd7c39	-0.10033459
133	0x3cbf8c50	0.023382336
134	0xbd73d571	-0.059529725
135	0x3e11aab8	0.1422528
136	0xbcaa3d7b	-0.02078127
137	0xbdaaf93d	-0.0834832
138	0xbd9700cf	-0.07373201
139	0xbd0c13ce	-0.034198575
140	0xbc9a899e	-0.01886445
141	0xbe549218	-0.20758855
142	0xbcfe49ed	-0.03104111
143	0x3da1736d	0.07883344
144	0xbd415e1e	-0.047208898
145	0xbd20a233	-0.039217185
146	0x3d0e9dba	0.03481839
147	0x3d2a61f3	0.041597318
148	0x3e00551a	0.12532464
149	0x3d32dd38	0.043668002
150	0x3d84e803	0.06489565
151	0x3d2fb4bf	0.042896982
152	0x3b6eeedd	0.0036458292
153	0x3cabb9e9	0.020962672
154	0x3dcb7aa0	0.09935498
155	0xbca9721a	-0.02068429
156	0xbc956a2b	-0.018239101
157	0x3d762e63	0.06010283
158	0x3e00dd81	0.12584497
159	0x3d4a2e5d	0.04936062
160	0xbc612067	-0.0137406355
161	0xbd987de2	-0.07445885
162	0xbd0652ab	-0.032793682
163	0x3c8f9c14	0.017530479
164	0x3d9954ec	0.07486901
165	0xbd1bc6b0	-0.03803128
166	0xbc5a42de	-0.013321606
167	0x3d807857	0.06272953
168	0xbc9a208b	-0.018814346
169	0x3da00dd3	0.07815137
170	0x3dd7b9ae	0.105334625
171	0x391beefd	0.00014870982
172	0xbe136c8b	-0.14396875
173	0x3d756e90	0.059919894
174	0x3d5b85a3	0.053594243
175	0x3d9a430b	0.07532319
176	0x3c5a7546	0.013333624
177	0x3d62d3b8	0.055377692
178	0xbd034092	-0.032044
179	0x3cbb5cca	0.022871394
180	0x3d92feb1	0.07177485
181	0x3db2c2ac	0.08728537
182	0xbb40c09d	-0.0029411681
183	0x3debd168	0.115145504
184	0xbd0eff3d	-0.034911383
185	0x3d0977cd	0.033561517
186	0x3db5ee68	0.08883363
187	0xbd548a22	-0.051889546
188	0x3c84c598	0.016207501
189	0xbe00a101	-0.12561418
190	0x3a14be28	0.00056740874
191	0xbb91a077	-0.0044441777
192	0xbe0a9fd5	-0.13537534
193	0x3d3c1528	0.045918614
194	0x3d1d7036	0.03843709
195	0x3e154e75	0.1458071
196	0xbd83d0ce	-0.06436311
197	0x3e1112de	0.14167354
198	0x3de83400	0.11338043
199	0x3c0978dd	0.008390632
200	0x3c71cf02	0.014758827
201	0x3c045127	0.008075989
202	0x3cdd745e	0.027033027
203	0x3d669b62	0.05630053
204	0xbd19137d	-0.0373721
205	0x3d8c9893	0.06865039
206	0xbd95fccd	-0.073236085
207	0xbd225fda	-0.039642192
208	0xbd1ef456	-0.038807236
209	0xbdc191e3	-0.09451654
210	0x3ceaec38	0.028677091
211	0x3daf8f9a	0.08572312
212	0x3d3d9e81	0.04629374
213	0xbd256914	-0.040383413
214	0xbd56d81e	-0.0524522
215	0xbb9d4f46	-0.00480071
216	0xbc380cc8	-0.011233516
217	0x3de58829	0.11207611
218	0x3d851ea8	0.06499988
219	0xbc5f6e23	-0.0136370985
220	0xbd549b20	-0.05190575
221	0xbe04bb81	-0.12962152
222	0xbd1c5890	-0.038170397
223	0x3d825ceb	0.06365379
224	0x3d4d090d	0.05005746
225	0x3c49b229	0.012310543
226	0x3db2b3fd	0.08725736
227	0xbb769a61	-0.0037628638
228	0xbe32dcd2	-0.17467049
229	0xbd7259bf	-0.05916762
230	0xbe1ec969	-0.1550652
231	0x3e11cf43	0.1423922
232	0xbdba9d97	-0.09112089
233	0xbd277781	-0.040885452
234	0xbda0f371	-0.07858933
235	0x3da6253b	0.0811257
236	0x3dbdb66e	0.09263311
237	0xbd927d09	-0.07152755
238	0xbd2f1393	-0.042743277
239	0xbd165c52	-0.036709137
240	0xbc2fdeee	-0.010734303
241	0xbda50f7c	-0.08059594
242	0xbdabce2e	-0.08388935
243	0x3aaa23ef	0.001298068
244	0xbc8275ea	-0.015925366
245	0xbca80350	-0.020509392
246	0x3d6766ae	0.056494407
247	0xbdc0dbf3	-0.09416952
248	0x3d6e6c51	0.058208767
249	0x3d0999e5	0.03359403
250	0xbd301fdb	-0.04299913
251	0x3d4256fb	0.047446232
252	0xbd8b878c	-0.06812963
253	0x3d194019	0.037414644
254	0x3be65d90	0.0070301965
255	0xbcf5d9c0	-0.030011058

model_stack.9.bias f4 [84]
0	0x3c9fd6ee	0.019511666
1	0x3db9cdb0	0.09072435
2	0x3d7ae21c	0.06125079
3	0x3d086334	0.033297732
4	0x3da78159	0.08178968
5	0x3d2e2a5b	0.042520862
6	0xbd04d990	-0.032434046
7	0x3cb6cb85	0.022313843
8	0xbd86feb7	-0.06591552
9	0x3d98a77b	0.07453819
10	0x3d0d3aaa	0.034479775
11	0xbd698a96	-0.05701693
12	0xbd2dc096	-0.042419992
13	0x3d71b60a	0.059011497
14	0x3b82dc3f	0.0039935405
15	0x3ddcdef8	0.107847154
16	0x3da2d1a8	0.07950145
17	0x3df25d06	0.11834149
18	0xbc70780e	-0.014677061
19	0xbdbb295c	-0.09138748
20	0xbd1357e5	-0.035972495
21	0x3da3f9c7	0.080066256
22	0xbd5b2a2f	-0.053507026
23	0x3d9ccb55	0.0765597
24	0x38454b14	4.7038382e-05
25	0x3d868cad	0.065698005
26	0xbcb9eb7e	-0.0226953
27	0xbd12b50f	-0.035817202
28	0x3d4fcd56	0.050732933
29	0xbd78424a	-0.060610093
30	0xbdcee147	-0.10101562
31	0xbdd95b37	-0.10613101
32	0x3b9f5b3e	0.004863172
33	0x3df40932	0.11915816
34	0xbd964737	-0.07337802
35	0x3d653bac	0.05596511
36	0x3d91ab41	0.07112742
37	0x3d8a1470	0.067421794
38	0xbca6927d	-0.020333523
39	0xbd808df1	-0.06277073
40	0x3d7ec570	0.06220001
41	0xbcc91b95	-0.024549285
42	0xbd75a0c6	-0.05996778
43	0x3d678d9d	0.056531537
44	0xbd135469	-0.03596917
45	0xbb5bb201	-0.0033522847
46	0xbcafd8c5	-0.021465668
47	0xbd40573c	-0.046958193
48	0x3cecea90	0.028920442
49	0x3d3d7b78	0.046260327
50	0x3c4692dd	0.012119976
51	0xbd3722d7	-0.04471096
52	0x3bfcad40	0.0077110827
53	0x3b269d22	0.0025423248
54	0x3d9f9faa	0.077941254
55	0xbbad350d	-0.005285865
56	0xbd065982	-0.032800205
57	0xbd6140e1	-0.054993514
58	0x3ce26937	0.027638061
59	0xbd57216b	-0.052522104
60	0x3c1d80d1	0.009613232
61	0xbd7d9690	-0.061911166
62	0x3d8a472f	0.067518584
63	0xbd44c3db	-0.048038345
64	0xbddda658	-0.10822743
65	0xbd70d02c	-0.05879228
66	0xbc5e18ea	-0.013555745
67	0xbcebfb57	-0.028806372
68	0xbd9951d5	-0.07486311
69	0x3c34e508	0.011040933
70	0x3c56ef7f	0.013118624
71	0x3cbcfe54	0.023070492
72	0x3d33b97a	0.043878056
73	0x3d9d6830	0.07685888
74	0x3bb55a03	0.005534412
75	0xbc5ad119	-0.013355517
76	0x3d081d0b	0.033230823
77	0x3e0468e1	0.12930633
78	0x3b924cbb	0.0044647134
79	0xbd02f1ba	-0.03196881
80	0x3db0549e	0.086098894
81	0x3cdd32af	0.027001707
82	0x3d94e73e	0.072706684
83	0xbcc1c262	-0.02365226

model_stack.11.weight f4 [10, 84]
0	0xbd38a1e4	-0.045076266
1	0xbcfeea10	-0.03111747
2	0xbcc3b9f4	-0.02389238
3	0x3e3912b6	0.18073544
4	0xbd7b7ba4	-0.06139721
5	0x3e4d99be	0.20078179
6	0x3bbf0981	0.0058299904
7	0x3e149cdc	0.14512962
8	0xbb0c69b5	-0.002142531
9	0x3de44b50	0.11147177
10	0x3dff5d93	0.1246902
11	0x3c98aed7	0.018638058
12	0x3d7715e5	0.060323615
13	0x3cbedeed	0.023299659
14	0xbc5fd6f6	-0.0136620905
15	0xbe2812c7	-0.16413413
16	0x3e764d20	0.24052858
17	0x3e9ea543	0.3098546
18	0x3e008140	0.12549305
19	0x3e8899f8	0.2667997
20	0x3e77ff77	0.24218546
21	0xbe4fd7dc	-0.20297188
22	0xbc120220	-0.008911639
23	0xbd689b75	-0.05678888
24	0x3db9044a	0.09034021
25	0x3d9a2b8b	0.075278364
26	0x3cf25104	0.029579647
27	0xbe904639	-0.28178576
28	0xbe073e1e	-0.1320729
29	0xbde108fc	-0.10988042
30	0x3cf66da1	0.030081572
31	0xbe77cf38	-0.24200141
32	0x3d6631d7	0.056199875
33	0x3e83d510	0.2574849
34	0x3dea2bec	0.11434159
35	0x3bda6b0f	0.0066655944
36	0x3e2f3af0	0.17112327
37	0xbe07a8aa	-0.13247934
38	0xbccb971d	-0.02485233
39	0x3d216546	0.039403223
40	0x3c616226	0.013756311
41	0xbc8dbf5c	-0.017303161
42	0x3e27804e	0.16357538
43	0x3ddeb407	0.10874181
44	0xbdd16d32	-0.102259055
45	0x3dd14d14	0.102197796
46	0x3e1160f4	0.14197141
47	0x3be37762	0.006941722
48	0xbd8226ce	-0.06355058
49	0x3e4e7673	0.20162372
50	0x3ca5c132	0.020233724
51	0xbc4de185	-0.012565975
52	0xbe0bf098	-0.13665998
53	0x3ec137c7	0.37737867
54	0xbe9bf0e4	-0.30457222
55	0x3ac9595d	0.0015361715
56	0x3e46c4ea	0.19411054
57	0x3e03b9be	0.12863824
58	0xbcde3895	-0.02712659
59	0x3c8b6a0f	0.017018346
60	0x3da1ced4	0.079007775
61	0xbcfbbc25	-0.030729363
62	0xbd20d4a3	-0.039265286
63	0x3e87f898	0.2655685
64	0xbd9425da	-0.07233782
65	0x3e5affad	0.21386595
66	0xbe7cea63	-0.24698786
67	0xbd35ae59	-0.044355724
68	0xbd911d88	-0.07085711
69	0x3dbe1c19	0.09282703
70	0xbe108c54	-0.14116031
71	0xbe58dd81	-0.21178247
72	0xbdb722f0	-0.08942211
73	0x3e3071c5	0.172309
74	0x3e57f2ab	0.21088664
75	0xbc2508d6	-0.010072907
76	0xbe6f7ba9	-0.23387016
77	0xbdfa20c1	-0.122132786
78	0x3e8ec304	0.2788316
79	0x3d58776b	0.05284826
80	0xbd9b20fb	-0.0757465
81	0xbcaa06e4	-0.020755239
82	0xbd34ca3d	-0.044138182
83	0xbe07397f	-0.13205527
84	0xbe1b9906	-0.15195093
85	0x3e7630b8	0.24042022
86	0xbded850e	-0.11597644
87	0xbd69501b	-0.05696116
88	0x3dc95fce	0.098327264
89	0xbe2c8b17	-0.16849934
90	0x3e50ee71	0.20403458
91	0x3e87b0ad	0.2650198
92	0x3d4746d6	0.04865154
93	0x3d149031	0.036270324
94	0xbea30c47	-0.31845304
95	0x3da5b163	0.080904745
96	0xbbfe766f	-0.007765583
97	0x3d3e0f82	0.04640151
98	0xbe735878	-0.23764217
99	0xbebb15fe	-0.36540216
100	0x3e11a9ab	0.1422488
101	0xbdaf8d52	-0.085718766
102	0xbd9c7b79	-0.07640738
103	0xbcfdd683	-0.030986076
104	0xbd02338c	-0.03178744
105	0x3e2a6aa4	0.16642243
106	0xbc5c41ce	-0.013443423
107	0xbe1671d1	-0.14691855
108	0xbc4d8142	-0.0125430245
109	0xbdbc92d2	-0.09207691
110	0xbbdaf193	-0.00668163
111	0x3b6542b9	0.0034982397
112	0xbe1caf5e	-0.15301272
113	0xbe2fe751	-0.17178084
114	0x3de54604	0.11194995
115	0x3dececf6	0.11568634
116	0xbc6a5f7b	-0.014304991
117	0xbe68a4fc	-0.22719187
118	0x3e0845da	0.13307896
119	0xbe412df3	-0.18865184
120	0xbc873813	-0.01650623
121	0xbde45832	-0.111496344
122	0xbdc1fbe2	-0.09471871
123	0xbe94d0b5	-0.2906548
124	0xbde33659	-0.1109435
125	0x3eb67ca5	0.3564197
126	0x3e8f256b	0.27958235
127	0x3d7a6183	0.06112815
128	0x3e403be4	0.18772846
129	0xbdbb53ce	-0.09146844
130	0xbe953792	-0.2914396
131	0xbcd783db	-0.02630799
132	0xbd998b3f	-0.07497262
133	0xbd13197a	-0.03591297
134	0x3dbc845e	0.092049345
135	0x3c58896b	0.013216357
136	0x3e84a8f5	0.25910154
137	0xbc20c5a8	-0.00981275
138	0xbe2e3b34	-0.17014772
139	0x3d4dda2a	0.050256886
140	0xbdcac457	-0.0990073
141	0xbd9dbf3f	-0.07702493
142	0x3dd8a8d3	0.10579076
143	0x3cc1f25e	0.02367514
144	0xbcf00f83	-0.029304272
145	0xbd303d8d	-0.04302745
146	0x3e89e405	0.26931778
147	0xbdc76c27	-0.09737425
148	0xbd91dcac	-0.07122168
149	0xbdfb63de	-0.122749075
150	0x3e7f6d5f	0.24944066
151	0xbcaab1f4	-0.020836808
152	0xbd89e137	-0.067324094
153	0x3dd90cf5	0.105981745
154	0x3e6451d1	0.22296835
155	0xbde2e83a	-0.1107945
156	0xbdac60a2	-0.08416869
157	0x3da805ee	0.08204256
158	0x3df10f73	0.11770525
159	0x3d935337	0.07193606
160	0x3e67fa54	0.22654086
161	0x3e439b2f	0.19102167
162	0x3d3380b8	0.043823928
163	0x3d5eb24b	0.054369252
164	0xbe1a7e4a	-0.15087238
165	0x3bd1f957	0.0064078975
166	0x3d149ad5	0.03628047
167	0x3e3cf017	0.18450962
168	0xbe552daa	-0.208182
169	0x3e54234e	0.20716593
170	0xbd691099	-0.056900594
171	0xbb193a3b	-0.0023380655
172	0x3e333c92	0.17503574
173	0x3e0756e5	0.13216741
174	0xbcd82a92	-0.026387487
175	0xbdb54162	-0.088503614
176	0xbd7a6223	-0.061128747
177	0x3d246d3e	0.040143244
178	0x3e957ae1	0.29195312
179	0x3ce3d251	0.027810248
180	0xbc4f8f34	-0.01266842
181	0x3e51752b	0.20454852
182	0xbd315bfb	-0.04330061
183	0x3e44d668	0.19222414
184	0x3e0a8be7	0.13529931
185	0x3e94ece8	0.29086995
186	0x3d9bc563	0.07606008
187	0xbe144260	-0.14478445
188	0xbe620de7	-0.22075616
189	0xbe2bcc44	-0.1677714
190	0xbea098ef	-0.3136668
191	0x3dacd00c	0.08438119
192	0xbcfdc184	-0.030976065
193	0xbe0df22b	-0.13861911
194	0x3de8f4c0	0.11374807
195	0xbe74c6d0	-0.23903966
196	0x3e3a8ca3	0.18217711
197	0x3df1a42e	0.11798893
198	0x3d6350e3	0.05549706
199	0x3c3cfe0c	0.011535179
200	0xbdd49283	-0.103795074
201	0x3e9508e6	0.2910835
202	0xbd892f08	-0.066984236
203	0xbdd358c1	-0.10319663
204	0x3ecb5dcf	0.39720008
205	0xbc60e73b	-0.013727005
206	0xbda2dbc6	-0.07952075
207	0x3c16cc77	0.009204022
208	0xbe81711f	-0.25281617
209	0x3d2054b5	0.039143283
210	0xbddbc7b6	-0.10731451
211	0xbcc28cae	-0.023748722
212	0xbe54f675	-0.20797141
213	0x3e1359ae	0.14389679
214	0xbd9d8d6c	-0.0769299
215	0x3d8eae39	0.06966824
216	0xbd140850	-0.03614074
217	0x3e3fc083	0.18725781
218	0x3e91f0b4	0.28503954
219	0x3d9be4c5	0.07611994
220	0x3e408106	0.18799219
221	0xbdd7b9ea	-0.10533507
222	0x3e621c5b	0.22081129
223	0xbcd5cbae	-0.026098099
224	0xbd98447f	-0.074349396
225	0x3d41a56d	0.047276903
226	0xbe9c748e	-0.30557674
227	0xbd007bca	-0.031368054
228	0xbe2b8086	-0.16748247
229	0xbbac19e4	-0.00525211
230	0xbd0be884	-0.03415729
231	0xbe8736f2	-0.26409107
232	0x3e84a55e	0.25907415
233	0xbd376b0c	-0.044779822
234	0xbdd6f106	-0.1049519
235	0xbd8b082b	-0.06788667
236	0xbe28a0ce	-0.16467592
237	0xbe681ef7	-0.22668062
238	0x3d11d161	0.03560007
239	0x3deca67d	0.115551926
240	0x3d019cd9	0.031643722
241	0x3db8f421	0.09030939
242	0xbe5b4676	-0.21413597
243	0x3d4f85b9	0.050664637
244	0xbe73b19c	-0.23798221
245	0x3e3036b2	0.17208365
246	0xbe29e33c	-0.1659059
247	0xbd6d293c	-0.057900652
248	0x3e491047	0.19635116
249	0xbdf3adea	-0.11898406
250	0x3c7476c7	0.014920897
251	0xbba18c12	-0.0049300278
252	0xbe4beb3d	-0.19913955
253	0xbe62c263	-0.22144465
254	0xbd7a4801	-0.061103825
255	0x3dcb4aef	0.09926402

model_stack.11.bias f4 [10]
0	0x3d69e969	0.057107363
1	0xbd95ea23	-0.07320049
2	0x3e5463d4	0.20741206
3	0x3da9935e	0.08280061
4	0xbec1a3aa	-0.37820178
5	0x3da79c9c	0.08184168
6	0x3e7cc400	0.24684143
7	0xbd15cdea	-0.036573328
8	0x3dd08b9d	0.10182879
9	0xbe0eaebb	-0.13933842
