model/20231112-230151.pt (torch, 181800 bytes, 10 tensors)

model_stack.0.weight f4 [6, 1, 5, 5]
000000 13 5b 57 bb 70 c0 94 3e fd bf 84 3e 8b 48 5f 3d
       -0.003286068 0.29053068 0.25927725 0.05451254
000010 c6 54 c2 bd c4 05 84 3e 57 a4 71 3e fc 91 1c be
       -0.094888255 0.2578565 0.23597847 -0.15290064
000020 ba 7f 9a be 9f 5a 3f be 50 cf 08 3e 7f cc 66 be
       -0.30175573 -0.18686913 0.13360333 -0.22538947
000030 8d 32 de be 2f 9e 85 be 49 4f 04 3e 87 c9 ea bd
       -0.43397942 -0.26097247 0.1292087 -0.114642195
000040 bd 5f 76 be 71 41 06 be 9a 9d 6b 3e e5 e5 8c 3e
       -0.24059959 -0.13110901 0.23009339 0.27519146
000050 bb a8 78 bd 2b e6 33 bc 2f 8a 2b 3e 0e cf 59 3e
       -0.06070779 -0.010980169 0.16751932 0.21270391
000060 a7 f8 c6 bd 33 27 95 bc 56 c2 fc bb 59 03 89 bd
       -0.097153954 -0.018207168 -0.0077135963 -0.06690092
000070 0b e1 d3 bd fb 0a d9 bd af 79 10 3d f6 18 a0 bd
       -0.10345658 -0.105977975 0.035272297 -0.07817261
000080 b3 56 da be ac 08 04 bf 12 f4 f1 be 56 b3 e3 3c
       -0.4264427 -0.5157573 -0.47256523 0.027795475
000090 8e 4d 82 3c cd 61 ac be c6 aa d7 be 2f a1 c3 bd
       0.015906122 -0.33668366 -0.42122477 -0.09552228
0000a0 fc 5a a2 bc 44 d2 98 3e 94 0d bc 3e e4 85 97 3e
       -0.019818775 0.2984792 0.3672911 0.29594338
0000b0 57 fd 00 3f 9a 73 a0 3d 3b 19 d7 3e 7a dc 0d 3f
       0.50386566 0.07834549 0.42011437 0.55414546
0000c0 d8 28 19 3f 21 12 b7 3e 3d ba a3 3c 5d e2 91 3b
       0.5982795 0.3575602 0.019986266 0.0044520334
0000d0 df e9 4e bd 38 dc 26 be 63 fb e3 bd ae cf b9 3b
       -0.050516006 -0.16294944 -0.111319326 0.0056705093
0000e0 1b 46 1f bd b6 fd 97 be ed 4d b9 be 05 0b 30 be
       -0.038885217 -0.29685754 -0.36192265 -0.17191704
0000f0 12 a9 d5 bb 2d ea da 3d bb 0d 38 3e 20 31 2f 3e
       -0.006520399 0.10689197 0.17973988 0.17108583
000100 5e a9 4e 3e f1 16 43 3d 7e 98 7b 3e 94 56 d4 3e
       0.20181796 0.0476293 0.2456989 0.41472304
000110 16 7b aa 3e 1f 01 3a 3e 61 86 c4 bb 74 3f 05 be
       0.33297032 0.1816449 -0.0059974645 -0.13012487
000120 f0 04 53 be 72 ad d9 bd 48 18 e0 3b cf 65 c2 be
       -0.20607352 -0.10628785 0.006838832 -0.379683
000130 5e a2 bc be a0 ff 7d be d5 d5 1a 3e a5 81 fb 3e
       -0.36842626 -0.24804544 0.15120633 0.49122348
000140 7a 9c e7 be c7 a2 5d be a4 60 51 3e d5 c4 20 3f
       -0.4523657 -0.21644126 0.20447022 0.6280034
000150 8d 4a b7 3e 17 49 c6 be 8c 11 42 bd 0a 63 ec 3e
       0.35799065 -0.38727638 -0.047380015 0.4616931
000160 15 7c 14 3f 93 dc 91 bd 3e f2 19 be 4e 25 ca 3d
       0.58001834 -0.07122149 -0.15033814 0.098703966
000170 dc 48 e7 3e 8a 55 8a 3e f1 ee 15 be 04 4d 9b bc
       0.45172775 0.27018386 -0.1464193 -0.018957622
000180 6a 2a e3 3d 08 25 58 3e 8d b4 0f 3e f1 6e a7 bd
       0.11092074 0.21107876 0.14033718 -0.08175457
000190 31 6e 8c 3e e2 73 a1 be 83 55 f7 be 36 7a 65 be
       0.2742782 -0.31533724 -0.48307428 -0.22409901
0001a0 f7 6e 4c bd 37 b8 0f 3f f9 2c 02 3d 01 71 c1 be
       -0.04991051 0.56140465 0.03178117 -0.37781528
0001b0 87 b6 8c be ce 78 b7 3c fd 21 f1 3e 76 a5 db 3e
       -0.27483007 0.022396471 0.47096244 0.42899674
0001c0 d5 44 1f be 30 7a 31 be e7 7e f8 3d 30 d1 7d 3e
       -0.15553601 -0.17331767 0.1213358 0.2478683
0001d0 6f ee 1b 3f 36 d7 0d 3e 7a 65 d9 bc 0b 67 89 3c
       0.60910696 0.13851628 -0.026537646 0.016772768
0001e0 a9 17 cc 3d c5 cf d1 3e fd 74 62 3e 4e e6 69 3d
       0.0996545 0.40978828 0.2211494 0.0571044
0001f0 2d 1c 4b 3c 70 14 bf 3e 0d 5c 16 3f b2 0b 20 3f
       0.012396854 0.3732028 0.5873421 0.62517846
000200 e0 47 14 3f b6 fd b7 3e 82 82 36 3d 26 6d fb 3d
       0.5792217 0.35935754 0.044558056 0.12276678
000210 85 da 5d 3e 4e 5b ae 3e 1b 26 99 3e d1 44 da be
       0.2166539 0.34054035 0.29911885 -0.42630628
000220 21 e3 d1 be 54 0d c1 be 46 d4 62 be bf 40 ff 3d
       -0.40993598 -0.3770548 -0.22151288 0.12463521
000230 57 f3 be be 6e 8f d6 be 1b ad 05 bf ff de d8 be
       -0.3729503 -0.41906303 -0.52217263 -0.42357633
000240 bc 43 40 be 4f 71 ba 3c cc 3c 81 bd 39 4c 82 bd
       -0.18775839 0.022759108 -0.06310424 -0.063621946
000250 d9 98 83 bd 66 1e e4 bd
       -0.06425638 -0.111386105

model_stack.0.bias f4 [6]
000000 f6 22 3b 3d 26 5e 2a 3e 85 7a ff bb 99 e5 a7 bd
       0.04568764 0.16637477 -0.007796588 -0.08198089
000010 79 c1 b4 bd c3 0d 08 3e
       -0.088259645 0.132865

model_stack.3.weight f4 [16, 6, 5, 5]
000000 b5 d5 7e bd f0 f6 0e bd 6e 93 ff 3c ad 23 01 3d
       -0.062215526 -0.034903467 0.03119823 0.031528164
000010 1f ee b2 bc d4 e4 9d bd e9 49 c2 3c 17 9e 0c 3c
       -0.02184206 -0.07709661 0.023716884 0.008582613
000020 69 78 81 bc 9d 68 b9 bc 94 0d b6 bd cc 73 c7 bc
       -0.015804486 -0.022632891 -0.088893086 -0.024347208
000030 1f c9 1b bd 1a ad c7 bc b2 14 8b ba fa 9f 02 be
       -0.0380336 -0.024374533 -0.0010611026 -0.12756339
000040 1d 1a c2 bc 7b 94 a2 3c f6 4e 92 3c 5d eb 5d bc
       -0.023694092 0.019846192 0.017859917 -0.0135448845
000050 6f 5d a5 bd b6 95 37 3a a4 36 90 3c 58 8b f1 bc
       -0.08074462 0.00070032047 0.01760418 -0.02948539
000060 f9 77 51 bd 4d c0 02 be 76 7a 8f bd e0 a9 89 bd
       -0.051139805 -0.1276867 -0.070057794 -0.06721854
000070 71 7e 04 bd c5 62 a1 bc 24 0c 5d be f5 9c 84 3c
       -0.032347146 -0.019700417 -0.21586663 0.016188124
000080 81 05 6d 3d 51 73 e3 3d 4e 28 6a 3d b4 9c ea bd
       0.057866577 0.11105979 0.057167344 -0.1145567
000090 51 1f bb 3d a8 60 f4 3d 70 0b 47 3d c7 e8 2b 3c
       0.091368325 0.11932498 0.048594892 0.01049251
0000a0 4e 64 da bd b5 5c 60 3d 67 21 94 3c ff c9 2b bd
       -0.10663663 0.054775912 0.018082334 -0.041940685
0000b0 5e 6f 53 bd 28 6d 27 bd 91 fb 36 3a 5b 37 34 bc
       -0.05161988 -0.040875584 0.00069802353 -0.010999526
0000c0 86 3a f0 bd ca 1b 31 bd ce e8 74 bd 1f ff 3e 3b
       -0.117299125 -0.043239392 -0.059792332 0.0029143763
0000d0 0a 91 d6 3b b0 f4 26 bc 59 a4 23 bc 9c 99 b2 bd
       0.0065480517 -0.010190174 -0.009987914 -0.08720705
0000e0 c0 c4 42 bd 6e c5 6c 3b da 5b 38 3d e8 24 e0 3c
       -0.047550917 0.003612842 0.04500947 0.027361348
0000f0 44 bb 5a bd 21 2a 44 3d 5f 92 99 3d 97 08 87 3d
       -0.053401247 0.04789174 0.07498621 0.06593435
000100 09 66 85 3c cf 8f 73 bd c3 45 6a 3d ec 06 12 3d
       0.016284006 -0.05946332 0.057195436 0.035651132
000110 b9 83 fd bc cd 13 ae bc b2 3a 23 bd e1 dd fb 3c
       -0.0309466 -0.021249676 -0.039850898 0.030745449
000120 3a b6 6c bc a3 28 68 bd 6b 31 c0 bc 84 13 9d 3e
       -0.014447743 -0.05667938 -0.023461064 0.30678952
000130 8b b2 ba 3d e2 03 f3 bd 17 e1 df bd 46 c8 cd bd
       0.091160856 -0.11865975 -0.10931604 -0.10047965
000140 eb 73 8c 3e de 56 f8 bc 89 f1 18 be 81 3f 01 be
       0.27432188 -0.030314859 -0.14935888 -0.12621881
000150 a6 10 0c be d9 8c 1b 3e 1b 79 28 be cb dd 21 be
       -0.13678226 0.15190448 -0.16452448 -0.15807264
000160 6e 13 5e bd ff 92 aa bd 0e 42 ac 3d aa af b0 bd
       -0.05421775 -0.083288185 0.084110364 -0.08627255
000170 10 ec cf bd 70 ef 77 bd 3c 6f a9 bd d2 56 bc 3c
       -0.10152447 -0.06053108 -0.082731694 0.022990618
000180 a3 02 61 3c eb eb 9c bd 24 45 a5 3a b1 a1 e0 bd
       0.013733539 -0.07662185 0.0012609106 -0.1096834
000190 9f 58 9f bd 18 58 cd 3c 05 1c 7c bc 8c 0a d9 bd
       -0.07780575 0.02506642 -0.01538754 -0.10597715
0001a0 07 0e f9 bc e0 4d 0f be 67 a8 0e 3e a1 41 fb 3c
       -0.030402197 -0.1399455 0.13931428 0.030670943
0001b0 5e 47 d2 bc c9 fc 06 bd a7 c7 e1 bd 81 1f 83 3e
       -0.025668796 -0.03295592 -0.11024409 0.25609973
0001c0 13 49 13 3e ac 08 28 bd 5f 72 6e 3b b0 f5 5b bd
       0.14383344 -0.041023895 0.0036384088 -0.053701103
0001d0 95 10 20 3e be 53 9b 3d 60 eb 07 be 10 93 ed 3b
       0.15631326 0.07584332 -0.13273382 0.007250197
0001e0 67 04 2a 3d 69 5b 10 3d 53 4f 92 3d 43 4a de bd
       0.041508105 0.035243426 0.07144036 -0.10854008
0001f0 ad 84 0f bd c5 4e 08 be 78 c7 aa bd c9 d6 ac 3d
       -0.03503864 -0.13311298 -0.08338827 0.084394045
000200 8a 7d ec 3d b5 7e d6 3c f2 c8 77 bd 4e 14 4e 3a
       0.11547382 0.026183465 -0.06049437 0.0007861302
000210 da 49 a0 3d 2d 11 c4 3d fa f7 29 3d 2a 80 15 be
       0.07826586 0.095735885 0.041496255 -0.14599672
000220 4b b0 f3 bd b6 48 66 bd 4a 26 a2 3c f1 34 c6 3d
       -0.118988596 -0.056221686 0.019793648 0.096780665
000230 61 9f 89 bd 4f 56 05 bd 0d 90 9d 3d cf 20 04 3e
       -0.06719852 -0.032553013 0.07693491 0.1290314
000240 bb fd 8c 3d 01 02 0e 3d 94 1f 92 bc a7 e1 46 bd
       0.06884333 0.03466988 -0.017837323 -0.048555043
000250 a9 c2 3d bb 9a 44 4a bd b2 63 24 bd d6 6f d4 ba
       -0.0028955138 -0.04938183 -0.04013414 -0.0016207646
000260 e1 94 5c 3c 7e e4 92 bb c7 07 06 bd 32 9d 3f 3c
       0.01346323 -0.004482805 -0.03272226 0.011695193
000270 1a 23 90 bc 7f 3a 43 bd 4a 50 06 bd f9 d6 33 bd
       -0.017594863 -0.047663208 -0.032791413 -0.043906186
000280 ce 2d 91 3d c7 50 fc bc 3f 84 31 be 23 90 20 be
       0.07088815 -0.030800236 -0.17335604 -0.15679984
000290 80 0e 4b bd 3e cb ab 3d 6e c5 33 3c cf d9 56 bd
       -0.049574375 0.08388375 0.010972364 -0.052453812
0002a0 b5 28 14 bd cc a3 f0 bd 39 49 e3 3c 60 6d 3b 3d
       -0.036171634 -0.11749992 0.027744876 0.045758605
0002b0 cd 8b 98 3d a1 e0 8d bc 59 92 d2 bb 52 11 37 3e
       0.0744854 -0.017319025 -0.0064261374 0.17877701
0002c0 74 68 a2 3c ec e1 dc bd 84 c9 0a be a3 fb 8e bd
       0.019825198 -0.10785279 -0.13553435 -0.0698159
0002d0 73 61 84 3e a8 45 86 3e f8 95 bf 3e 2d 77 3b 3e
       0.25855598 0.26225019 0.37419105 0.1830718
0002e0 9e 41 97 bd bf 21 5b 3c 2d e3 5b 3d 96 00 32 3d
       -0.07385562 0.013374745 0.05368345 0.04345759
0002f0 dd 12 c2 3d e6 b3 9c 3d 2a 84 5e 3c eb 1f 06 bd
       0.09476254 0.076515004 0.013581315 -0.032745283
000300 b9 0e 32 bd 30 18 4b bd 7d 56 ca 3c 78 4d b5 bd
       -0.043471072 -0.049583614 0.024699444 -0.088526666
000310 b8 04 e0 bb e5 79 7c 3c f4 ce 0d be f0 6a df bd
       -0.0068365 0.015409921 -0.13848478 -0.109090686
000320 6e c0 27 3c 5c eb b3 bc c4 5e 10 3b 30 dc 85 3c
       0.01023875 -0.021962814 0.002202914 0.016340345
000330 30 44 68 3b 23 4d 0c 3e bd b8 20 3e 30 d2 19 3e
       0.0035441034 0.137013 0.15695472 0.15021586
000340 bd ac 02 3d 9c a3 43 bd c3 a6 3a bb 9b 4b ae 3d
       0.031903017 -0.047763452 -0.0028480745 0.08510514
000350 62 69 e0 3d a1 1b 3b 3d 14 0c c4 bd 31 e4 71 3d
       0.109576 0.045680646 -0.09572616 0.05905551
000360 04 19 da 3c a8 0f 59 bd 09 82 9a 3c 43 7b 19 bd
       0.026623257 -0.052993447 0.018860834 -0.037471067
000370 35 86 12 39 b7 87 7e 3c d5 5a bc 3c b7 3c bd bc
       0.00013973641 0.015535287 0.02299253 -0.02310024
000380 63 6c 21 bd 6a 47 9b bd e2 46 ed bc 66 34 eb bc
       -0.039410006 -0.075819805 -0.028964464 -0.028711509
000390 4d 9d 12 3b dc 4d bd bb 78 80 90 bd 47 6e 45 be
       0.002237159 -0.005777104 -0.070557535 -0.19280349
0003a0 8e ae 06 be b2 e4 06 be 92 29 a4 bd 0e 02 a1 3d
       -0.13152525 -0.13173178 -0.080157414 0.0786172
0003b0 15 c2 14 be 47 74 3c be b0 4a a2 bd 04 cf 6c bd
       -0.14527161 -0.18403731 -0.07924402 -0.057814613
0003c0 50 29 c9 3d aa 6d cc 3c 26 74 88 bd 29 26 5e bc
       0.09822333 0.024954636 -0.066627786 -0.013558903
0003d0 c1 ac 55 bc 6a 99 a2 3c 74 65 d0 3c 43 18 e4 bc
       -0.013041676 0.019848544 0.025439002 -0.0278436
0003e0 d2 66 24 3d 60 18 35 be c1 8f 2b bc 8b c5 ea bd
       0.04013712 -0.1768508 -0.010471285 -0.114634596
0003f0 f9 f7 2d be be fa 09 be 12 6b 32 bd f5 50 42 bc
       -0.16989125 -0.13474557 -0.04355914 -0.011860122

model_stack.3.bias f4 [16]
000000 3b 97 08 bd 71 44 da bc c8 2c a0 3b 24 a9 1f bd
       -0.03334735 -0.026643964 0.004888151 -0.038979664
000010 ea 16 e2 bc 3d 94 a8 bc c1 9e ce 3c 8a f7 9f bc
       -0.027598817 -0.020578498 0.025222184 -0.019527216
000020 d6 2d bf bc 1e 24 45 bc fb a7 cb bc 64 7f 71 ba
       -0.023337286 -0.012032537 -0.024860373 -0.0009212403
000030 f2 da 5c bb 3e 73 18 bc 16 89 08 3b 05 56 17 bd
       -0.0033699838 -0.00930482 0.0020833663 -0.03694727

model_stack.7.weight f4 [120, 256]
000000 cb e2 9b 3b 38 d7 70 bc 2f b5 2c bd 1e da 38 bc
       0.0047572604 -0.01469975 -0.042164978 -0.011282472
000010 b0 9c 82 3b 00 59 a2 3b 22 21 0d bc 2e 58 08 bd
       0.0039859638 0.0049544573 -0.0086138565 -0.03328722
000020 94 f0 4c bc bb 01 e2 bb 72 b6 48 bd 32 54 8a bd
       -0.01250853 -0.006897179 -0.04900212 -0.0675434
000030 2b fe 39 3d 46 47 a5 3d 8a 42 6c bd 62 b5 06 bd
       0.04540841 0.08070235 -0.057680644 -0.032887824
000040 4e 07 0a bd 82 f6 d5 3b 09 e5 94 bc be bf 50 3d
       -0.033698373 0.00652963 -0.018175619 0.05096411
000050 5d 08 09 3b 6d ea 88 bc 87 f3 a1 bd 14 d9 b8 bd
       0.0020909526 -0.016713345 -0.07907777 -0.09025779
000060 8c 88 5e bd ae 25 0f bd 66 17 8d 3b 85 e5 33 bd
       -0.05432944 -0.034948044 0.004305768 -0.04392006
000070 3a fc 56 3d 64 4d 94 3c c9 8f 93 bc 18 f5 b9 bc
       0.052486636 0.018103309 -0.018012898 -0.022699878
000080 e8 3f 70 bb 26 33 b7 bc 79 f8 71 3c 44 ac 23 3c
       -0.0036659185 -0.022363257 0.014768713 0.009989802
000090 9f 1c 3d bb e5 0a d2 3b 82 3e 5b bb 1a 07 1c 3d
       -0.002885617 0.00640999 -0.0033454006 0.03809271
0000a0 8a 16 95 bb e5 3b 9e 3b 63 a6 91 bb 73 47 24 3c
       -0.004549806 0.0048289173 -0.0044448837 0.0100268
0000b0 98 cf 0a 3a 9c da 6d bc 91 6c 88 bc ae 88 10 bc
       0.0005295216 -0.014517453 -0.016653331 -0.0088216495
0000c0 27 97 6c bc 55 38 b2 bc 5d 97 87 bd f0 f6 01 bd
       -0.014440334 -0.021755377 -0.06620667 -0.03172964
0000d0 25 8a 4e 3c d2 dc cb 3a 53 32 0a 3a f1 99 9a bc
       0.012606178 0.001555348 0.0005271781 -0.018872233
0000e0 5c b0 c0 bc 44 9f e8 ba ae 99 89 3b 9b 7e ae 3c
       -0.023521595 -0.001774766 0.0041992282 0.021300605
0000f0 09 15 5d 3d ad 8f 8d 3d 26 ca 2b 3d af 03 40 bc
       0.05397514 0.069121696 0.04194083 -0.011719628
000100 ac 5b c8 bb f0 1a c2 bc 58 dd 09 bd 7b bf 4b 3d
       -0.0061144438 -0.023694485 -0.033658355 0.049743157
000110 c1 27 20 bd da 45 a0 bc 0b 3e 89 3c 99 64 09 be
       -0.039100412 -0.019564558 0.016753217 -0.13417281
000120 15 65 8a bc eb d0 b8 bc 8c 6a a3 bc 45 0c 80 bd
       -0.016893903 -0.022560557 -0.019948266 -0.0625234
000130 db cb 23 bc b7 fd 96 3d 13 43 af bd 29 66 99 bd
       -0.009997333 0.07372611 -0.08557715 -0.07490189
000140 df f3 9f 3c 89 03 be 3b 52 d6 44 3d db 90 34 bc
       0.019525466 0.0057987613 0.048055954 -0.011020864
000150 36 d9 2e bc f5 87 80 bb 75 80 3b bd 67 7d 5e bd
       -0.010671904 -0.0039224573 -0.045776803 -0.05431881
000160 33 10 63 bc b1 43 ac 3c e4 17 80 bc 22 8f 2d bd
       -0.013858843 0.021028372 -0.015636392 -0.04237283
000170 3f 51 3a bc 58 dd 54 3d e4 6d a0 bb 90 2a 13 bc
       -0.01137191 0.051968902 -0.0048959125 -0.008982316
000180 0d 64 a8 3b 52 78 37 3c b6 11 c7 3b 55 b7 7b 3b
       0.00513888 0.01119812 0.0060751094 0.0038408835
000190 6f 35 1f 3c 00 7a d3 3c ad 82 dc 3b a8 81 48 3c
       0.009717329 0.02581501 0.006729445 0.012237944
0001a0 33 cf bc b9 d1 b2 c0 3c e9 1a 8e ba 2b 96 02 bc
       -0.0003601253 0.023522766 -0.001084176 -0.007970373
0001b0 90 0b f3 bb ba 10 82 bc 87 66 52 3c 45 0e c0 3c
       -0.00741715 -0.015877116 0.012841827 0.023444304
0001c0 02 e8 2e 3c ef a9 7a 3c 5e db ed 3c 14 c9 72 bc
       0.010675432 0.015299304 0.029035266 -0.014818449
0001d0 ff 79 2a 3b 19 93 4a bd 9b 46 dd bc 1b 85 88 bc
       0.0026012657 -0.04945669 -0.027011206 -0.016665032
0001e0 71 6c dd 3c 4b 4d 1f bd 32 62 08 bd fc c0 ff 3c
       0.027029248 -0.03889207 -0.03329677 0.031219952
0001f0 cf 4b 78 bc 96 1d a0 3d d2 20 73 3d b1 1b 4c bd
       -0.015154793 0.07818143 0.05935747 -0.049831096
000200 65 90 43 bd d1 fe 98 bd 68 19 d6 3c 38 2c 0b 3e
       -0.047745127 -0.07470477 0.026135162 0.13591087
000210 a2 4f 9f bd 03 78 a3 bb 8a d0 61 bd 89 7a a5 3b
       -0.07778861 -0.0049886717 -0.05513052 0.0050500077
000220 77 e0 b8 3c 3e e6 1c bd 2a fa 56 bd fd 34 a1 bc
       0.02256797 -0.038305514 -0.05248467 -0.019678587
000230 47 a8 b0 3d 54 e2 87 3c f9 c5 26 bd 74 93 bf bb
       0.08625846 0.016587414 -0.040716145 -0.005846435
000240 fa e0 3c bc 06 1e 80 3d d7 b1 6b bb b8 68 f7 ba
       -0.011528248 0.062557265 -0.0035964155 -0.0018875813
000250 89 b6 a5 3b 93 25 0c b8 d7 02 2f bc 2c ec cd bc
       0.0050571603 -3.3413595e-05 -0.010681829 -0.02513703
000260 9b 38 e8 3c 29 12 bb 3c e8 56 81 bd a5 ba d3 bc
       0.028347304 0.022835808 -0.06315404 -0.025845835
000270 81 4c 41 bc 68 00 3e 3d be 24 e2 bc 04 01 33 bc
       -0.011798025 0.046387106 -0.02760541 -0.010925535
000280 76 ed cb 3b 61 67 61 3c de 5d 35 3d cf 2a a6 3c
       0.006223376 0.013757558 0.04427897 0.020284085
000290 21 b0 99 3b 11 9b aa bc e2 e6 2c bc c5 82 01 3d
       0.0046901857 -0.020825895 -0.010553094 0.031618852
0002a0 22 f2 2e bc 52 75 a2 bc 5f b8 0d bc 18 25 70 bd
       -0.010677846 -0.019831333 -0.0086499145 -0.058629125
0002b0 0c d3 c2 bc 58 b8 d6 3b 6a e9 f1 bb 63 1c e6 bc
       -0.023782276 0.006552737 -0.0073825615 -0.028089708
0002c0 b8 ba dc bb a4 3d 4a 3c 96 0c 3e 3c 86 a1 3d bd
       -0.006736126 0.012343798 0.01159968 -0.04629662
0002d0 7b fb 0f 3d 58 96 57 3c df 6f 76 3c d0 ab 6a bb
       0.03515194 0.013158403 0.015041321 -0.0035807975
0002e0 67 80 5f ba 83 0d a0 38 ea 09 08 bd 5d fb 8a bc
       -0.00085259083 7.631911e-05 -0.03321258 -0.016965562
0002f0 08 ef e6 bc 36 46 3d bc b0 b6 85 bc 37 fa 23 3d
       -0.02819015 -0.011552384 -0.016322464 0.040033545
000300 b7 8a 67 bb 1e 5f 12 bb 5e 89 00 3b a0 25 27 bc
       -0.0035330483 -0.0022334526 0.0019613127 -0.010201842
000310 1b 07 47 3c de ca 79 3c b7 84 25 bc 15 06 f5 bb
       0.01214769 0.015246121 -0.0101024425 -0.0074775317
000320 c0 2f 09 bc 34 27 48 3c 1f c1 20 3c ca b4 0f bc
       -0.008373201 0.012216378 0.009811669 -0.008771131
000330 36 48 3c bc 9d 0c 1e bc 60 0b 80 3c 75 42 30 3b
       -0.011491826 -0.009646562 0.015630424 0.002689508
000340 7e 7f 98 bc 8c ec 4a bd d3 d6 73 bd 2a 6d 32 bd
       -0.01861548 -0.049541995 -0.059531044 -0.04356114
000350 88 ec 85 bb e1 f4 2d bc ed fd 35 bc 7a ff 1d 3d
       -0.0040870346 -0.010617466 -0.011107904 0.03857372
000360 72 78 10 3d b5 4a 77 3c 29 65 51 bd 84 ff c3 bb
       0.035271116 0.015093495 -0.051121864 -0.0059813876
000370 e4 0c 7c 3d b1 b8 7e 3d ed e6 16 bd 05 6f e3 bc
       0.06153573 0.062187854 -0.03684132 -0.0277629
000380 eb 74 7d 3d b9 6d 08 3d 21 2e 46 bc 25 4c 91 bc
       0.06187908 0.033307765 -0.012095959 -0.017736504
000390 d4 d5 b6 3d 3c da 32 bc 56 4a 84 bd 8d c1 5e 3c
       0.08927503 -0.010916289 -0.06459491 0.013595951
0003a0 68 67 cc 3c c7 27 e1 3b 92 15 a4 ba 7d d4 2d 3c
       0.024951652 0.006871197 -0.0012518635 0.010609743
0003b0 58 14 9d bc 97 eb 0f 3d de 6e d0 3b fc 5b 0e bc
       -0.01917474 0.035136785 0.0063608726 -0.008688923
0003c0 5c 55 05 3b 81 ad 2a 3d ad 5f 24 bd ca bc 1c bc
       0.0020345068 0.041669372 -0.040130306 -0.009566495
0003d0 04 d7 8e ba 7d a6 07 3d 58 57 7c b9 79 f5 a5 bc
       -0.001089782 0.03311776 -0.00024065131 -0.020258652
0003e0 c2 f3 45 3d c2 f9 6f 3d 26 cb 82 3b 9d cd b9 3d
       0.04832817 0.058587797 0.0039915023 0.09072421
0003f0 6e 1a 5a 3c d2 6f 9a bb 13 28 e4 3d a4 b4 56 3d
       0.013311965 -0.004713037 0.11140456 0.052418366

model_stack.7.bias f4 [120]
000000 c6 07 a5 bb 30 85 88 b9 29 2f 5c ba 49 31 07 3c
       -0.005036327 -0.00026039174 -0.00083993614 0.008251497
000010 35 f2 c7 bb 9f 67 2c bb 38 1e 50 3b 24 2a 2d ba
       -0.0061018714 -0.002630688 0.0031756293 -0.0006605706
000020 06 27 4e bb f4 b6 df bb df df 69 bb c4 cc 7f bb
       -0.0031456365 -0.0068272296 -0.0035686416 -0.0039031962
000030 54 e4 14 bc 9c 74 e4 bb 36 d3 b1 bb 0f f0 f4 38
       -0.009087641 -0.0069719087 -0.0054267896 0.00011679541
000040 37 40 e3 3b b2 e2 4a 3c 4c e1 83 3b 98 34 67 3a
       0.0069351452 0.01238315 0.00402466 0.0008819788
000050 e0 12 66 3a b7 48 37 3b f0 67 a2 3a c1 5b 5d 3c
       0.00087766163 0.0027966925 0.0012390595 0.013510645
000060 5c 44 30 3c 9b 22 44 3b cc 08 57 3b b8 c0 c0 bb
       0.010758486 0.0029927853 0.003281164 -0.005882349
000070 fc 3e 20 3b b2 cd 40 3b 0d 9e 9a bb bd 61 84 bb
       0.0024451604 0.002941948 -0.004718548 -0.0040399716
000080 9f e9 40 bb 16 5d 17 bb 2a 8f 13 bb e3 d4 89 3b
       -0.0029436124 -0.0023096255 -0.0022515752 0.0042062863
000090 f0 38 67 b9 a5 6d 64 3b 68 5e 1b bc 65 63 f7 3a
       -0.00022051088 0.0034855392 -0.009482957 0.0018874226
0000a0 ab 61 fb ba 0a 4d dd 3b 03 e1 90 3b bc 0e 20 bb
       -0.0019178888 0.0067535685 0.0044213547 -0.0024422845
0000b0 36 e4 c8 ba 70 c8 e3 3b b2 2a 65 bb 60 c2 b4 ba
       -0.0015326801 0.0069513842 -0.0034968075 -0.0013790838
0000c0 9e 68 38 3c f9 29 85 3a 6a 2e a7 39 7c d6 12 bb
       0.011255411 0.0010159604 0.00031887303 -0.0022405675
0000d0 19 2d b1 ba c2 31 e7 bb 03 a9 d7 3a 66 51 71 3b
       -0.0013517468 -0.007055492 0.0016453568 0.00368222
0000e0 24 0d e3 3a 89 a9 ef 3b d6 ab ef 3b 44 b8 8e bb
       0.0017322642 0.0073139113 0.0073141856 -0.0043554623
0000f0 9d 51 10 bb 5f 84 ae b8 e8 37 99 3c fa 8d ac 3b
       -0.0022021302 -8.3216226e-05 0.018703416 0.0052659484
000100 55 26 e3 bb 80 e6 77 39 42 c6 29 bb 7a 95 70 bb
       -0.00693206 0.00023641624 -0.0025905524 -0.0036710189
000110 9c 9e 8a 38 12 3e f1 ba 42 f3 48 3b b0 7a 86 3b
       6.609896e-05 -0.0018405339 0.003066257 0.004103981
000120 d9 e5 9c bb 7e 14 8f ba 9d 55 60 bb 3a c2 0f bc
       -0.004788142 -0.0010916141 -0.0034230717 -0.008774335
000130 dd 3a 3e 3b 98 92 2d 3b eb b0 bd 3b 6d 2e 45 3b
       0.0029026784 0.0026485082 0.0057889125 0.0030087486
000140 7a c1 fe 3a 6e 8b c6 bb ad c2 bd 3a 17 98 47 ba
       0.0019436323 -0.006059102 0.0014477574 -0.0007613911
000150 6d 32 c5 3b 63 97 8c 3b ab ea 5a bb c5 09 99 bb
       0.006017974 0.0042905076 -0.0033404033 -0.004670354
000160 10 04 69 bb 41 c1 01 bb 58 86 db 3b 94 da a1 b9
       -0.00355554 -0.0019799026 0.0066993646 -0.00030871166
000170 ed fa c3 3a 21 d5 75 3b 13 fe ca bb 54 bb ad bb
       0.0014952101 0.0037511068 -0.006194839 -0.0053018723
000180 bf c5 48 bb a1 3e ed ba 7e 70 b9 bb 53 2f c8 3a
       -0.0030635444 -0.001810033 -0.005659162 0.0015272893
000190 3d ae fb 39 53 a3 2c 3b 71 0b bc 3b 43 5f ec 3b
       0.00048004268 0.0026342466 0.0057386686 0.0072135045
0001a0 6d 1b 6e 3b 77 29 cd 39 20 29 50 bb 4b ae 51 bb
       0.0036332265 0.0003913154 -0.0031762794 -0.0031994756
0001b0 91 4f 2b ba 1e 1a 58 39 ab b6 15 bb ec 29 45 3b
       -0.00065349886 0.00020609095 -0.0022844474 0.0030084802
0001c0 c7 31 6c ba b0 f1 06 3c 62 5e 6a 3b b0 85 21 3c
       -0.0009010103 0.008236334 0.0035761823 0.009858534
0001d0 00 c6 d5 3a b2 5e b9 3c 68 e2 a6 3b 88 08 8c 3b
       0.0016309619 0.022628162 0.0050929077 0.004273478

model_stack.9.weight f4 [84, 120]
000000 44 f9 95 bd e9 77 f4 bc cc 07 cd bb 60 31 a8 3c
       -0.07322934 -0.029842334 -0.006257033 0.020531356
000010 6e ce 75 3d af 1b 86 bc 31 da 55 bd c4 af 74 3c
       0.06001132 -0.016370622 -0.052210037 0.014934484
000020 93 6b f0 bc ef 06 c9 bc b6 f5 35 bb 9e 94 69 3c
       -0.02934817 -0.024539439 -0.0027764863 0.0142566245
000030 41 b0 4e bc 0a d5 4a bd 5a 1c 1d 3c cc e8 7f 3d
       -0.012615264 -0.049519576 0.009589279 0.06247787
000040 c1 07 13 be 1a 93 aa bd b2 7c 06 bd 14 ca 4e bb
       -0.14358427 -0.08328839 -0.032833762 -0.0031553553
000050 6c 67 ef bb 23 13 51 3c 88 2f 5f 3d 21 82 74 ba
       -0.00730603 0.01276091 0.05448869 -0.0009327252
000060 12 e3 19 3d 12 ff 01 3c ea 4d 37 bd c4 6f ad bb
       0.037570067 0.007934349 -0.04475204 -0.0052928645
000070 2d 94 53 bd 25 5e a1 3c fa 20 df bc df df 03 3c
       -0.051654983 0.019698212 -0.027237404 0.0080489805
000080 4e 79 a7 3d c5 31 2a bd 17 96 2e 3c ab bf 36 3d
       0.08177434 -0.04155137 0.010655901 0.044616383
000090 bc 90 ec bc 8f 99 cc 3b 06 a8 37 3c a6 81 5d 3d
       -0.028877608 0.0062438915 0.0112094935 0.05407872
0000a0 bf 94 9b bb 45 00 df bc 48 8d e7 3d d8 c2 ea 3d
       -0.0047479565 -0.027221808 0.11306244 0.11462945
0000b0 13 a6 a7 3c 27 6c d0 bd c6 b3 c4 bc e6 ca 94 3c
       0.020464933 -0.101768784 -0.024011504 0.018163156
0000c0 21 fd 4b bd 9f e3 55 3c 55 c0 2b 3e 6f a5 1a bc
       -0.04980195 0.013054757 0.16772588 -0.0094388565
0000d0 f4 db 9c bd 26 69 91 3c 73 78 2e bd 58 e9 69 bd
       -0.0765914 0.017750334 -0.042595338 -0.0571073
0000e0 61 bb 9b 3c e1 00 69 bd 0c ea 6f bd 65 a2 a4 3d
       0.019010248 -0.056885604 -0.058572814 0.08038787
0000f0 3c ef f9 b9 ae 06 3d bb c5 59 67 bd 71 db 16 bc
       -0.00047671224 -0.0028843093 -0.056482095 -0.009207592
000100 f9 a2 e8 bb f9 1b 6f bc 9c 63 85 bc 23 74 02 3c
       -0.007099506 -0.014594072 -0.016282849 0.007962259
000110 75 05 16 3d 26 f7 a0 ba fb 4c 48 bd 5a c8 01 3c
       0.036626298 -0.0012280687 -0.04890154 0.007921303
000120 09 f6 88 39 0a f4 88 bc 16 ee d5 3d 91 ab 98 3c
       0.00026123252 -0.01671793 0.10445802 0.018636497
000130 a9 21 98 3b 8d da c4 3b f4 85 30 3d 26 3d d1 bd
       0.0046426845 0.0060074986 0.043096498 -0.10216741
000140 bd 62 34 3d bd a1 62 bd 12 bc a7 bc 9d a3 7c 3d
       0.044039477 -0.055330027 -0.020475421 0.06167947
000150 3a 16 a1 bd 17 c6 52 bb 2a 28 97 3c 7c 84 3a 3d
       -0.078655675 -0.0032161528 0.018451769 0.045536503
000160 0d 45 77 3d e9 9e 9a ba 0e 39 c5 3d 0a ea 0b bd
       0.060368586 -0.0011796626 0.09630023 -0.034158744
000170 02 5c b7 bc cf 7a 34 bc 76 a1 22 3d 70 c7 ac ba
       -0.02238274 -0.011015608 0.039704762 -0.0013181996
000180 ed 7e 51 3c c2 7d e7 3b 2a 44 be 3c 7f 79 27 3c
       0.012786609 0.007064552 0.023225863 0.010221838
000190 9c 68 9b 3b 84 df 35 3d ae 6a 0a 3e a2 9f 97 3b
       0.004742695 0.044402614 0.13517258 0.004627184
0001a0 8b 1e 88 3d 1c af 00 3d 8b ab 02 3e 77 73 9e 3c
       0.066464506 0.031416997 0.12760751 0.019342167
0001b0 1c ff 8d bb 05 05 7d 3d 49 6e 2e bc 6a c5 f6 bb
       -0.00433339 0.061772365 -0.010646411 -0.007530858
0001c0 7d 0c b5 bd ed ad e2 bc ee 41 09 3c d2 46 8a bd
       -0.088402726 -0.027670825 0.008377535 -0.06751789
0001d0 8b 16 8a 3d 9e 51 04 bb 20 79 78 bd 84 65 fb 3b
       0.06742581 -0.002019025 -0.06066239 0.0076720137
0001e0 78 b7 cc 3d 15 49 b8 3d 79 0a 2d 3d ec 49 be bc
       0.099959314 0.08998314 0.042246316 -0.023228608
0001f0 bd 13 23 be 74 58 32 bd ec d1 d6 3c ef 38 0a be
       -0.15925498 -0.043541387 0.026223145 -0.13498281
000200 bd c7 99 3d 90 aa 2b 3e 83 3a 9a bb b4 a1 ca bd
       0.075088 0.16764283 -0.004706682 -0.09894124
000210 94 cc bb bd b3 41 d0 3d 3b f6 2e bc 1e a2 1e 3e
       -0.091698796 0.10168781 -0.010678823 0.1549153
000220 a6 d3 21 3e 1a 17 01 3d cd e5 23 3d 85 d5 7e 3b
       0.15803394 0.031516172 0.040014077 0.0038884592
000230 00 42 29 39 f0 c1 2b bc ed 75 62 bc 61 9d c0 bb
       0.00016141683 -0.01048325 -0.013822061 -0.005878136
000240 b7 7f 0f 3d 17 a8 0b bb e2 ea 67 3e 6a bb 5d ba
       0.035033908 -0.0021309906 0.22648194 -0.0008458408
000250 05 5d e6 bd 5f 65 94 3d 61 d5 0e 3d db d2 3a 3d
       -0.11248211 0.072458975 0.034871463 0.045611244
000260 d0 7b 10 bd bf 12 79 3d aa 42 32 bc e4 5f 92 bd
       -0.035274327 0.060808893 -0.010880152 -0.07147196
000270 0c b6 8a bd d8 5f b1 bb 21 d3 4c bc 0c d0 00 3d
       -0.06773004 -0.005413037 -0.012501509 0.03144841
000280 3c 73 f6 bd 77 09 a3 bd 34 5c f5 bc fc 63 dd bd
       -0.12033698 -0.0796079 -0.029951192 -0.10810086
000290 97 d9 6b bd c6 dc 93 3d 17 b6 08 3e 2f 6c 96 bb
       -0.057580557 0.072198436 0.13350712 -0.004590533
0002a0 61 12 18 3e 5d 0c 91 3c f3 3e 9f bc c6 21 f5 bc
       0.14850761 0.01770609 -0.019439196 -0.029923331
0002b0 5a c1 6b 3d a1 86 39 3d 6f 6e f3 3d 49 e9 55 3c
       0.05755744 0.045294408 0.11886298 0.013056108
0002c0 4f 7e 8e bd cb 2f a2 3d a5 69 9e 3c 11 fd 4b bc
       -0.06957685 0.07919272 0.019337485 -0.012450472
0002d0 41 27 6d 3d 38 1d e5 3c 6e d3 01 bd a7 80 11 3c
       0.057898764 0.027968034 -0.031695776 0.008880771
0002e0 7a a9 0b 3d 03 70 3a 3d 74 12 80 bc 66 44 d8 bc
       0.034097172 0.04551698 -0.0156338 -0.026399802
0002f0 b6 cd 8f 3d 8f 2f 42 bd 4f 2d 44 3d d3 c6 a5 bb
       0.07021658 -0.047408637 0.047894772 -0.005059102
000300 0a a8 bf 3c 2b f9 7c bd 3c ff c7 bd 68 74 da bd
       0.023395557 -0.061761063 -0.09765479 -0.10666734
000310 8c 48 c4 bc 52 4d fb bd 7d 7e c6 bd e5 ae 0d 3e
       -0.023960374 -0.12270607 -0.096920945 0.13836248
000320 1a b0 7e bc c5 76 22 3d 79 41 67 3d 24 2b e6 3d
       -0.015544916 0.03966405 0.056458924 0.11238697
000330 02 1e 7b 3c f9 e6 c1 3c b3 fa aa 3c d9 a8 60 bc
       0.015326979 0.023669707 0.020871496 -0.013712131
000340 75 0a e3 bc 57 c4 31 3d 4c 3a e5 bd 68 ae 23 3d
       -0.027714947 0.043400135 -0.1119276 0.03996125
000350 a1 e2 8f bd 6e bf 77 39 35 67 d5 3d f5 e8 cb 3a
       -0.07025648 0.00023627069 0.10420076 0.0015557098
000360 3a 2e 4d 3d 3e d5 1b bd 56 5a df 3d 83 f1 f8 3c
       0.050092913 -0.03804516 0.10905902 0.0303886
000370 91 fe db 3d 0e 8e 6d bd 7f 91 85 bc dc c6 de 3d
       0.10741914 -0.057996802 -0.01630473 0.10877773
000380 ff e3 08 bd ab 54 27 bd bd 9b 48 be 03 6e d5 bc
       -0.03342056 -0.04085223 -0.1959066 -0.026053434
000390 46 b8 33 3c 40 6d 38 bc f4 e6 a8 3d 03 48 31 3c
       0.010969227 -0.011256516 0.08247176 0.010820392
0003a0 50 20 34 3d 40 92 8f 3d 2f 5c 95 bb 70 d4 16 3d
       0.043976128 0.07010317 -0.0045581083 0.03682369
0003b0 66 72 5a bd 37 a7 e9 bd 06 28 1a 3e 98 71 ef bb
       -0.053331755 -0.11408847 0.1505433 -0.0073072426
0003c0 f2 8b aa bd 77 d3 56 bd 0f 19 ae 3d 1a 36 c6 ba
       -0.08327474 -0.052447762 0.08500873 -0.0015122325
0003d0 7f da fc bc fb 35 c9 bd d8 33 87 3b 9a 2c a0 bd
       -0.030865906 -0.09824749 0.0041260533 -0.07821007
0003e0 92 d8 b0 bb 1d 99 44 3d 6a 19 39 bb fb ca 2a bd
       -0.005396911 0.047997583 -0.0028243908 -0.041697484
0003f0 95 30 35 bd 6c 94 8d bd c7 ed 1b bd 0c 35 db 3b
       -0.044235785 -0.06913075 -0.03806856 0.0066896733

model_stack.9.bias f4 [84]
000000 ea 1e 1f 3c f4 69 f6 3b 89 b4 08 3c 6a a9 99 bb
       0.00971196 0.007519955 0.008343824 -0.004689385
000010 a2 3b 65 3c 04 42 a2 3c 78 0c 88 3b e4 c4 91 3b
       0.013991268 0.01980687 0.004151877 0.00444852
000020 c9 34 80 3c 95 f9 2e bb 94 d9 ba 3c 45 63 f3 b9
       0.01565017 -0.0026699055 0.022808827 -0.00046422533
000030 23 ad f6 3b 96 8b d7 3b 8f 4a d9 b9 4a 49 66 3c
       0.0075279637 0.0065779192 -0.00041445016 0.014055559
000040 a9 6f 51 3c 3b 2f ed 3b eb c0 b8 3c 6b f8 87 3c
       0.0127829695 0.0072382963 0.022552928 0.016597947
000050 8c 9d c1 3b 7b a6 02 3c 40 4c 74 3b f4 84 38 3c
       0.0059086736 0.007974262 0.0037276894 0.011262167
000060 29 f1 1e 3b 55 e8 6b 3c e2 fe af ba f2 da ba 3b
       0.002425263 0.014398654 -0.0013427401 0.00570237
000070 9a 66 66 3a 45 de d8 bb e4 c6 4d 3c 0a b5 ea bb
       0.00087890925 -0.0066182935 0.012559626 -0.007162695
000080 1a f7 3d 3c 01 43 8a 3c 8d 1e eb 3b ce 45 a1 3c
       0.011594558 0.016877653 0.007175273 0.019686606
000090 01 14 ba 3c 34 6e 75 bb 1b ab 89 3c d2 e4 30 bc
       0.022714617 -0.003744972 0.016805222 -0.0107967425
0000a0 89 5c 46 bb 2f 66 c6 ba 64 93 1b bb 35 49 42 3b
       -0.0030267558 -0.0015136654 -0.0023738975 0.0029645686
0000b0 f1 d5 cc 3b c9 03 19 bc b8 11 93 bb a6 8a d0 ba
       0.0062510897 -0.009339281 -0.004488196 -0.0015910461
0000c0 18 07 7f 3c 4d 2a 12 3b a3 6b d0 3a 7d da a6 3c
       0.015565656 0.0022303045 0.0015901219 0.020367855
0000d0 11 b1 09 3c 61 a4 97 3c fb 17 e7 bb 68 05 f1 3b
       0.008404032 0.018511 -0.0070524192 0.007355381
0000e0 75 1d 80 39 08 b1 76 3c 67 43 c1 3c 82 f3 b9 bb
       0.0002443601 0.015056856 0.02359171 -0.0056747803
0000f0 15 2e 69 3c ee c9 80 bb a8 d5 5f 3b ca 8a 10 3a
       0.014232178 -0.003930322 0.0034154449 0.0005513845
000100 e0 75 10 bc 0b e7 17 3b 16 32 35 3c 9b 29 9d bb
       -0.008817166 0.0023178484 0.011059305 -0.0047962195
000110 c5 3d e1 ba e3 19 db 39 92 90 c0 bb ab 81 59 bc
       -0.0017184546 0.00041790222 -0.005876609 -0.013275544
000120 a7 9e 63 3b 0c 2f 40 3c ed d9 dd 3c 0a d2 59 3c
       0.0034732015 0.011729967 0.027081454 0.013294706
000130 1b e9 2c 3c 3f f2 0a 3c 81 7e 8f bb c9 b9 37 3b
       0.010553624 0.0084806075 -0.004379094 0.002803432
000140 b2 a7 a4 3c ab 69 b2 3c 41 7b 60 3c 31 53 f8 3a
       0.020099495 0.021778902 0.013701261 0.0018945691

model_stack.11.weight f4 [10, 84]
000000 87 58 a7 bd 82 5b 14 3d 37 9f d0 bd 47 ff 51 bc
       -0.08171182 0.03622008 -0.10186618 -0.0128172105
000010 9d 93 55 bc 62 e9 b3 bd d9 b7 cc 3d 29 24 81 3b
       -0.013035682 -0.087847486 0.09996004 0.003941078
000020 6e c0 85 bd 32 b1 87 bd 86 16 58 bd 63 0f 1e 3e
       -0.06530844 -0.06625594 -0.052755855 0.15435557
000030 19 73 70 3e 5c 17 67 3d 11 51 7b 3d 32 39 3a bd
       0.23481406 0.05641876 0.061356608 -0.045464702
000040 44 9a 8e bd 8b b2 6c bc c5 94 35 bd a2 64 51 be
       -0.069630176 -0.014446865 -0.04433133 -0.20448545
000050 be 7b af bc 9a 4d 43 bb 42 ec 6b 3d 36 4a c1 3c
       -0.02142131 -0.0029800893 0.05759836 0.023594957
000060 7a 33 b2 bc 34 ba ad 3e 52 33 0e 3d b1 3a 48 3d
       -0.021753062 0.33931124 0.03471691 0.048884097
000070 56 9d b8 3c f4 1a 82 3c fa 1c 46 3e 10 05 5b bc
       0.022535961 0.015881993 0.19346991 -0.013367906
000080 10 8f 0e be f7 7a a1 3e 8d ed aa bd 71 0f af bd
       -0.13921762 0.31539127 -0.083460905 -0.08547867
000090 bb 14 e4 bd 77 2e 19 3e 3e 72 da bd 92 30 b6 bd
       -0.111367665 0.14959131 -0.10666321 -0.08895983
0000a0 46 ae 27 bc 2b 6c d8 bc b4 d6 0e bd 77 3f 93 3e
       -0.010234421 -0.026418766 -0.034872726 0.28759357
0000b0 09 da df 3b 43 29 01 bd 03 0e 82 3d 16 c2 79 3d
       0.0068314117 -0.03153349 0.06350329 0.06097611
0000c0 28 e5 81 3c 70 e1 ff bd 8b 64 dc bc 0d f0 79 bd
       0.01585634 -0.12494171 -0.026903411 -0.061019946
0000d0 ac ac c9 b9 63 f6 a5 bd dc de 84 3d cf 67 54 3e
       -0.00038466358 -0.08103635 0.064878196 0.20742725
0000e0 ad 9c c1 39 45 9a 54 bd 06 8f 02 be d4 16 0b 3c
       0.0003692856 -0.051904935 -0.12749872 0.008489329
0000f0 3e 09 8b bd a2 e4 9d 3d ee 5b a2 bd db 99 33 be
       -0.06788872 0.07709624 -0.079276904 -0.1753916
000100 14 07 1f 3c 55 2e 81 bc 49 77 53 3e 95 7f 64 ba
       0.009706277 -0.015769163 0.20650972 -0.0008716521
000110 e7 1c 52 bd 69 b3 a9 3d 9d 6b 81 bd 69 b3 84 3e
       -0.051297095 0.08286173 -0.06319354 0.2591813
000120 d7 db 12 3d 43 b4 80 3e 90 3d cb bd f2 b3 0b 3e
       0.035854187 0.2513753 -0.099238515 0.13642862
000130 40 4e 06 be ca bc af bc cd e8 42 bc 9c 5e 7c 3d
       -0.13115788 -0.021452326 -0.011896324 0.061613664
000140 83 e6 ea bd 76 87 15 be d0 c0 ff bd a8 29 f3 bc
       -0.11469748 -0.14602455 -0.12487948 -0.02968295
000150 a3 d9 ca bd 17 bf 72 be 46 45 19 be cd e0 62 bb
       -0.09904792 -0.23705707 -0.14967832 -0.0034618855
000160 40 de cb bd 22 be 07 bd b8 bb 7f 3b d3 9a 0c bc
       -0.099545 -0.03314031 0.0039021801 -0.008581835
000170 4d db 90 bd a2 7f 03 be f5 75 20 3e b7 aa 1f 3c
       -0.07073078 -0.12841657 0.15669997 0.009745291
000180 76 40 0a 3e 22 6b fb bc 74 4f 86 bc 3b 6c 18 3e
       0.13501152 -0.030690733 -0.016395308 0.14885037
000190 b3 1c ed bd 1b e8 8c bd fb 1d 86 bd d5 cc f4 3d
       -0.115777396 -0.06880208 -0.06548687 0.11953131
0001a0 2b a4 cf bd 09 3a bc 3e a4 61 1d bd 85 cd dc bd
       -0.101387344 0.36763027 -0.038423195 -0.10781387
0001b0 a2 b6 d1 3c ae f4 de 3d 07 1b 10 bd 72 b4 66 3e
       0.025599781 0.10886513 -0.035182025 0.22529772
0001c0 7c 42 ab bc 92 f5 81 3e c1 18 ea 39 84 69 87 ba
       -0.020905726 0.25382668 0.000446504 -0.0010331129
0001d0 3f e7 e3 bd 3d d5 0a be 52 8b 7c 3e 98 64 21 3e
       -0.11128091 -0.13557906 0.24662521 0.1576103
0001e0 c1 53 04 be 5d 2a c6 bd 88 0a 0d 3e c1 5a b9 bd
       -0.12922575 -0.09676049 0.13773549 -0.09050513
0001f0 b9 68 d8 3b 33 3a 16 be b0 ed aa 3c 58 3b bd bd
       0.006604281 -0.14670639 0.020865291 -0.092398345
000200 cf 01 84 3e fc 85 71 bd e0 a7 6b 3c e0 9f c1 3d
       0.2578263 -0.058965668 0.014383286 0.09454322
000210 63 3c ca bd fc 4d c4 bd 8a 7a 2f bd 0a c0 ee bd
       -0.09874799 -0.09585187 -0.04284147 -0.11657722
000220 c5 ec c4 bd b8 73 8d bd ef 09 91 3d 15 5c 1f be
       -0.09615473 -0.06906837 0.07081973 -0.1556247
000230 6e 2d 11 bd c0 2e 30 3d 42 62 37 3d a2 94 33 bc
       -0.035443716 0.043013334 0.04477144 -0.01096073
000240 1b 8c b4 3d b4 0f b8 3b 67 3f 05 3d 08 5f 80 bd
       0.088157855 0.0056171063 0.03253117 -0.06268126
000250 d3 a4 48 3b df 7d d2 3b 78 0e 9e 3d 58 5d 81 bb
       0.003061582 0.0064236964 0.077176034 -0.003947895
000260 17 d6 04 3e 53 1b 58 3c 39 07 5b bd cd 05 0e be
       0.12972294 0.013190108 -0.053473685 -0.138694
000270 99 64 be 3d 6a 40 de bd 23 f9 44 3e 8c 1e f3 3d
       0.09296531 -0.1085213 0.19235663 0.11871061
000280 4d de dd 3d 9b a4 8f bd f3 7b ae bc db c8 0a bd
       0.10833416 -0.07013818 -0.021299338 -0.033882957
000290 cc 68 0f bd bd 2a 79 3e 01 b2 52 be db 2c 1c 3c
       -0.03501205 0.2433271 -0.20575716 0.009532179
0002a0 2e e1 8c bd a9 d2 58 3e 37 34 14 be 1e fa 13 bd
       -0.06878887 0.2117411 -0.14473043 -0.036127202
0002b0 44 06 a8 bd 52 9b 04 bd 7b c9 c3 bc c1 d6 b8 3b
       -0.0820432 -0.032374687 -0.023899784 0.005640835
0002c0 c4 c3 c8 bd 13 cc 4c 3e e0 97 b6 bd e8 55 25 3d
       -0.09802964 0.19999723 -0.089156866 0.04036513
0002d0 bc d3 51 bd 20 71 68 3d 74 e4 42 bd 41 8e 0a be
       -0.051227316 0.05674851 -0.04758115 -0.13530828
0002e0 75 f9 8b bc 3e 76 c4 bd 80 26 fe bb c9 3d e2 3d
       -0.017086724 -0.095928654 -0.0077560544 0.11046941
0002f0 78 ea f3 bd 90 b1 42 3c 1e 25 9e bd f3 47 11 bd
       -0.11909956 0.0118831545 -0.07721923 -0.035469007
000300 97 fa f4 bb 69 1e 18 be 26 80 e7 ba 7e e0 36 3e
       -0.0074761617 -0.1485535 -0.0017662093 0.17859074
000310 a2 c8 19 3d 1a e1 d1 bd 6d f2 e0 bd 41 25 b0 3c
       0.037544854 -0.10248013 -0.10983739 0.021502139
000320 a7 83 8a 3e 84 3d 40 be f0 52 c3 bd 23 0f 4f bd
       0.27053568 -0.18773466 -0.095373034 -0.050551545
000330 2c ab 05 be 2c 82 3e 3e f7 d8 21 be fe 1b 0f 3d
       -0.13053578 0.18604344 -0.15805422 0.034938805
000340 b9 d9 3a 3c 6c f7 e1 3e de 81 c0 bc f4 c4 8a bd
       0.011404448 0.4413408 -0.023499426 -0.06775847
000350 51 07 a7 3d 2f 1b af 3e 1e 4b 3b bd 2a f6 65 3a
       0.08155692 0.34200427 -0.045725934 0.0008772338
000360 36 a0 27 bd 2d f9 a8 bd f9 43 8d bc f8 3f f1 bd
       -0.040924273 -0.082506515 -0.017244326 -0.11779779
000370 cb b1 ae bd b9 10 6c 3e 81 bf c5 3e d7 b9 e8 bd
       -0.08530005 0.23053254 0.38622668 -0.11363571
000380 db f6 dc bd 02 c3 61 bd 3b 17 d1 3d 6a 2e b3 bb
       -0.107892714 -0.055117615 0.10209509 -0.0054681795
000390 93 81 09 be eb 41 02 bd f6 8d 56 39 08 4a d9 bd
       -0.13428335 -0.031801146 0.00020461515 -0.106098235
0003a0 91 92 8b bc 11 12 00 3c 0b be 7b bc c7 40 8a bb
       -0.017037662 0.007816807 -0.015365134 -0.004219148
0003b0 c3 0c 96 bd b3 1a 2d bd 61 bb 02 3d 51 0d 8b 3e
       -0.07326653 -0.04226179 0.03191698 0.27158597
0003c0 5e 06 92 bd 96 7a f7 3c 7d f4 dd bd 3e 02 d3 bd
       -0.07130121 0.03020982 -0.10837648 -0.10303162
0003d0 b0 55 3a 3d 5b 32 83 bc 5b df 56 3c 00 4d 08 bd
       0.045491874 -0.016015222 0.0131147755 -0.033276558
0003e0 63 55 eb bd a5 3e e0 3d 5e 99 18 3e bf 74 d1 3d
       -0.114908956 0.109494485 0.14902255 0.10227346
0003f0 13 ef e1 bd 44 b8 a3 3c 2e 2e 61 3e 6a 77 01 bd
       -0.11031928 0.019985326 0.21990272 -0.031608023

model_stack.11.bias f4 [10]
000000 fc c6 9a bc 7a af c1 3c 2d 8d 65 bc 78 2d 38 3c
       -0.018893711 0.023643244 -0.01401071 0.011241309
000010 c4 4a db 3b 6e 18 99 3b be 4c 2c bc 09 72 7e bb
       0.0066922624 0.0046721017 -0.010516344 -0.0038825294
000020 7d f1 dc 3c 62 80 c7 ba
       0.02697062 -0.0015220756
