model/20231112-201939.pt (torch, 181800 bytes, 10 tensors)

model_stack.0.weight f4 [6, 1, 5, 5]
000000 85 8f 2e bf 47 98 5a bf 5c 21 57 bf f0 43 cb be
       -0.68187743 -0.85388607 -0.8403528 -0.3970027
000010 76 43 31 3d ca ae 52 bf 05 6a 82 bf d7 71 41 bf
       0.043277226 -0.82297957 -1.0188605 -0.7556433
000020 05 3c c5 3e a1 f5 c0 3d 98 81 00 be 89 a6 04 bf
       0.38522354 0.0942185 -0.12549436 -0.5181661
000030 b4 19 8e 3e bb 92 de 3e 95 02 93 be a1 da 5c be
       0.27753985 0.4347132 -0.28712907 -0.21567775
000040 5b f4 4c be 96 e6 2e 3f 44 7c e9 3d 78 44 76 be
       -0.20015089 0.68320596 0.11400655 -0.24049556
000050 f2 b2 38 3d cd 7a 04 3e 06 49 15 3f 10 6e 45 3e
       0.04509253 0.1293747 0.5831455 0.19280267
000060 d4 aa 97 be ab ca aa be c5 27 9c b9 5f 7f 26 3e
       -0.2962252 -0.33357748 -0.0002978427 0.16259526
000070 74 bf 5e 3c 09 1c fd bc fd 63 09 3f 82 97 17 3f
       0.013595451 -0.030897157 0.53668195 0.5921556
000080 2a 35 eb 3d 49 6d 06 bf 21 5d 11 bf dd 68 f8 3e
       0.114847496 -0.52510506 -0.5678273 0.48517504
000090 dd 4f 8f 3e e8 97 fc bd 60 74 2c bf e7 b1 32 bf
       0.27990618 -0.12333661 -0.67365074 -0.6980271
0000a0 f0 09 31 bc 60 9f 28 3c 39 e3 cb be 22 ec 62 bf
       -0.010805592 0.010291904 -0.39821795 -0.8864156
0000b0 71 de 4a bf 84 26 36 bf 19 2a 03 be 97 0a 8b be
       -0.7924567 -0.7115252 -0.12809028 -0.27156517
0000c0 62 8c 04 bf ae c4 14 bf 30 19 5e 3e 0f c6 57 3f
       -0.5177671 -0.5811261 0.21689296 0.8428659
0000d0 89 a7 21 3f db 99 37 3f 1b c7 de be 5c 88 4d 3e
       0.63146263 0.7171914 -0.4351128 0.20071548
0000e0 5f 91 df 3e 7a a8 c1 3e 5b 33 d5 3e 13 ed 55 be
       0.43665597 0.3782385 0.41640744 -0.20891218
0000f0 00 ba e7 bd 65 82 9e be c5 dc 5c be 6f 70 bf 3e
       -0.113147736 -0.30958858 -0.21568592 0.37390468
000100 ca 72 73 3e ca f3 31 be 54 fa aa be 3d 05 96 be
       0.23774257 -0.17378154 -0.3339411 -0.29300871
000110 50 4b 13 be 60 45 88 be b4 b7 53 bd 25 f3 bd be
       -0.14384198 -0.2661543 -0.051688865 -0.37099567
000120 b7 9e b7 be 2d 3b 1b bf 78 00 24 bf cd 7b 53 3f
       -0.35863277 -0.6063717 -0.64063215 0.8261078
000130 12 43 03 3e 73 11 5e be ce f0 4a bf e6 ad a5 bf
       0.12818554 -0.21686344 -0.7927369 -1.2943695
000140 01 5a f2 bd 55 ae 01 3f c0 e1 3e 3f b4 96 a1 bd
       -0.11833573 0.50656635 0.7456322 -0.078900725
000150 4c db 07 bf 95 72 f6 bd 07 2d 8d 3e cf 21 c9 bd
       -0.53068995 -0.120335735 0.27573416 -0.098209016
000160 04 22 a7 3e 96 0f fa 3e 18 c1 e9 bc 2c 1a 9f 3e
       0.3264314 0.48840016 -0.028534457 0.31074655
000170 d0 f7 91 3d 14 8f 4c be 9e 16 d6 bc 37 3a 7a bd
       0.071273446 -0.19976455 -0.026133832 -0.061090674
000180 ca 69 81 3e 0b 59 f7 bd c5 68 10 be 06 96 59 3e
       0.25276023 -0.120775305 -0.14102466 0.21248636
000190 5b 0d c6 bd 1c 01 bc be df f1 fc 3e 2a 35 14 3e
       -0.09670516 -0.36719596 0.49403283 0.14473405
0001a0 c0 ab 07 bd 9c 63 99 be 67 60 19 bf fc ce bf 3e
       -0.033122778 -0.29958808 -0.59912723 0.37462604
0001b0 79 a7 a9 3e e5 0d 02 3e d9 3b 0d bd bc 05 c8 be
       0.33135584 0.12700613 -0.034480903 -0.39066875
0001c0 63 9d f6 3d ee 9c f5 3e 3a 20 04 be c3 48 06 bf
       0.12041738 0.4797129 -0.12902918 -0.52454776
0001d0 ae 9c 3e bf 77 8f 3b 3f a6 ec 2a 3f 36 aa 60 bd
       -0.74457824 0.73265785 0.66767347 -0.054849826
0001e0 08 39 9e be 28 d0 b4 be b2 7d 5f bd 4b 41 a9 3e
       -0.30902886 -0.3531506 -0.05456323 0.33057627
0001f0 da f1 3e 3e 9f 4a b0 3d 06 01 e2 bd 6b f3 26 3a
       0.18646947 0.08607983 -0.110353515 0.00063686696
000200 4f 51 4a 3e c7 6f 36 be 38 d6 39 3e 0b d5 8b be
       0.1975758 -0.17816077 0.18148124 -0.27310976
000210 da 10 85 be b1 b8 17 3f c5 a9 45 be f7 2b bb 3e
       -0.2598942 0.5926619 -0.19303043 0.3655698
000220 3e de dc bd 7a 88 70 bf 21 4e 68 3f f5 33 6b be
       -0.10784577 -0.93958247 0.90744215 -0.22969039
000230 60 b5 a9 3e 7b 5e 06 3f 9f 4d c1 bf 58 41 8c 3e
       0.3314619 0.52487916 -1.5101813 0.27393603
000240 b3 b7 b7 3e 34 4f 48 3e 1c 3f 4d 3f 72 ab 88 bf
       0.3588234 0.19561464 0.8017442 -1.0677321
000250 62 03 c8 be d4 be e9 3e
       -0.3906508 0.45653403

model_stack.0.bias f4 [6]
000000 60 50 99 be db 45 95 3e f1 5f 8c 3e bc e8 fb bd
       -0.29944134 0.29154858 0.27416947 -0.1230025
000010 fc e4 ff bd 75 96 34 be
       -0.12494847 -0.1763552

model_stack.3.weight f4 [16, 6, 5, 5]
000000 00 13 75 3d 44 bc 00 3f 7d ca d0 be 78 03 03 be
       0.059832573 0.5028727 -0.40779486 -0.12794292
000010 52 df ce bd 84 5e ac 3e 99 a4 89 bd a6 7d 9a bd
       -0.10101189 0.3366586 -0.06720848 -0.07543497
000020 2c 04 b9 bc 37 e3 8f 3c 96 0e 45 3e 9f 27 40 bd
       -0.022584997 0.0175644 0.19243845 -0.046912786
000030 f9 e2 21 bd 4f b4 37 bb 45 d7 24 3e 8b 2f 66 3e
       -0.0395231 -0.0028031056 0.16097744 0.22479074
000040 26 0b 38 be 0e cd 89 3d a6 af d2 3d 93 1f 94 bb
       -0.17973003 0.06728564 0.102874085 -0.0045203655
000050 38 52 57 be 75 50 75 be 4c b6 08 3e 08 5c 44 3d
       -0.21027458 -0.23956473 0.1335079 0.04793933
000060 a3 43 d7 bb e1 97 23 bd b8 1e 22 3d 0d 15 88 3e
       -0.006569342 -0.039939765 0.039580077 0.2657856
000070 b2 54 9a bd d0 f8 d1 bc 63 cf 0f be 6c 47 36 3c
       -0.075356856 -0.025631338 -0.14043956 0.011125427
000080 2f 1b fa 3d 20 b6 e0 bc 51 3d 62 3d e3 dc 25 be
       0.12212216 -0.027430594 0.055234257 -0.16197543
000090 d3 2c 17 bd ee 4a 93 3d a6 6a 16 3d 1b 01 63 bc
       -0.036907982 0.07192026 0.0367228 -0.013855244
0000a0 d3 00 b9 bd ec 33 39 bd ed a0 01 3e a0 be d8 3d
       -0.0903336 -0.045215532 0.12659045 0.10583234
0000b0 37 a4 1f 3e be dc f8 bd 0d 67 8a bd 0a 14 59 3d
       0.15589987 -0.12151478 -0.067579366 0.052997626
0000c0 73 37 01 bc 03 19 fd 3c ad 33 a3 be 48 cc 97 be
       -0.007886755 0.030895716 -0.31875363 -0.29648042
0000d0 a4 83 31 3e 3e 9e 14 be 68 30 8e 3d 4c c4 b8 bd
       0.17335373 -0.1451349 0.069428265 -0.09021816
0000e0 e9 05 2a be 52 3d d5 3d 69 9c 51 be bb e3 7e 3b
       -0.16603817 0.104120865 -0.20469822 0.0038893062
0000f0 a7 c4 77 3e b3 9f 61 3e e4 2b 34 be 04 21 80 bd
       0.2419611 0.22033577 -0.17594868 -0.06256297
000100 57 bf 84 bd 85 f6 10 be af 3c 35 bd 60 f7 6c 3d
       -0.06481808 -0.1415654 -0.044247326 0.057853103
000110 5c c9 d3 3c 23 9d 08 be 95 2d c8 3c 80 28 22 3e
       0.025852852 -0.13341193 0.024435798 0.15835762
000120 e2 cc 98 3d 40 91 71 3e 22 50 87 be 58 79 8c bb
       0.07460953 0.23590565 -0.26428324 -0.0042869262
000130 bc 70 03 bf c0 06 2d be 1e 91 ff bd 9d 3e f0 3d
       -0.51343894 -0.16897106 -0.12478851 0.117306925
000140 66 d7 ad 3e 75 15 36 be 80 46 05 3c 0f d4 37 be
       0.33953398 -0.17781623 0.008134484 -0.17951988
000150 2d a0 fc 3d 7a eb d0 bd 8c c7 2b bd e2 da 55 3d
       0.123352386 -0.102011636 -0.04193835 0.052210696
000160 20 33 f4 bc 5a be 91 bd f4 41 28 be b0 93 49 be
       -0.029809535 -0.07116385 -0.16431409 -0.19685245
000170 63 f7 06 3e 5c 34 cd 3d c9 08 2b 3e 19 a3 63 be
       0.13180308 0.100197524 0.1670257 -0.22230186
000180 c1 0c aa bd 16 a7 a4 bb 33 86 39 bd 16 77 52 3e
       -0.08303214 -0.005024801 -0.045293998 0.2055324
000190 09 4d 7c 3e 39 22 59 3f 17 8e 88 be 0d e4 b3 3d
       0.24638762 0.84817845 -0.26670906 0.087837316
0001a0 08 cd 90 bd 5a e6 6c 3c 1c d4 37 3e 5f df c2 bd
       -0.070703566 0.014459217 0.17952007 -0.09515261
0001b0 1e c2 24 3e 1b f7 1d 3b 5d 44 54 bd 84 84 b1 be
       0.16089675 0.0024103585 -0.05182301 -0.34671414
0001c0 0f 1f 5e bd 40 e4 a5 bd 4c 8d d3 3c e5 f5 d4 bd
       -0.05422884 -0.08100176 0.025824212 -0.10398463
0001d0 a8 88 8b be 16 5e f7 bc 8c c5 4f be f3 89 04 3d
       -0.27252698 -0.03019623 -0.20290202 0.03235812
0001e0 59 1e 88 be dc c9 30 be 23 f7 d6 bd 01 10 49 be
       -0.26585653 -0.17264503 -0.10496356 -0.19635011
0001f0 4d d8 34 3e 53 09 5c 3e d6 42 e4 3d 0a 0c 86 3e
       0.17660637 0.21487932 0.111455604 0.2618106
000200 02 35 3a 3e 5f 17 51 be 7f 2d 27 be 29 f2 aa bd
       0.18184283 -0.20419072 -0.16325949 -0.0834697
000210 f4 5d c2 3e e8 53 06 3e 99 ac d4 bc ba 0e f6 be
       0.37962306 0.13117945 -0.025961207 -0.4805811
000220 23 fb 2a be 2b 46 0f bd d6 7a 44 3e 4d 58 72 bd
       -0.16697364 -0.034979027 0.19187483 -0.05916624
000230 07 2e 37 be 21 88 3e be 9b b9 36 be a1 71 06 bc
       -0.17888652 -0.18606617 -0.1784424 -0.008205802
000240 38 28 9d bc 97 7e 3d be cc 62 9c be 51 c5 58 be
       -0.019184217 -0.18505321 -0.30544126 -0.2116902
000250 07 51 f4 3d 25 ff 41 3e 42 dc 0c 3e fc 92 b3 bd
       0.11929517 0.18944986 0.13755897 -0.087682694
000260 6e 03 a3 bc d5 e1 d5 bd b7 09 02 3c 1b 8e 6a 3e
       -0.019899096 -0.10443465 0.0079368865 0.22905771
000270 2d 2c 8d be 9f bb 8d 3c 26 b2 20 be 99 9b 8b 3d
       -0.27572766 0.017301379 -0.15692958 0.06816787
000280 93 5e 9a bc da 39 d0 bd 3c 6e 55 3e e5 89 89 bc
       -0.018843925 -0.10167284 0.20842832 -0.016789386
000290 8c 56 b0 bd 90 b1 a9 3d 76 c1 08 3f c2 31 09 3e
       -0.086102575 0.082858205 0.534202 0.13397887
0002a0 64 84 ba 3c f7 38 c4 bd 11 3c 6c bd 02 da b6 3e
       0.022768207 -0.09581178 -0.05767447 0.35713202
0002b0 a8 12 07 3d 08 60 0e 3e 50 fe 14 bd b3 46 7b be
       0.032976776 0.1390382 -0.036375344 -0.24538688
0002c0 cc 76 b7 3d 0c a4 56 bd 96 4e 5e 3d dc 4b 7a 3d
       0.089582056 -0.05240254 0.054274164 0.0611075
0002d0 0f 22 0b be e6 c5 ff 3d 65 5e a0 bd 06 9a d3 ba
       -0.13587211 0.12488918 -0.07830504 -0.0016143925
0002e0 8f 0d ac bd 5f ff bc 3e ab 25 7d 3e e8 fd 52 be
       -0.084010236 0.36913583 0.247214 -0.2060467
0002f0 2d 67 0b be a8 a2 cd 3d 42 34 41 3e ac c5 11 3e
       -0.13613577 0.1004079 0.18867591 0.14235562
000300 b8 a7 8c be c7 b2 48 be 41 91 19 3d 8a ce 0f 3d
       -0.2747171 -0.19599448 0.03749204 0.03510908
000310 39 10 a3 bd d4 95 7e be fb 07 a2 be 1a 67 5e be
       -0.079620786 -0.24861842 -0.31646714 -0.21719018
000320 4e 92 e1 bd 45 33 38 be fb af ba bd f7 1a d4 bd
       -0.110142335 -0.17988308 -0.09115597 -0.10356706
000330 ae 47 4a 3d 00 13 1e be 87 8d e3 3e 0a 3a 0e be
       0.049384765 -0.15436935 0.44443914 -0.13889328
000340 ff 80 ff bd 26 e3 77 be d5 87 8a 3e f9 7e ba 3e
       -0.12475776 -0.24207744 0.27056757 0.36424997
000350 90 57 28 3e 46 ed 0d bd e8 1d 2d 3e c6 e4 13 3e
       0.16439652 -0.03465011 0.1690594 0.14442739
000360 6b 9c c5 3d 4d d3 4b be af bc 18 be b8 4b 82 bd
       0.09648975 -0.19904824 -0.14915727 -0.063620985
000370 51 5c c8 bc 55 da 68 be 8d f1 0b bd 34 4c 7c 3d
       -0.024458082 -0.22739537 -0.034165908 0.06159611
000380 9b 80 96 bd 45 37 c6 bd 19 5c 47 3c 26 ee 59 3c
       -0.07348748 -0.096785106 0.012167954 0.013301408
000390 13 26 97 3d c8 d1 c6 3a fd a6 5f be 93 67 6a 3e
       0.07380309 0.0015168721 -0.21841045 0.22891073
0003a0 dd 24 7a 3c eb 0a 81 3e 3b cb 98 3d 20 41 17 be
       0.015267578 0.25203642 0.07460638 -0.14770937
0003b0 66 71 5c 3e cf 57 d7 3d d1 bc 94 bd 1f a4 20 bd
       0.21527633 0.10514795 -0.07262576 -0.039219018
0003c0 5c ec 4b 3d 3d b8 34 3e 40 77 34 be c9 f7 01 bd
       0.049785957 0.17648406 -0.17623615 -0.031730447
0003d0 b2 17 15 be e6 a5 d3 3e 6a f2 54 3d 3c 1b 52 be
       -0.1455982 0.41337508 0.051988997 -0.20518202
0003e0 8b 96 ac 3c 47 82 3e 3d 47 e1 70 3e 0a ed 40 3d
       0.021067878 0.04651096 0.23523436 0.047101058
0003f0 60 69 b8 bd 61 42 fc 3d ea 3a 7e 3d da 59 bb 3e
       -0.09004474 0.12317348 0.062067904 0.3659199

model_stack.3.bias f4 [16]
000000 e9 40 2a bd 50 01 60 be d7 de d2 3d 70 f3 f4 3d
       -0.04156581 -0.218755 0.102964096 0.119604945
000010 82 a2 82 3d cb 0b c3 bd 33 f9 03 3f 03 7a bd bc
       0.06378652 -0.09523734 0.5155212 -0.023129469
000020 8f 0d 9b 3e 30 20 d8 bd 8a 03 fb 3d 42 f3 5c bd
       0.30283782 -0.10553014 0.122565344 -0.053942926
000030 bc ed 07 be 89 d1 10 3e b3 a2 9d bd 57 09 ff 3c
       -0.13274282 0.14142431 -0.07697048 0.031132383

model_stack.7.weight f4 [120, 256]
000000 68 3a 8c bc 9a fd 74 bc bb 95 b0 bb ce 25 62 bc
       -0.017117694 -0.014953041 -0.005388943 -0.013802959
000010 de b4 9f 3c 20 8a 70 3b 69 cc e7 bb fe 57 91 ba
       0.019495424 0.0036703423 -0.007073928 -0.0011088846
000020 40 99 2b 3a 9d ec 67 bb 3e 7d 71 bc 88 82 90 bb
       0.00065459684 -0.0035388835 -0.014739333 -0.004410092
000030 b4 14 6f 3c 1b d3 82 bc b6 75 51 bc d1 dc 85 3b
       0.014592338 -0.015969804 -0.012784412 0.0040851613
000040 98 34 9c 3c b0 e6 63 bb 8c e7 2a bc 90 fb 32 bc
       0.019068047 -0.0034774952 -0.010431182 -0.010924235
000050 30 be 93 3b 09 e7 ae bc f2 12 e5 3b e5 2d 8f 3b
       0.004508756 -0.0213504 0.006990784 0.0043694847
000060 35 72 34 bc 18 df 8e bc 50 56 75 3a 20 80 19 3c
       -0.011013557 -0.017440364 0.000935887 0.009368926
000070 9a 2a c5 bb 52 54 64 3c 05 d9 55 bc 19 89 40 3b
       -0.0060170414 0.013936119 -0.01305223 0.0029378592
000080 aa 8f cd bb 41 39 b0 ba 9a 8a 16 3a 54 6d 43 bc
       -0.0062732296 -0.0013444797 0.0005742699 -0.011927921
000090 08 69 29 bc cf db 4a 3c 99 69 a0 3c 55 c7 1d 3c
       -0.010339983 0.012381508 0.019581603 0.009630044
0000a0 2b 53 2c 3c 01 42 aa 3b 43 3a 8f 3c 94 7c e2 3b
       0.010517876 0.0051958566 0.017483836 0.0069118235
0000b0 d4 a5 29 3c d3 f0 43 3c c2 d8 57 3b 72 79 18 3c
       0.010354478 0.011959272 0.0032935594 0.009306299
0000c0 76 8d 3a bc 40 f7 63 bc ff a1 01 bb 6f c9 3d 3c
       -0.011386266 -0.013913929 -0.0019780395 0.01158367
0000d0 b6 b9 99 3c 5a 22 86 3b 8e 4e 55 3b 6f b1 ae bc
       0.018765312 0.0040934505 0.0032548043 -0.021324841
0000e0 aa 4d 22 bc 7b a5 c1 ba 1a 39 25 3a 8d 3d a3 b9
       -0.009906212 -0.0014774048 0.0006302759 -0.00031135642
0000f0 e1 3b 5e bb 6a 2c 03 bc 76 5b 75 3b 98 8e 63 3b
       -0.0033910202 -0.008006195 0.0037438548 0.0034722444
000100 5e 08 ae 3b 67 6c dd 3c a9 e8 ad bb 4c 63 30 3c
       0.005311056 0.02702923 -0.0053072763 0.010765862
000110 41 90 72 3c ad c3 0e bc 89 27 62 3c 84 5b a0 3c
       0.014804901 -0.008713645 0.013803371 0.019574888
000120 c3 99 47 3b 66 4b 74 bc 87 25 b5 3a b8 2a 2e 3c
       0.003045664 -0.0149105545 0.0013820388 0.010630302
000130 55 d7 ca 3b 82 79 77 bb 2b 3d 3b bc cd 14 d0 bb
       0.0061902204 -0.0037761633 -0.011428158 -0.006350136
000140 b5 db f1 3b 84 14 71 bb 5b 5c 2e bc f9 32 b9 bb
       0.0073809274 -0.003678591 -0.010642136 -0.0056518284
000150 65 3e 21 3c af f8 00 3a 5a b1 a6 bb 9d df 8f 3b
       0.009841536 0.0004919869 -0.00508706 0.0043906705
000160 73 10 1d 3b e1 39 98 3b 0e 20 f8 bb 42 e3 58 bc
       0.0023966103 0.0046455716 -0.0075721806 -0.013237776
000170 18 98 0a bc 9b a5 2f ba 2f 4f 9b bb 61 54 2f bb
       -0.008459114 -0.00067003974 -0.004739664 -0.0026753175
000180 45 46 1c 3c b0 a9 8d 3c 69 0e fb bb e1 c9 0a bc
       0.009538238 0.017292827 -0.00766163 -0.008470983
000190 65 0e f2 3b f9 75 8c bc 7b b6 44 bc ac fe df 3a
       0.00738697 -0.017146097 -0.012006397 0.0017089448
0001a0 66 4a a6 bb 58 1b 54 bc 62 70 6d 3b 04 36 70 bc
       -0.005074787 -0.012945972 0.0036230315 -0.014661316
0001b0 f5 ac 91 bc 36 ad 8c 3c e8 a3 6f 3b 23 0c 22 bc
       -0.017782668 0.017172437 0.0036566202 -0.009890589
0001c0 1f 48 b2 ba 93 ec 2e bc d0 0a 26 ba 30 f4 81 bc
       -0.0013601816 -0.010676521 -0.00063340086 -0.015863508
0001d0 50 02 72 3b 0c 76 d2 3a 65 f9 64 3c 79 e9 af bb
       0.0036927648 0.0016056909 0.013975476 -0.0053684083
0001e0 46 a7 88 3b ca a7 c8 3b 05 90 2c 3c f4 89 44 3c
       0.004170331 0.0061235176 0.010532384 0.011995781
0001f0 8c 40 3f bc 57 ca f2 3a ee 80 db 3a b4 bd 6f 3c
       -0.011673104 0.0018523437 0.0016746798 0.014632631
000200 82 9a 3a 3c e0 ad 55 bc 09 f5 5c bc c4 9e 3f 3c
       0.011389377 -0.013041943 -0.013486155 0.0116955675
000210 94 18 08 3c 90 b1 74 ba 2d 3d b7 ba 49 d9 8a 3b
       0.008306641 -0.000933432 -0.0013980024 0.004237328
000220 21 b6 57 bc 44 70 f6 38 89 f8 b9 bc f6 23 07 bd
       -0.0131659815 0.00011751105 -0.022701519 -0.03299328
000230 02 2e 17 bc 60 d8 82 3c b8 0c 1e 3b 0f 70 74 3c
       -0.009227278 0.015972316 0.0024116468 0.014919295
000240 69 83 80 bc 76 da 27 bc 6d 3f 63 bb 03 a6 89 bc
       -0.015687661 -0.010244956 -0.0034675256 -0.016802793
000250 ad c5 b9 3b b1 1d 88 3b 31 9c 52 bc 47 ca c3 bc
       0.0056693167 0.00415393 -0.012854622 -0.023900164
000260 0c 1c 1d bc ff 0c 65 3c fc 0a 77 3b b4 6a 82 3b
       -0.009589206 0.013980149 0.0037695756 0.003980005
000270 a9 be 48 bc c7 d0 8f 3b ce d9 72 bc 3e 49 17 bc
       -0.012252488 0.004388902 -0.0148224365 -0.009233771
000280 ad b0 0c bc 48 2b 0f 3b 8b 9a e0 bb c4 2c 87 3b
       -0.008587045 0.0021845866 -0.0068543605 0.0041252095
000290 a6 9c c9 3a e7 e0 d0 bb c3 83 c9 bb e7 fe 5a 3b
       0.0015381768 -0.0063744667 -0.0061497404 0.0033416094
0002a0 cd ca 93 3c ff 26 92 3c 26 26 4c 38 65 87 96 bc
       0.018041039 0.01784086 4.867292e-05 -0.018375108
0002b0 51 5f 65 3b 68 09 08 3b 50 0f cc 3b e7 54 ad 3b
       0.003499944 0.002075756 0.0062274113 0.005289662
0002c0 06 aa b9 bc 50 2d d2 ba 1f 40 37 bc 66 e3 ab 3c
       -0.022664081 -0.0016035233 -0.011184721 0.020982455
0002d0 a8 52 81 bb 29 01 1a 3c 93 e1 0a 3c 58 ed d8 3b
       -0.003946621 0.009399691 0.008476633 0.0066200905
0002e0 76 fe 81 bc 76 90 56 bc f0 f1 b4 3b a7 08 bb 3b
       -0.015868407 -0.013095966 0.0055220053 0.0057078185
0002f0 4b 7f fa ba 4a 87 5e bb 1a 18 c4 bb 1d 97 15 3b
       -0.0019111423 -0.003395515 -0.0059843184 0.0022825666
000300 85 84 db bb 6a c6 93 bb 4f a0 20 bc 4e a6 86 bc
       -0.006699147 -0.004509737 -0.009803846 -0.016436722
000310 b5 89 89 bc 03 b5 49 3b a1 5d a1 bc bd 81 c1 bc
       -0.016789297 0.0030778057 -0.019697966 -0.023621434
000320 bb 17 80 38 e1 66 15 3a 2b 1a 50 3c 86 45 cd 3b
       6.107936e-05 0.0005699229 0.012701551 0.0062643914
000330 3d b9 00 39 23 e1 6e 3b ab 72 90 3c 77 0a 9c bc
       0.00012276038 0.003645011 0.017632803 -0.019047959
000340 80 6d a9 bb 3e 9c b6 3c 4d 07 77 bb 8a ca 82 bc
       -0.005170524 0.022291299 -0.003769356 -0.015965719
000350 5f 06 f2 bb 43 f1 d8 3c 3b d7 02 3c c3 c5 4f 3b
       -0.0073860134 0.02648223 0.007985885 0.0031703569
000360 e1 b7 8f 3c 02 d5 11 bc c6 d9 93 bb 8d d5 2b 3c
       0.017543735 -0.008900883 -0.0045120446 0.010487926
000370 1e 3e d4 3b 5f bf 77 bc bc 19 9b bc 95 21 12 3a
       0.0064771315 -0.01512131 -0.01893317 0.0005574462
000380 0b c3 1a bc 8b 63 4f 3c 4e c3 11 3c ac 62 53 3c
       -0.009445916 0.01265801 0.008896662 0.012901943
000390 2b 5f 1a bb 4e 59 f0 3b 47 0e f9 ba c8 a7 95 3c
       -0.002355526 0.0073348647 -0.0019001447 0.01826848
0003a0 d2 11 21 bc d8 46 b5 bb 82 3a 9f bc ac 5d d5 3a
       -0.009830909 -0.005532127 -0.019437078 0.0016278527
0003b0 15 30 a2 3c ea 3e 31 3b 8c bc 22 bc c9 6e 9d bc
       0.019798318 0.0027045556 -0.009932648 -0.019217866
0003c0 f7 8c 8f 3b 03 e3 80 38 bc 80 1b bc c5 cd 22 3c
       0.004380818 6.1458e-05 -0.009491142 0.009936755
0003d0 16 4a 6b 3c b9 1f 86 3c 13 ee 77 bc e4 29 20 bc
       0.014360925 0.016372548 -0.015132445 -0.0097756125
0003e0 9a 4f 41 bc c2 38 83 3c 73 fa 4b 3c 9a 29 2e bc
       -0.011798764 0.016018275 0.012449848 -0.010630036
0003f0 25 55 5c bc 23 f2 aa bc 50 fc 18 bc c7 87 d4 3a
       -0.013448034 -0.020867413 -0.0093375 0.0016214781

model_stack.7.bias f4 [120]
000000 19 96 b3 bb f8 e2 c5 bb 05 60 0a bd 18 85 1f 3d
       -0.0054805395 -0.0060390197 -0.033782978 0.038945287
000010 e2 b0 85 bc b0 e2 0f bc 2c 7a f3 bc 24 5f 6a 3d
       -0.016319696 -0.008782074 -0.029721342 0.05721964
000020 4d c7 73 bc ca a9 46 bc 50 65 60 3d ee d3 b9 3c
       -0.01487906 -0.012125442 0.05478412 0.022684064
000030 bc b4 80 3b eb c7 49 3d ad 81 21 3e 82 bd 2f bc
       0.003927795 0.049262922 0.15772124 -0.0107263345
000040 aa 6d 81 bd b0 47 80 3d 30 d9 8c 3c 72 50 3b 3d
       -0.06319745 0.06263673 0.017193407 0.045731016
000050 f6 47 5e bc b1 cd 10 3d fa c4 af bc cc fc 15 3d
       -0.0135669615 0.035352413 -0.02145623 0.03661804
000060 24 8e 4c bb 12 81 8c 3c 11 d9 a4 bb 70 8a 35 3d
       -0.0031212652 0.01715139 -0.005030759 0.044321477
000070 09 42 0b bc 5d 42 52 3c 13 11 8e bd 8a 08 bc 3d
       -0.008499631 0.012833205 -0.069368504 0.09181316
000080 0e df 3c 3c 35 bf 1e bd a6 37 03 3b 9f de a6 bb
       0.01152779 -0.038756568 0.0020022183 -0.0050924565
000090 65 7e 96 bb 88 ed 61 3d 96 f4 8b 3c 1f cb 83 3d
       -0.004592704 0.055158168 0.017084401 0.06435227
0000a0 0a 8e 00 3d 0c eb d0 bc af c4 b7 bb ea 5f a1 3d
       0.03138546 -0.025502704 -0.0056081633 0.07879622
0000b0 75 18 09 3d 6f a4 87 3d 3b 7b 70 bd 26 c9 71 bb
       0.03347059 0.0662316 -0.05871127 -0.0036893575
0000c0 7c 11 13 3d 2b 36 cc bc 5c 96 0b 3c d2 b6 3e bd
       0.035905346 -0.024928173 0.008519735 -0.04656107
0000d0 3c 93 6f 3d f1 ab 8e bd 33 52 ad bc c6 82 b8 3d
       0.058490023 -0.06966389 -0.02115736 0.09009318
0000e0 ee ff 42 bb cf 25 7b 3d 77 42 d1 bb 2d 54 98 3d
       -0.0029754597 0.061315354 -0.006386097 0.0743793
0000f0 74 35 53 3c c2 71 05 bd d6 73 a2 3c c6 22 37 bd
       0.012891162 -0.03257919 0.019830626 -0.044710897
000100 dc 59 2c 3c 9e 50 af bc b4 70 92 3a 40 3f 1e 3e
       0.010519471 -0.021400746 0.0011172504 0.15453815
000110 b5 7d 85 bd 22 73 31 bc 3f fd 96 3c 5a 83 2b bc
       -0.06518117 -0.010830672 0.018431304 -0.010468328
000120 1c 4c 9a bc 3c 02 8e 3c 6a 45 2a bd 6b e9 3b 3d
       -0.01883512 0.01733505 -0.041570105 0.0458769
000130 3c 20 71 3d 9e 4a 10 bc d0 28 95 3c 4c d0 11 3c
       0.05886863 -0.008806853 0.018207937 0.0088997595
000140 8d 74 f4 3b 46 a9 72 bd 68 a0 93 3c 88 81 0c 3c
       0.007460183 -0.059243463 0.018020824 0.0085758045
000150 a7 0e 26 3d 93 fb 01 bc 10 e8 87 bc ce c9 d3 3c
       0.040541317 -0.007933515 -0.016590148 0.025853064
000160 84 76 18 3c ce 24 00 3d 2e b5 cc 3c 53 8f 19 3c
       0.0093056 0.0312851 0.024988737 0.00937255
000170 12 e5 28 bd 1b 29 76 3b 77 46 28 bb 14 9f 83 3d
       -0.041234083 0.0037561122 -0.0025676766 0.06426826
000180 53 8a a4 bd 74 a1 a0 3d d4 bb 4b bc 5e 97 01 37
       -0.08034196 0.07843295 -0.012434918 7.724242e-06
000190 39 06 4d bb c6 42 76 3d 9f aa 8a 3d 51 6c 2f bb
       -0.0031284227 0.060122274 0.06770825 -0.0026767442
0001a0 26 26 01 bc 93 e1 98 3c 76 1c 82 3b 4f 69 b5 bc
       -0.00788263 0.01866225 0.003970678 -0.022144942
0001b0 9a c3 0d bc 7b 6d a0 3d 55 47 2e bd 57 9a 40 3d
       -0.008652592 0.07833382 -0.042548496 0.04702219
0001c0 2b 74 59 3b d7 84 0d bc 47 c5 87 3a 3b 6d 6b bd
       0.0033180814 -0.0086376285 0.0010358476 -0.057477217
0001d0 49 28 e3 bc b8 14 98 3c ec 4d 05 ba e0 ef 59 bc
       -0.02772917 0.018564567 -0.00050851586 -0.01330182

model_stack.9.weight f4 [84, 120]
000000 68 89 ca bc 16 6b 80 bd ac b2 04 3d 45 57 00 3e
       -0.024723724 -0.06270425 0.032396957 0.1253329
000010 e9 88 2f 3d a5 12 98 3d 36 46 4e bd 22 ae fa 3c
       0.042855177 0.07425431 -0.050359927 0.030600611
000020 dd 96 0e be db 71 1a 3d bd 2a d9 bc c8 80 6a bc
       -0.13924737 0.037706237 -0.026509637 -0.01431293
000030 66 cc 74 bd 38 99 c9 bc e1 e9 79 3c 90 89 0b 3e
       -0.059765242 -0.024609193 0.015253515 0.13626695
000040 40 5c 8a 3d 26 14 52 be f0 16 c1 3d 59 99 56 bc
       0.067558765 -0.20515499 0.09428203 -0.013098084
000050 63 e3 13 bd 1e a4 23 3d be c9 44 bb ca dd a9 bc
       -0.036105525 0.039951436 -0.0030027474 -0.02073564
000060 35 da 6c 3d 2b 37 f5 bd 2c dd 69 bc 17 37 cc bd
       0.057825286 -0.11973413 -0.014273923 -0.09971445
000070 9b c4 2a be 83 37 66 3c 0b cc 1e bc 43 a9 fa 3c
       -0.16676562 0.014051321 -0.009692202 0.030598288
000080 c8 f6 26 bc 69 fb 60 bd 58 15 3a 3d 54 77 dc 3d
       -0.010190673 -0.054927263 0.04543051 0.107649475
000090 85 ba 3d bc c7 72 e3 3d 8f 13 4e bc 19 2d 9a 3c
       -0.011580114 0.111058764 -0.012577905 0.018820332
0000a0 77 9b 96 3a ed d0 a8 bd 61 56 76 bb 0c 79 96 3d
       0.0011490424 -0.082429744 -0.0037588107 0.073473066
0000b0 fc 67 a0 bd de 8b ec 3d 86 3b 2f bd f2 02 11 3d
       -0.078323334 0.11550115 -0.042781375 0.0354032
0000c0 39 0f 13 bd 03 3d 59 3d 57 f0 04 be b4 b6 e0 3c
       -0.03590319 0.0530367 -0.12982307 0.02743087
0000d0 df 9f a8 3c 31 76 72 bb 40 e8 95 3b c7 d7 68 ba
       0.020584045 -0.0036996717 0.0045748055 -0.0008882251
0000e0 2b 36 3a 3d 1a de 81 3b 37 a9 1c 3d 94 bc 29 bd
       0.045461815 0.003963244 0.038247313 -0.041439608
0000f0 2d d5 2d 3e ef 20 46 bb 40 f5 14 bc bb 15 90 3d
       0.16975851 -0.0030232032 -0.009091675 0.07035395
000100 36 b4 b0 bd 60 5d 99 3d c8 d1 96 bc bb ed b8 3c
       -0.086281225 0.07488513 -0.018410578 0.022574296
000110 2f 59 de bc 9a ae 80 3b e1 7f 9e bd e2 f2 43 3d
       -0.027142135 0.003927064 -0.07739235 0.047839053
000120 36 c1 e6 3d 2f 34 f7 bc a4 4d 3f bd 1b c9 40 3d
       0.11267321 -0.03017625 -0.046704903 0.04706679
000130 91 64 7d 3c 90 90 df bb 12 25 8a bd 44 0d 33 3d
       0.015465871 -0.006822653 -0.06745352 0.043713823
000140 39 54 9c 3c 4b ea 61 3c 77 55 1d 3e 72 e2 b0 bc
       0.01908313 0.01378877 0.15364634 -0.021592353
000150 1a 58 23 3c 6a c7 2b 3d 60 8b c7 bd 53 8f 63 bd
       0.0099697355 0.041938223 -0.097433805 -0.055556607
000160 bf 90 6e bd 21 13 44 bd bc 73 0c 3d 03 7c 76 3d
       -0.05824351 -0.047869805 0.03429006 0.06017686
000170 5a 12 ba 3d 6f 9f a2 bc c0 9d 4a bd 7c b7 f0 3d
       0.090855315 -0.019851414 -0.04946685 0.11753747
000180 f2 f0 ac 3d a1 d4 5b bb 46 24 83 bd 1f 89 41 bb
       0.08444394 -0.0033543485 -0.06403403 -0.0029531193
000190 c5 77 fb bd 88 26 2f 3e 3f a2 a0 bd a0 06 6a 3d
       -0.122787036 0.17104542 -0.07843446 0.057135224
0001a0 57 f5 0c 3d bf da 98 bc 1d 42 81 bd b8 20 d0 3d
       0.03441366 -0.018658994 -0.06311438 0.101624906
0001b0 c5 4b da bc ed 0e 2b 3d b8 17 11 bd 2d f9 f6 b9
       -0.026647458 0.04176228 -0.03542301 -0.00047106427
0001c0 d4 39 1e 3c 5f 98 81 3d ce c1 87 3d c6 54 ed 3c
       0.009657342 0.063278906 0.06628762 0.028971087
0001d0 6d fd 20 3d 9a fc e9 3c 77 f1 53 bd 9c 9c 08 bc
       0.039304186 0.028562833 -0.05174395 -0.00833812
0001e0 4e e3 3a 3c cc c1 ef bd 9f c1 a7 bc 5b be 93 3b
       0.011406733 -0.11706886 -0.020478068 0.004508776
0001f0 99 9a 03 bd f6 ae bf bc 62 8f 35 bd 58 b8 1d bd
       -0.032129858 -0.023398858 -0.044326194 -0.038505882
000200 29 89 cf bc 14 cb 74 bd 25 14 9c bd d9 98 61 3a
       -0.025333958 -0.059763983 -0.0762103 0.0008605845
000210 a1 bf 4a bd 32 8a bd 3c a8 46 99 bd ab 24 10 bd
       -0.049499158 0.023137186 -0.0748418 -0.03519122
000220 da ee 92 bc ef 91 85 3d 68 11 56 bd db d2 5a ba
       -0.017936159 0.06521975 -0.052262694 -0.000834746
000230 2e 07 3f bd 70 8e 6d bb e9 3d 17 bd 76 18 4b 3d
       -0.046637706 -0.003624823 -0.036924277 0.049583875
000240 7f 04 f1 3d db 7a 8e 3c 97 9c 0b bd 29 f6 2a 3d
       0.11768436 0.017392566 -0.034084883 0.041738663
000250 ed 64 88 3d 67 b9 c2 bc fd 8b 87 bd 38 e6 ad 3d
       0.06659875 -0.023770047 -0.066184975 0.08491176
000260 93 14 91 ba 54 e7 c7 3d 0e 71 16 3c 59 47 42 3d
       -0.0011068754 0.09760919 0.009182228 0.047431324
000270 2c dc 88 3b a2 ae fc 3c 83 41 0a bd 2c 41 11 bd
       0.004176637 0.03084499 -0.033753883 -0.035462543
000280 52 da 51 bd 0d 7e dd bc 99 06 d1 bb c5 0b b0 bd
       -0.051233597 -0.027037645 -0.0063789603 -0.08595995
000290 3c 44 00 bd 05 df e1 bd 8d 5b 21 bc 6e fb 8d 3c
       -0.031315073 -0.11028866 -0.009848488 0.017331805
0002a0 f9 ef eb 3d f5 a9 8b 3c c9 33 5e 3d 92 f2 e9 bc
       0.115203805 0.017048815 0.054248605 -0.02855805
0002b0 a8 91 f6 bd 67 f0 52 bd 94 a8 c8 3c b5 07 41 3d
       -0.120395005 -0.051498797 0.024494447 0.04712649
0002c0 2a eb 93 3d fc 9c 2b bb fa e6 14 3d dc ba 42 bd
       0.07222588 -0.00261861 0.03635309 -0.047541484
0002d0 1c be 0a bd b5 69 1e 3c 68 5d ff 3c 1d ea ac 3d
       -0.03387271 0.009668757 0.03117247 0.08443091
0002e0 fe 75 03 3c fa 49 7f bc 42 37 5b 3d d6 ad bd 3d
       0.008023737 -0.015581602 0.053519495 0.09261672
0002f0 b0 6b b6 3d ff 99 7a 3c c1 96 87 3d a3 2e 52 3d
       0.089072585 0.015295505 0.06620551 0.051314007
000300 70 c2 2c 3c d9 7f fe 3c 01 89 bb 3d 01 cd 5d bd
       0.010544404 0.031066822 0.09156991 -0.054150585
000310 7b a4 3a bd 1f e3 c5 bd 4d 03 97 bd 23 13 07 bd
       -0.045567017 -0.096624605 -0.073736764 -0.032977235
000320 83 5c 92 3d df 0e d5 3c 69 8e 9a bd e1 33 97 bd
       0.071465515 0.026008068 -0.07546694 -0.07382942
000330 b6 25 1b 3d 9a 79 40 bd cb f8 7e bc cb e6 8e 3d
       0.03787776 -0.04699097 -0.015562247 0.06977614
000340 28 a2 5e 3b ab b2 77 3c a2 35 fb 3d d9 85 23 3c
       0.0033971164 0.015118281 0.12266089 0.009980642
000350 18 cf 9f 3c d6 b7 70 bc 7b 6a bb bd 9a 15 f1 bd
       0.01950793 -0.014692267 -0.09151169 -0.11771698
000360 1d 30 df bc 81 1f 23 bc 85 b4 ab 3d 6b 44 99 bc
       -0.027244622 -0.009956242 0.08384041 -0.018709382
000370 c8 e3 0a bc ff c2 80 3d 33 3b e0 3c a3 eb 88 bd
       -0.008477159 0.062871926 0.027371978 -0.06685569
000380 c3 99 33 3d 5b 2a 07 bc 37 8e e8 3b 78 91 2c bd
       0.04384781 -0.008249844 0.0070970315 -0.042130917
000390 89 97 47 3d 31 f5 66 3d 10 ed 26 bd 6f ae 69 bd
       0.0487285 0.056386176 -0.040753424 -0.05705112
0003a0 fa 81 b7 3c 4a 3a c2 bc 02 c4 e1 3c 86 46 1f bd
       0.022400845 -0.023709435 0.027559284 -0.038885616
0003b0 19 39 7f 3d 96 b6 b0 bd b1 f8 bb 3b ca 4e fe bc
       0.062310312 -0.086285755 0.0057364334 -0.031043429
0003c0 72 e3 47 3c 86 64 cb bd 81 cf 49 bd b9 ad d6 bd
       0.012200223 -0.09931283 -0.049270157 -0.10482354
0003d0 27 05 53 3c 44 d1 ac 3d 02 96 dc 3c ef c3 a1 bc
       0.012879646 0.08438352 0.026926998 -0.019746749
0003e0 bd 95 4a 3e d6 45 b2 3d 85 38 b6 3d 20 10 01 3d
       0.19783683 0.087047264 0.08897499 0.03150952
0003f0 86 6a 76 3c 36 ee f1 3c 6b e3 1d 3c db 7d dd 3d
       0.015040046 0.029532533 0.00963674 0.10815021

model_stack.9.bias f4 [84]
000000 12 af 8d 3c 1f a4 4a b9 71 99 4a 3d 3c 28 d5 3d
       0.017295394 -0.00019325361 0.04946274 0.10408065
000010 4c 57 f5 bb c8 de 73 bc 03 f3 19 bd 67 e1 0f bb
       -0.0074872132 -0.014884658 -0.03758527 -0.0021954419
000020 d3 f9 0d 3b 2a 66 bd bc e8 60 e2 3c 90 44 0e 3e
       0.00216638 -0.023120005 0.0276341 0.13893342
000030 4e 70 c1 bc a9 be 90 3c c6 10 13 bd 92 0c b5 3d
       -0.023613121 0.017669039 -0.03590467 0.08840288
000040 10 3a 11 bc f2 0d 1e bc fa 6f 0d 3e d6 41 8b 3d
       -0.008863941 -0.0096468795 0.13812247 0.067996666
000050 95 14 0f bc 22 13 31 3d 24 d5 a1 3d c7 48 06 3d
       -0.0087329345 0.043231137 0.079019815 0.03278425
000060 c0 60 60 bc 39 2c f1 3b 69 3d e9 3c 23 84 5d 3e
       -0.013694942 0.007360008 0.028471665 0.21632437
000070 58 89 3b 3d 1c bb 58 3d b0 ba df bb c4 76 5c 3e
       0.045785278 0.052912816 -0.006827675 0.2152968
000080 98 e9 64 bb ba 43 28 3d d4 c3 f9 3d 4f ec b9 3b
       -0.0034929272 0.041080214 0.121955544 0.005673922
000090 cb 72 de 3c d7 4e fb 3d 73 b1 74 3e 24 3b c8 bc
       0.027154347 0.12270897 0.23895817 -0.024442263
0000a0 1a 2e 2d bd 47 b8 90 3d f7 a8 03 3e 44 50 a1 3d
       -0.042280294 0.07066398 0.12857424 0.078766376
0000b0 0e a7 47 3d b2 89 03 3e f4 48 95 bd c1 a1 5f 3d
       0.0487433 0.12845495 -0.07289305 0.05459762
0000c0 60 eb 01 3e 72 0f 39 3e da 3e b0 3b a2 d6 9e bc
       0.12687445 0.18072298 0.0053785862 -0.019389454
0000d0 37 13 31 3d 45 79 2f 3d 22 0d 05 bb 17 7d e6 3d
       0.043231215 0.04284026 -0.0020302017 0.11254328
0000e0 73 e6 36 3b 69 cf d0 3b f9 2b af bc 9b 7f 82 bc
       0.0027908355 0.0063723815 -0.021383272 -0.015929988
0000f0 ab 41 e3 3c d1 a9 29 bd d8 67 1e 3c bc 72 c6 bc
       0.027741274 -0.041421715 0.009668313 -0.024224631
000100 4f 84 d7 bb fd 0f 60 3d 7c d1 48 bd 3a b6 b4 3d
       -0.0065770517 0.054702748 -0.049027905 0.088238195
000110 a8 57 7c 3b 88 0b 22 bb 53 ea 60 3c ce d6 05 3d
       0.0038504396 -0.0024726111 0.013727742 0.032675557
000120 9e cb 15 3d a2 37 50 3c 67 08 35 bd e7 60 bc bd
       0.036571138 0.012708576 -0.044197466 -0.0919817
000130 0b 80 2f 3e d8 2b 14 3e 2d 30 4f 3c ef 3e dc bb
       0.17138688 0.1446985 0.012645763 -0.0067213695
000140 e7 7a d2 bc c7 72 48 3c c4 de e8 3d 27 9b 6d bc
       -0.02569337 0.012234396 0.11370614 -0.014502323

model_stack.11.weight f4 [10, 84]
000000 cb 0f a7 be e3 9f 0b 3e 6d b9 3b 3d ac 4b 08 be
       -0.32629237 0.1363521 0.045831133 -0.13310117
000010 03 84 1b bd 6e 65 bc bc de b9 39 3e e5 80 ec 3d
       -0.037967693 -0.022997584 0.18137309 0.11548022
000020 be a3 05 3e 38 76 05 3e 3e ca e2 bc 24 ba 3c be
       0.13050744 0.13033378 -0.027684327 -0.18430382
000030 07 62 6f 3e e7 f4 20 bc 70 ca f0 3d dd 3f 21 be
       0.23377238 -0.009824014 0.11757362 -0.15747018
000040 92 06 43 3d da 71 b1 3d 85 79 96 3d fb 4b 51 be
       0.047613688 0.086642936 0.07347397 -0.2043914
000050 66 9d c2 bc 79 74 1f 3d b2 dd 49 bd ea 9f 44 bd
       -0.023756694 0.038929436 -0.04928369 -0.04800407
000060 6f 49 2f 3e b7 db 60 3e 41 1f af 3e e4 37 3d be
       0.17117856 0.21958815 0.34203532 -0.18478352
000070 3f 5e 2d 3d 3d ce a3 bc 61 4b db bc 97 c1 f9 be
       0.04232621 -0.019995803 -0.026769342 -0.4878051
000080 10 91 02 be 7d fa 04 3f 0f 66 54 3d 2a 44 2b 3d
       -0.1275065 0.51944715 0.051855143 0.041813053
000090 0b 20 aa 3e df 80 d8 be d8 5b 0c 3f 8f 35 16 3e
       0.33227572 -0.4228582 0.5482764 0.14668868
0000a0 54 e8 11 3e 8f 95 fc 3d 75 d6 26 be cf 0d fb bd
       0.14248782 0.123332135 -0.16292746 -0.12258493
0000b0 af 48 86 be df a8 1d 3d bb fc e8 3b ec 08 2e bd
       -0.26227328 0.038491126 0.007110206 -0.042488977
0000c0 29 3e 91 3e f0 f7 4b be f7 3a 2b be 48 c4 fb 3d
       0.28367737 -0.199188 -0.16721712 0.12293297
0000d0 a6 9e 51 3b d6 65 24 3e c5 ce 9e 3c 68 16 6d 3e
       0.003198543 0.16054472 0.019385705 0.23153079
0000e0 67 76 77 3e b4 e6 b3 bc 1e 3c a0 bb 53 77 41 be
       0.2416626 -0.021960594 -0.004889979 -0.18893175
0000f0 31 00 77 3e 6f 84 c0 3d c5 2e 8d 3c da b4 52 3c
       0.24121167 0.0940026 0.017234216 0.012860501
000100 1d ad 3f 3e de e4 da 3e b4 fe 32 3e fc fc 21 be
       0.18718381 0.42752737 0.17479974 -0.15819162
000110 cb 66 23 bc 81 b2 ac 3d bf 72 4d 3d 4a 86 05 be
       -0.009973238 0.084324844 0.05015826 -0.13039508
000120 f4 3e 4d bd 82 2b 00 be eb 2a ed 3d ed b3 40 bc
       -0.050108865 -0.12516597 0.115804516 -0.011761648
000130 f3 0b 0e be 80 11 f0 3b e5 c8 8f bd 02 f4 3a 3d
       -0.13871746 0.007326305 -0.070207395 0.04564286
000140 e1 15 85 bd 42 20 14 be 96 e6 19 3e 2a d3 22 3e
       -0.06498314 -0.1446543 0.15029368 0.15900865
000150 be 65 b3 3d d0 a0 2e bd 7b 1b 9e bd f1 7f 9a bd
       0.0875964 -0.04263383 -0.07720085 -0.07543934
000160 e3 7a 95 3c 7b f0 c7 bc e6 5a 2d bd 54 31 d1 3d
       0.018247074 -0.024406662 -0.042323016 0.10214487
000170 d5 2a d6 bc 85 b0 03 3d e7 2b d5 bb c8 ba 51 3d
       -0.02614347 0.032150764 -0.0065054777 0.05120352
000180 f3 cb e8 bc 05 a3 a9 bd 7c dd 3a bd 0f 4d ea 3d
       -0.028417563 -0.08283047 -0.04562138 0.11440479
000190 d3 e4 e8 bc e1 27 ca 3b 57 74 3e be db 77 29 be
       -0.028429424 0.0061693047 -0.18599068 -0.16549627
0001a0 1e c1 53 bd 1e 5f b9 bc 55 ca d5 bc 0c 18 17 bd
       -0.051697843 -0.022628363 -0.026097456 -0.036888167
0001b0 ae 4c 27 bd 88 24 9b 3e 97 a3 48 be 67 5e 27 bd
       -0.04084461 0.3030131 -0.19593655 -0.040861513
0001c0 16 be cd bd 3b 6a 6a bd bc f4 08 be 8b 44 ec bd
       -0.10046022 -0.057230216 -0.13374609 -0.11536511
0001d0 60 77 ed bc 3d 2b 7d be dc 8b 94 be 13 24 da 3d
       -0.028987586 -0.24723525 -0.29012954 0.10651412
0001e0 77 87 b1 bd 12 0e c9 bd 0a 0c 64 be d1 c5 78 bd
       -0.08668416 -0.09817137 -0.22270218 -0.060735527
0001f0 ae 41 62 3a 67 58 1a 3f 60 0e 81 bc 1e 93 90 3e
       0.0008631003 0.6029114 -0.015753925 0.28237242
000200 88 07 4a bd 2b 19 32 be c0 7d 4d be 52 1c b5 3e
       -0.04932359 -0.17392413 -0.20067501 0.3537317
000210 f5 f7 d2 bc 1f 3a 89 3e a4 3c a1 bd 62 d4 26 3d
       -0.025753 0.26802155 -0.078728944 0.040729888
000220 1b 81 06 3e 13 d7 5c bd 56 0f 03 bd e0 0f c0 be
       0.13135187 -0.05391605 -0.031997047 -0.37512112
000230 48 b9 7d bc 22 c3 f1 bb 21 c7 9c bb e5 6b 28 be
       -0.015486069 -0.007377998 -0.00478448 -0.16447408
000240 9c 3f 10 bd 11 05 70 bc 53 82 83 be ec b7 d5 3b
       -0.035216913 -0.014649645 -0.25685367 0.0065221693
000250 9f 29 ea 3e 8d a2 f3 bc c4 65 01 be ca af 77 bd
       0.4573488 -0.029740596 -0.12636477 -0.06047038
000260 68 53 bb 3c 91 3f 3c 3e de 90 80 3d d3 ff 5a 3d
       0.02286692 0.18383624 0.06277631 0.05346663
000270 24 49 de bd df e0 43 bd 85 27 0a bd 30 19 15 bd
       -0.10853794 -0.047821876 -0.033729095 -0.036400974
000280 fe a2 a3 be c8 dc 61 be fc 85 c4 bd b6 08 40 bc
       -0.3196029 -0.22056878 -0.09595868 -0.011720827
000290 30 4f 24 bc 56 22 8c 3e 6b df 0b be cf 64 26 3b
       -0.010028645 0.27369946 -0.13659446 0.0025389676
0002a0 ae 85 84 3e 38 b6 9c 3d 2f a8 81 be 47 3b 02 be
       0.2588324 0.07651943 -0.25323626 -0.12717925
0002b0 82 f6 34 3c 7c 72 dc bc 4d 03 1f be 03 e4 5b 3c
       0.0110451 -0.02691006 -0.15528603 0.013421061
0002c0 35 de 3b bd b6 47 33 bd 2c b7 35 bd 03 07 74 3b
       -0.04586621 -0.04376956 -0.04436414 0.0037235625
0002d0 34 ca 80 3d 7e f4 2c be 91 97 39 bd 25 43 22 be
       0.06288567 -0.16890141 -0.04531056 -0.15845926
0002e0 5a 90 c7 bc 6c 70 7a bd b1 46 67 3e 4a ec 9e be
       -0.024360824 -0.06114237 0.2258556 -0.3103965
0002f0 46 48 75 bd fa ed 69 3e 2e 51 3d 3e 10 35 4c be
       -0.05988338 0.22844687 0.18487999 -0.19942117
000300 16 63 ad 3c f0 a3 9d 3d 21 96 a6 bd d2 4d 63 be
       0.021165412 0.07697284 -0.081341036 -0.22197655
000310 4f 8d 21 3e 04 c1 d9 bd 37 70 80 be 18 de de 3e
       0.15776561 -0.10632518 -0.25085613 0.4352882
000320 34 88 22 3c 85 ba 8e be 81 fe 52 3e c8 11 4c 3d
       0.009920169 -0.27876678 0.20604898 0.049821645
000330 84 e0 e0 3e 7f bc 88 3e 21 96 9d 3e 17 bc 3e be
       0.43921292 0.2670631 0.30778602 -0.18626438
000340 da ba 99 3d 0c 40 b0 be bf be 8e 3e dc 42 99 be
       0.07506342 -0.34423864 0.27879903 -0.29933822
000350 0c dd bb 3e 13 c3 aa 3e 5b e1 fb bd c0 6a 7e 3d
       0.36692083 0.33351955 -0.122988425 0.062113523
000360 a1 17 6e 3e cf 37 9e bd 2a f4 b8 bd dc b6 bb 3c
       0.23251201 -0.077254884 -0.090309456 0.022914343
000370 c8 04 6f 3c 94 ad f9 bd 1e 83 28 3d e7 7c a7 3e
       0.014588542 -0.121913105 0.041140668 0.3271248
000380 d6 b8 44 be b0 df 30 bb 41 a3 83 bb cd a0 69 3e
       -0.19211134 -0.0026988797 -0.004017264 0.22815247
000390 eb c8 40 3e 08 ab ab bd ad 8b 4e 3e b3 99 0a 3e
       0.18826644 -0.08382231 0.2017047 0.13535194
0003a0 2d 62 cc be 7c 6d ea be f2 7a 4a bd 45 30 31 3e
       -0.39918652 -0.45786655 -0.049433656 0.1730357
0003b0 b2 c1 69 bb ae ad 64 bc 26 9a bb bc 9f b9 64 bd
       -0.003566843 -0.013957424 -0.022900652 -0.055841085
0003c0 ff fa 63 bd e6 65 fb bc 0c f3 17 be 0a 39 27 3e
       -0.05565929 -0.030688237 -0.14838809 0.16330352
0003d0 21 77 4a 3d 5c 62 94 bd dd 7b 07 be 1d fe 81 3e
       0.049430016 -0.07245323 -0.13230844 0.25389186
0003e0 85 79 29 bd 53 b1 32 3c 98 04 5f 3e e2 49 af bc
       -0.041375656 0.010906535 0.21779096 -0.021397535
0003f0 d8 10 03 3e f6 c3 85 bc 80 bf dc bc 7e 35 f2 3d
       0.12799394 -0.016328793 -0.026946783 0.11826609

model_stack.11.bias f4 [10]
000000 9d 79 4f bd 37 a4 be bd 51 22 31 3e c4 c2 4f 3e
       -0.05065309 -0.09308665 0.17298247 0.20289141
000010 86 db 8e be 0a fd 2c be 3c 68 aa 3e fd b5 a6 3c
       -0.27901858 -0.16893402 0.3328265 0.02035045
000020 2b e4 78 3d 8d 8a 12 be
       0.060764473 -0.14310665
