model/20231112-225940.pt (torch, 181800 bytes, 10 tensors)

model_stack.0.weight f4 [6, 1, 5, 5]
00000000: 642f 983c 6f8c 00be 8799 ecbe 4324 ffbe
00000010: a731 45be c9ef 423e b6a7 ce3d fef7 bbbe
00000020: 9492 1dbf cb91 00bf e397 ad3e 3e02 513f
00000030: 0cdc 1c3f b709 033e 8807 03be 290d babd
00000040: cae5 033f f40d 4c3f 6430 d13e f05a d93d
00000050: 755f e6be f99d 97be a021 1fbd 9926 ba3d
00000060: 6469 313e eabc fcbd 87c4 203c 9ffd ac3d
00000070: a5d4 e23e 21f8 f23e 68b0 2bbd 11fb 39bd
00000080: b730 4cbd 7e0f fc3e 3f63 fe3e dbc0 dfbe
00000090: 4b6e 6abe f65b c3bc 93db 0b3f 533a c73e
000000a0: 23bd 9fbe cb4e 76be 03f2 80bd 29c3 803e
000000b0: ae67 6a3e 47f2 a5be 7a38 a7be 5591 18be
000000c0: a929 f53d 9a76 ec3d 9f81 293e bc18 b13c
000000d0: 99e2 42be 8513 a53d f537 a33d b97c 303e
000000e0: 1163 acbd bec1 67bd b621 ac3e 612b 263d
000000f0: 966b 303e deff 95bd 1282 ab3d 18d3 a23e
00000100: 6f2d 8dbe 2218 8c3e b485 213e 36fe 043e
00000110: 02ef cd3d 68b4 f9bd 0657 2a3e 1da8 9a3e
00000120: 501a 943e f46b d73e b222 3c3e 41f3 fbbd
00000130: fa85 49be 1368 b7be ca19 98be 171f 8ebd
00000140: 7e82 a6be 8585 a2be 555d a0be 57ec 8f3c
00000150: ead6 a43e 240c a1be 4874 98bd 0ad0 4b3d
00000160: e103 e13e 968a 9b3e 1450 11bd 74f5 c43d
00000170: cb3c b13e 8cea 9d3e 9be2 743d 64c2 9a3d
00000180: 47a7 6f3e 4247 ac3e 0e95 843e 69b6 343d
00000190: 4faa 32bd ab5e b4be 5ca0 4cbe 5792 b93d
000001a0: 9db5 963e a238 b8be 0149 5dbd d20d e23e
000001b0: dddb 133f e22e b03e e19c 293e 5ab6 1b3f
000001c0: 861f 243f 4cac 843e ac29 44be 5ab3 a23e
000001d0: f4b3 a03e 25b6 a8bd 3af9 97be 0b27 c5be
000001e0: 8268 6dbd 87a6 c7be 0c70 eabe e5a2 bfbe
000001f0: b54c 17be e54c 0bbe ce01 d7bd b371 f4bd
00000200: 546d 9fbd 2dda 08bc 164b 08be 73ee d7bd
00000210: b90d 14be 7d52 a1bd 8a6a 25be 0423 21be
00000220: 5e43 bbbd 11ea acbd c8dc 08be 6484 19be
00000230: 1e15 cfbd 54ed fcbd 9b70 fdbd 2ef6 c9bd
00000240: ca9f 0fbe a3e8 90bd 148f d3bd 8728 e7bd
00000250: dc13 c8bd da58 d1bd
0.018577285 -0.12553571 -0.46210882 -0.49832353 -0.19257222 0.19036783 0.10090582 -0.3671264
-0.61551785 -0.5022246 0.33904943 0.81644046 0.61273265 0.12796675 -0.12795842 -0.09084541
0.51522505 0.7970879 0.40857232 0.10613048 -0.44994703 -0.2961271 -0.038850427 0.09089393
0.1732536 -0.1234072 0.009812481 0.08446812 0.4430286 0.47454932 -0.04191628 -0.04540545
-0.049851146 0.4923057 0.49685094 -0.43701825 -0.22893636 -0.023847561 0.5463192 0.38911685
-0.31198987 -0.24053495 -0.0629616 0.25148895 0.22891113 -0.32411405 -0.32660276 -0.1489919
0.11970837 0.11546059 0.16553353 0.02161824 -0.19031753 0.08060364 0.07969657 0.17235078
-0.08417333 -0.05658125 0.3361947 0.040568713 0.17228541 -0.073241934 0.08374418 0.31801677
-0.27573726 0.27362162 0.1577366 0.12987599 0.10055353 -0.12192613 0.1663476 0.30206385
0.28926325 0.4207455 0.1837261 -0.123022564 -0.19680014 -0.3582159 -0.29707175 -0.06939524
-0.32521433 -0.31742492 -0.31321207 0.01756875 0.32195216 -0.31454575 -0.07444054 0.04975895
0.43948272 0.3037917 -0.03547676 0.09617129 0.34616694 0.30843008 0.05978642 0.07556608
0.23403655 0.33648115 0.2589497 0.044119272 -0.04361945 -0.35228476 -0.19983047 0.09061115
0.29435435 -0.35980707 -0.0540247 0.4415117 0.5775736 0.3441077 0.16563751 0.6082512
0.641106 0.25912702 -0.19156522 0.3177746 0.31387293 -0.08237866 -0.29682332 -0.3850635
-0.057960995 -0.38994238 -0.4578861 -0.37428966 -0.14775355 -0.13603552 -0.10498391 -0.11935749
-0.077845246 -0.008352798 -0.13309893 -0.105435275 -0.1445836 -0.078770615 -0.16153923 -0.15736014
-0.09143709 -0.08443082 -0.13365471 -0.1499191 -0.1011145 -0.12349954 -0.123749934 -0.09861408
-0.14025798 -0.07075622 -0.10330024 -0.11287027 -0.09769413 -0.10222025

model_stack.0.bias f4 [6]
00000000: 9ba1 743d fa80 9abc 723f a9bd 297c 6cbd
00000010: ab88 843d 34df 643e
0.05972443 -0.018860329 -0.08264054 -0.057735596 0.0647138 0.2235077

model_stack.3.weight f4 [16, 6, 5, 5]
00000000: b4e5 3fbe 5854 12be 0974 12bd ea81 3c3d
00000010: 38b2 91bc 3fe4 41be 7178 cebd fc9b a7bd
00000020: a9de 013c 9885 a3bd 7a3f 52bd 4c01 3cbd
00000030: 4944 fabc 5e41 023e 2eda 4c3e 6a39 393e
00000040: e87c b83e 7da0 963e f9ff f23d 9c76 ed3d
00000050: d3ea dbbd 0e1a 65bd add0 d53d 601f 383e
00000060: 9ef2 4a3e 7ccb 183a 179e da3c dadf c53d
00000070: 612c 053d f2d9 a43d 36f4 d4bd 4963 63be
00000080: 5a34 24bd ca46 edbc df3f 343d 3a67 f8bd
00000090: 3d9b 27be 7ce5 19be 545c 32be 9f7d 9cbd
000000a0: 2f0e 2a3c 560f 1c3d 8657 aabd 2331 8fbd
000000b0: fde5 df3c 44d4 de3d 0b22 e23d 9b04 aebc
000000c0: cf21 5c3c 2b43 243c d2ed 2fbd 2736 c9bd
000000d0: e9d9 07be a58b e3bd 6d2a 1fbd 91ba 69bd
000000e0: c53d bcbd 7ba0 b9bd 5ae6 0bbb 36f6 d4bc
000000f0: 15d2 da3d 9f65 bf3d b8b1 bb3d 7e2a f33c
00000100: 375b 093c 4ea0 3a3d 3a39 5c3d fc65 df3d
00000110: 7d90 9d3d dc2a 243d 1db7 00bd 3129 1abe
00000120: 0c0d f6bd 45df 98bd 4a88 77bd 3783 fd3c
00000130: 06bc 433d fa55 87bd 7e10 36bd 8b87 49bc
00000140: 24df b23d 3d4e 69bc 118e e8bc 9f34 edbc
00000150: 9450 8abd cd2e c4bc 4f16 083e 2c43 123e
00000160: 2cfa 8c3d cfbb af3c 76f2 973c dcc5 863d
00000170: 9130 c63d d69f 71bd c33a 813c 23f8 08be
00000180: 7144 1fbe 5ed5 00be d58f a8bd cb81 10be
00000190: 61d0 713d 68ea a03d c54e 313c ec7d 8abc
000001a0: c5c4 b03b 9977 3c3d 4fbe 9f3d f865 acbd
000001b0: 5241 61bd f27d 72bc 3e9b 83bc c18c 10bd
000001c0: 6641 13bd cfb4 72bd c7ad 56bd 769b fd3c
000001d0: 2968 023d c878 843c 779a 0abc bb4c cc3c
000001e0: c696 043d c791 813c 6b59 0f3d 963e 8a3d
000001f0: 0f43 933c 0e26 45bc 49f1 e1bc 9305 38bd
00000200: 7426 783b b608 3b3c 0dba ae3c c557 ae3b
00000210: 12f4 8d3b 8425 cdbb 279e b8ba 5205 b53c
00000220: 3f03 f3ba cbfb fdbb 2894 f53b 59bb f737
00000230: fa83 fbbc 4a89 73bd 4f2d 25bd 6522 18bd
00000240: f8f7 39bd ea00 5aba 153b 56bd 51f4 9dbd
00000250: 7676 3fbd ba87 eabc d495 e7bc 8d04 283e
00000260: 3804 18bd bb12 c7bd 6932 1fbe 1aaf 923c
00000270: 3770 893e 86bb 633e 7fa7 053e 0238 b4bd
00000280: 61c5 c7bb d102 febd a2dc 9c3d 148a ac3e
00000290: d56c 7e3e 15ae 76bc 4f1f 81bd 057a bcbd
000002a0: 8737 f1bb f582 463c 35ba 9fbd a3c5 b8bd
000002b0: 9d35 5ebd 04c7 2cbe 4d46 16be 5c7b 00be
000002c0: eea5 35be a9aa 19be 973a d7bd 7dac f0bb
000002d0: 1c7c f4bd 7620 fbbd 5cbe 3dbe bee0 05be
000002e0: 1d6e d5bd 43e4 e6bd 05fd 0cbe 34f8 4cbd
000002f0: 5699 a5bd 421d cebd af1e 67bd e13c b1bd
00000300: 816d 833c db99 713d 1d55 3f3d cc5d ce3d
00000310: e211 85bd 200a 64bc ec35 98bc b3ce 2b3d
00000320: 4538 cbbc f33d 3d3d f267 9e3d 125e 42bc
00000330: 1d77 91bd ae9d d73c 915d 933d e263 193e
00000340: 5cf0 883d bfbe 043c 0b54 003e 358a 0b3e
00000350: 2fde b83d 0a42 053c 2358 443d 9cd1 343d
00000360: 8bae b73d 3f80 e9bc 8286 dfbc 77d1 3abd
00000370: 1903 49be af46 eabc d990 a3bd 620e 51bd
00000380: 2289 c5bd 50d6 5cbc 083b a43d 0e6c b33d
00000390: 670b 7fbc 7313 a5bd 3002 433e d7fc 273d
000003a0: 6d27 113d 92ff 20bc 4681 cfbd d7d1 2bba
000003b0: 12c4 55bd 2634 8abd f4e9 f5bc 5edf 3a3c
000003c0: f68e 1abe 0953 dabc 5105 813b b52d 87bc
000003d0: a15f 85bd 5eb1 24be 7e04 aabd 5864 6bbc
000003e0: 976f 173c d680 3fbd f8df 0cbd 2659 c4bd
000003f0: 952b 94bd 3f2e ebbd 36d3 58bd a742 853d
-0.18739969 -0.14289987 -0.03575519 0.046022333 -0.017785177 -0.18934725 -0.10081566 -0.081840485
0.0079266215 -0.07984465 -0.051330067 -0.045899674 -0.030550139 0.12720248 0.20005104 0.18088308
0.36032796 0.29419318 0.11865229 0.115948886 -0.107381485 -0.05593305 0.10440192 0.17980719
0.19819114 0.00058286614 0.026686711 0.09661837 0.032513026 0.08049382 -0.10398142 -0.22205843
-0.04008899 -0.028964419 0.044006225 -0.12129064 -0.16367812 -0.15028948 -0.17418033 -0.07641148
0.010379358 0.038100563 -0.08317475 -0.06991794 0.027331347 0.1088033 0.110416494 -0.02124243
0.013435795 0.01002578 -0.042951412 -0.09824782 -0.1326672 -0.111106195 -0.03885882 -0.05706269
-0.09191469 -0.09063812 -0.0021347017 -0.025996309 0.10684601 0.093455546 0.091647565 0.029683348
0.008383564 0.045563035 0.053765513 0.10908124 0.076935746 0.040079936 -0.03142463 -0.15054776
-0.12014207 -0.0746446 -0.06043271 0.030946357 0.047786735 -0.066081956 -0.044449322 -0.012300382
0.08733967 -0.014239845 -0.028388055 -0.028955756 -0.0675365 -0.023948098 0.1328976 0.14283437
0.06883654 0.021451859 0.018548232 0.065807074 0.09677232 -0.058990322 0.01577509 -0.13375907
-0.15553452 -0.12581393 -0.08230559 -0.14112012 0.059036616 0.078572094 0.010822003 -0.016905747
0.0053945505 0.046012495 0.0779997 -0.084178865 -0.054993935 -0.0148005355 -0.016065236 -0.035290483
-0.03595104 -0.059254464 -0.05241182 0.030957919 0.031837616 0.016170874 -0.008459679 0.024938932
0.03237035 0.015816582 0.034997385 0.067502186 0.017976312 -0.012032999 -0.027580874 -0.04492719
0.0037864717 0.011415651 0.02132895 0.0053205215 0.004332074 -0.0062605757 -0.0014085219 0.022097263
-0.0018540396 -0.0077509633 0.0074944682 2.9531935e-05 -0.03070258 -0.0594571 -0.040326413 -0.037142176
-0.045402497 -0.0008316176 -0.05230244 -0.07712615 -0.046743833 -0.028629173 -0.028269686 0.16407986
-0.0371134 -0.097203694 -0.15546574 0.01790576 0.26843426 0.22239503 0.13052176 -0.08799745
-0.0060965274 -0.12402881 0.0765927 0.33699095 0.24846204 -0.015056153 -0.063048 -0.09202961
-0.0073613557 0.0121161835 -0.07799188 -0.09022071 -0.05425035 -0.16872793 -0.14675255 -0.12547058
-0.17739078 -0.15006508 -0.10509222 -0.007344781 -0.119377345 -0.12262051 -0.18529648 -0.13074014
-0.10421393 -0.11274006 -0.13768394 -0.050041392 -0.08085887 -0.10064174 -0.056425747 -0.0865419
0.016043426 0.05898462 0.04671203 0.10076484 -0.064975515 -0.01391843 -0.0185804 0.04194517
-0.024807105 0.046201658 0.0773467 -0.011863248 -0.07102797 0.026320305 0.07195581 0.14979509
0.0668647 0.008102118 0.1253206 0.1362694 0.09026753 0.008133421 0.047935616 0.04414521
0.08968838 -0.028503535 -0.027285818 -0.045609917 -0.19630088 -0.028598158 -0.07986612 -0.051039107
-0.09645297 -0.01347883 0.08019072 0.08760844 -0.015566683 -0.0806035 0.19043803 0.04101261
0.03543799 -0.009826558 -0.10132079 -0.0006554401 -0.05218894 -0.06748228 -0.030018784 0.011405794
-0.15093598 -0.026650922 0.0039374013 -0.016501287 -0.065123804 -0.16083285 -0.08301638 -0.0143671855
0.009242914 -0.046753727 -0.03439328 -0.09587316 -0.07234875 -0.1148343 -0.0529358 0.065068536

model_stack.3.bias f4 [16]
00000000: 57eb 42bc d185 cabc 50dc cc3c 1a71 91bc
00000010: 07bf f9bc d361 7abb bfd0 1e3c 51c3 89bc
00000020: e6e8 10bd 1cfc 5ebc eb59 aebc 0945 c5bc
00000030: d3b9 41bc c98d 30bc 3686 bf3b f597 a2bc
-0.01189693 -0.024722012 0.025007397 -0.017754126 -0.030486597 -0.003820528 0.009693324 -0.016816767
-0.03537836 -0.013609912 -0.02128311 -0.02408077 -0.011824089 -0.010775992 0.0058448566 -0.01984785

model_stack.7.weight f4 [120, 256]
00000000: f28c fabc 3c39 ba3b 86e3 a6bb b650 55bd
00000010: 87fa 0c3d ae7f 9d3c 8cab 263d 336e f53c
00000020: e0e6 02bd 13be dabc e532 863c dca7 ae3d
00000030: c666 203d 0787 cb3c 3a0a 363c 63c8 ee3d
00000040: d01e 973c 1b0a b13c bf0d 1f3d 82aa 4cbd
00000050: d84c 95bc 1936 ae3b 2680 083d 2832 b3bc
00000060: a913 5ebc e495 573d 5a5f 363c 7ebe 7a3d
00000070: c827 4abd d6da 443d ffa1 fd3c 9244 2239
00000080: eff8 b5bc 3403 413a 9a8c 57bc fe19 ecba
00000090: defb 7dbc 2057 ef3b cabd 243a f02f 9cb9
000000a0: 4f1a 4ebb c5e2 4fbc b29a dcbc c359 23bc
000000b0: 8926 203d 8e40 a53c 06c7 f13b 78c3 4cbc
000000c0: 2f51 333b 3284 fdbc 27f0 853c 0e84 3cbc
000000d0: 8b60 7a3d 3b1d 25bd ada8 ac3b b8fa ad3c
000000e0: 7139 903c d34f 253d 73a4 01bd 6841 6c3d
000000f0: 6f1e aabd 79c8 633c 74fd 83bc c445 543d
00000100: 167c ab3c 7e18 d7bc d6e4 f53a c4e3 493c
00000110: 9eb5 d53c 67f7 8cbc af8e 043a 8765 41bc
00000120: 3024 173b b25b 4dbd 30e4 13bc 8a9d fe3b
00000130: a6b1 283d a745 1e3d c2ef 4fbc 13dd 2e3d
00000140: 56b6 1c3b 631c 633d 87a4 ab3c 2c3e 4abb
00000150: ed27 2fbd 466d 3b3d b65f bf3c 9955 c4bc
00000160: 8460 83bd 7383 52bd fc91 24bd 9402 3c3b
00000170: b41a d8bb 8bd5 39bc ac59 31bb e0b7 633d
00000180: 44ee 82bc b38b 6dbd f136 20bd 663e 5ebc
00000190: 511b dbbb 6292 70bd 98f9 56bd 0234 683b
000001a0: eb99 f83c 2da7 c13c d130 f2bc 3f87 56bc
000001b0: 2814 903d b5d2 44bd dede 54bd 2ac9 a7bc
000001c0: 9b95 8ebc 4eec f43c ef57 773c 99ca c4bb
000001d0: c17e 92bc 2425 1ebb b1c2 183c e87c 973c
000001e0: 3279 17bd b051 e33c c4c1 8e3c 9fec 0d3d
000001f0: c0a6 f33b 18c5 263d 03fd c83c c025 ed3c
00000200: 97b0 fcba d429 1dbb ca85 0abd b829 abbc
00000210: 9dad a23d b599 6a3b ef2c 6abd faec 21bd
00000220: fcd6 113d 43e2 8f3c 1147 fabc bb62 703c
00000230: c15d 713c 12a9 db3c b1a7 e7bc 9f46 8c3c
00000240: 1d6f 073d 18b6 433d 5182 7e3b 3d88 14bd
00000250: 5957 f23b 26cc 8a3b fadd 3c3d 8d12 773b
00000260: a253 2b3c 197b 333d 095b 363d bc3a a23c
00000270: 6473 2cbd 8b7b 91bb 6765 43bc 517b 273d
00000280: b73f 993d b56f b83c fd11 8bbd 039b e3bd
00000290: 816c 473d 620d cb3c 86ab df3b e90e 8c3c
000002a0: 1534 de3c 0eab 243d 37ce 2d3c 0c62 d439
000002b0: 0a6e 5abb 5108 95bd bd93 2d3c bbcc 533c
000002c0: bd69 e1bc 3027 21bd b7db 40bd 092f 19bd
000002d0: 43c0 85bc 00b7 f4bc 6aed 3bbc c48d ecbc
000002e0: 63f1 ab3a 07a0 d53c 1aa5 0cbd ab3e 2abd
000002f0: a5ca 6f3d 9bd7 353c 02ab 8fbd 7ad9 46bd
00000300: 776e c93c 9204 ddbc 8079 88bc 8620 87bc
00000310: 01bb 8ebb 99cd 143c 264e fa3b 4b32 993c
00000320: dec5 23bb 61d4 003d cee1 8a3c 5787 f63c
00000330: abb5 f0bb ec77 783d 7e2b 083c 3537 573d
00000340: 995f efbc 322d fc3c 478d 91bc b4d2 7ebd
00000350: 62cf e8bc d3c7 b53c f4c4 c23c 9402 023c
00000360: f285 d639 be89 88bb a17b ad3c 1622 fabc
00000370: 7557 12bc 6a4f 62bd 4a08 e7bc 05dc b7bc
00000380: 1d5d dd3a fc01 d4bc 80ae 5ebd f58c 74bd
00000390: e350 583d a926 2ebb 9500 21bd 264a 6cbc
000003a0: 44c0 f83c dbd3 5c3d 1b01 c43b e771 143d
000003b0: ad08 d2bc 25a1 e63c 64fd 033d c83d 903c
000003c0: bfb0 3dbc b70f 143d 739b 013d dd33 dabc
000003d0: 7b58 85bc c6f3 1abd 2b3d 8bbd 8616 ab3c
000003e0: 0b0e 083c 8ceb 153c 2948 ddbc d0df 503d
000003f0: 15c3 393d 8c1b e4bb e330 863d 0344 013d
-0.030584786 0.0056830924 -0.005093041 -0.052078925 0.03441861 0.019225921 0.040690944 0.029959774
-0.03195846 -0.026701963 0.01638169 0.085281104 0.039160512 0.02484466 0.011110837 0.116593145
0.01844731 0.021611264 0.03883147 -0.049967296 -0.018225119 0.0053165075 0.033325337 -0.021874502
-0.013554492 0.05263318 0.011131132 0.061216824 -0.049354345 0.04806026 0.030961035 0.00015475068
-0.022213427 0.0007362843 -0.013156081 -0.0018013117 -0.015501944 0.0073040873 0.0006284384 -0.00029790355
-0.0031448787 -0.012688343 -0.026929233 -0.009970131 0.03909925 0.020172384 0.007378462 -0.012497775
0.0027361622 -0.030946825 0.016349865 -0.011506094 0.061127227 -0.04031108 0.005269131 0.021237716
0.017605515 0.04035933 -0.03165097 0.057679564 -0.08306586 0.013902777 -0.016112067 0.051824346
0.020933192 -0.026256796 0.0018760215 0.01232237 0.026087578 -0.017207814 0.0005056662 -0.011803991
0.002306234 -0.050136276 -0.009026572 0.007770245 0.041185044 0.038640644 -0.01269144 0.0426913
0.0023912392 0.055446994 0.020952476 -0.0030859811 -0.042762686 0.04575851 0.023361068 -0.023966597
-0.06414893 -0.05139489 -0.040178284 0.002868806 -0.00659498 -0.0113424165 -0.0027061505 0.05559528
-0.015982755 -0.057994556 -0.039114896 -0.013564682 -0.006686606 -0.05873335 -0.052484125 0.003543139
0.030346831 0.023639286 -0.029564293 -0.013093769 0.070350945 -0.04805251 -0.051970355 -0.020481665
-0.017405322 0.029897835 0.015096649 -0.006005597 -0.017882707 -0.0024131024 0.009323762 0.018492177
-0.036980815 0.027748913 0.017426379 0.034649488 0.0074356496 0.040715307 0.024534708 0.028948665
-0.0019278702 -0.002398123 -0.033818997 -0.020893916 0.0794327 0.0035797183 -0.05717176 -0.03953264
0.035605416 0.017563945 -0.030551465 0.014671977 0.014731825 0.026814017 -0.028278204 0.017123519
0.03306495 0.04778108 0.0038835 -0.03626274 0.0073956666 0.004235762 0.04611013 0.0037700266
0.010456951 0.043818567 0.04452041 0.019803397 -0.042102233 -0.0044397763 -0.011926032 0.040889088
0.07482856 0.022514204 -0.0679054 -0.111135505 0.04868746 0.024786655 0.006825867 0.017096953
0.027124444 0.040202193 0.0106082475 0.00040508842 -0.0033329749 -0.07276977 0.010594306 0.0129272295
-0.02751624 -0.039344013 -0.047084536 -0.03739837 -0.01632703 -0.029872417 -0.011470178 -0.028876193
0.0013118203 0.026077284 -0.03433714 -0.04156367 0.058542866 0.011098768 -0.07015039 -0.048547246
0.024588807 -0.026979718 -0.016659498 -0.016495 -0.0043557887 0.009082221 0.0076387106 0.01870074
-0.0024989764 0.03145254 0.016953375 0.030093832 -0.0073458753 0.06066124 0.008311151 0.052542884
-0.02922039 0.03078327 -0.017767562 -0.06221266 -0.0284192 0.02219001 0.023775555 0.007935185
0.00040917058 -0.004166811 0.021177115 -0.030533832 -0.008931984 -0.055251516 -0.028202195 -0.02244378
0.0016888712 -0.025879852 -0.054365635 -0.05970474 0.052811515 -0.0026573336 -0.039307196 -0.014421975
0.030365117 0.05391298 0.005981577 0.03624144 -0.025638903 0.028153012 0.032224074 0.017607585
-0.011577784 0.0361478 0.03164239 -0.026636058 -0.016277542 -0.037830137 -0.06798776 0.020884763
0.008304129 0.009150397 -0.027011948 0.050994694 0.04535206 -0.0069612917 0.06552293 0.031559

model_stack.7.bias f4 [120]
00000000: 1366 8cbc 1ecc 993b 4850 7e3c cc53 f13b
00000010: 8fb1 55bc aec6 a23b 010e 16bc 793d 3bbc
00000020: 0399 de3b baa7 0abb 9bde 80bb 61a4 e7b9
00000030: 8ff8 8c3c 49ba cf3b 319e 3d3b 19a2 34bb
00000040: e70f 813b a83a 4b3a 84ca 813b 87c8 a5ba
00000050: 70a5 edbb 2331 753b 6618 503c 8539 703c
00000060: 09c4 e2bb 3970 b33b fdbb 94bb 7665 27ba
00000070: adc2 f83b 9995 c63b e790 fa3b 00f7 dabb
00000080: 8df3 af3c 20b8 13bc 04d2 a837 f3e1 83ba
00000090: 6ce1 68bc c9f8 a937 39d3 a0bb ea51 89ba
000000a0: 021d 403b eff4 16bc 1e6d 633c bb8a e7bb
000000b0: 66de 383c 7741 59ba 9301 4abc 30e1 d0bb
000000c0: 6a79 3f3c ceb5 75bc ab00 843a 04bc 95bc
000000d0: 8c9a 9c3c f320 57bb b7c7 933c e83a 633c
000000e0: 22e7 b1bb 22d3 23bc 9e17 623c 8914 513c
000000f0: a860 a33c 71db 023c 33bf 4a3c 305b 9f3b
00000100: 7ce7 30bc 7708 3fbc 36c0 54ba 376a 983b
00000110: 52f9 c73b c637 113c 6c4b 283c 8402 513b
00000120: eff0 2bbc 1d10 40bc 6c3a 623c 07b0 8d38
00000130: e4d1 6cbc b53e 13bc 8892 5dbc 6e08 0bbb
00000140: 4036 213b a4bf ab3c 3861 9b3c 9c8d efba
00000150: 2e5b b83b 67d5 a839 fe1b d2ba ce4f e93b
00000160: 2762 023b e233 303c 71f7 a737 7cca 2ebc
00000170: 9319 6cba f494 0abc d72f 38bc 61a5 2e3c
00000180: 102e 123c 1a2e e0b9 b97d 2cbc 2c82 14bc
00000190: d885 6e3b 4eca 94bb 0b9b e0b9 22bd 32bb
000001a0: 04e9 4dbb ec67 1f3c 4a11 a23c c100 353c
000001b0: e801 68bc 645f f73b ead0 44bc 5e36 76bc
000001c0: f88f c03a b6a9 aa3b 7b4c f4bb f5b4 b1ba
000001d0: 6836 7ebc 191f 14bc 28fb 233c f827 00bb
-0.017138517 0.004693522 0.01552207 0.0073647257 -0.013042822 0.004967532 -0.009158612 -0.01142823
0.0067931428 -0.0021157102 -0.0039327866 -0.00044182225 0.017208366 0.0063393456 0.00289334 -0.0027562438
0.0039386633 0.0007752576 0.0039609093 -0.0012648263 -0.0072523877 0.003741332 0.01270113 0.014662151
-0.006920342 0.0054760245 -0.0045390115 -0.00063856633 0.0075915665 0.006060314 0.0076466682 -0.0066822767
0.021478439 -0.009016067 2.0124957e-05 -0.0010061845 -0.014213901 2.026222e-05 -0.004907992 -0.0010476683
0.0029314165 -0.00921367 0.013880996 -0.0070660985 0.011283493 -0.0008287648 -0.012329477 -0.0063745007
0.011686662 -0.014996959 0.0010071 -0.01827813 0.019116662 -0.0032826036 0.018039567 0.013869025
-0.0054291645 -0.009999068 0.013799576 0.012761244 0.01994355 0.007986889 0.012374687 0.0048631653
-0.010797378 -0.011659733 -0.00081158 0.0046513337 0.0061027193 0.008863395 0.010271888 0.0031892369
-0.010494455 -0.011722592 0.013807874 6.7561916e-05 -0.014454339 -0.0089871185 -0.013523705 -0.0021214741
0.0024598986 0.020965405 0.018967256 -0.0018276456 0.005626104 0.00032202454 -0.0016030071 0.007120109
0.001989493 0.010754557 2.0023175e-05 -0.010668393 -0.00090064964 -0.008458365 -0.011241875 0.010659547
0.008922115 -0.00042758958 -0.0105280215 -0.0090642385 0.0036395695 -0.004540718 -0.00042840125 -0.0027273376
-0.0031419406 0.009729367 0.019783635 0.011047543 -0.014160611 0.0075492132 -0.0120127 -0.015027611
0.0014691344 0.0052082194 -0.0074554062 -0.0013557958 -0.015515901 -0.009040617 0.010008611 -0.0019555073

model_stack.9.weight f4 [84, 120]
00000000: 3456 6d3d 43cc 8abd 5d74 6ebd 1b80 afbc
00000010: efb3 353c d5da 8fbb 40f8 30bd a212 ad3c
00000020: 05f3 aa3d 8118 7cbd d31b 52bd f547 9b3d
00000030: dc69 013e e081 063d 1bb0 ee3c 11b3 a23d
00000040: 6a69 3e3b 6e03 d23c 1aab 04be 5f37 46bd
00000050: 9a6a a93d 4076 e63c 6c05 09be ec3a 44bc
00000060: 89c9 48bd ef2e 583d f7a4 8e3b 7ae7 3bbd
00000070: 4195 18bd d48a ad3b c498 013d 14dd 283e
00000080: 4ada 23bd c49b a03d 50c5 7ebc 723b 97bc
00000090: 4e38 59bd 6133 243c c87e b13d a086 853c
000000a0: eab9 b2bd 4728 643d a9d8 1cbb 08c4 943d
000000b0: c29f 60bd 0957 8d3d 8d63 d0ba 0041 19bd
000000c0: 6556 86bd 35a4 9c3d 5977 b4bc 13a6 25bd
000000d0: e19f 813d 8fb6 59bd c4e6 993c 7bfc cabd
000000e0: 3b25 8c3c 2bcc ebbc 7609 8ebd 5d2e 81bb
000000f0: 55d9 2ebc 0705 5fbc 15d3 123e fcf0 543c
00000100: 1946 0abd 5743 27bc fe3a 7abc 3da4 1abd
00000110: ed3f 83bc f286 0ebd 1cdc 20bd 92b5 023d
00000120: a71b 1bbb 8841 2d3a dbea 533d 538c 9abd
00000130: 3223 1cbc baf8 55bc 2207 6a3d 8e91 a5bc
00000140: 1f72 6dbc 72a6 8bbc 4242 1fbd e3fd 21bd
00000150: 66fe d53b 984a 7cbc a0c7 95bc 2d03 b8bc
00000160: 40e5 093d f685 b83d 7bc2 aabc a9b9 9ebd
00000170: 7f9c e7bb bb8e 44bc e0ae 703d 24a0 a33d
00000180: 61c9 2e3d 063c 99bc e23a e73b 2e19 a23c
00000190: 4af7 6a3c 925c e23b 78ff a3bc b100 91bd
000001a0: 595d bc3c 6303 733d 7f53 67bc cfb6 a3bd
000001b0: 3141 2d3d 52b2 aabc 1921 b43c 49a1 0e3d
000001c0: e05e bcbc 2a8d dc3b f43a d2bc 42cf 15bc
000001d0: f651 e03b e09e 033d 18a2 b53c e25c ec3d
000001e0: 67c8 4f3b 3fed 7cbc eb61 233c 8d12 98bb
000001f0: 592a da3c dc2d 203d db36 ad3c 0eb8 9a3b
00000200: 7eb2 ea39 5ee6 7a3b f6f6 f53b 99bd ae3c
00000210: 04ef 03bc e122 6cbc 1f97 1abc 57f9 cfbc
00000220: 2c9f 84bc 5504 10bc 8bb0 cbbc 28d7 debc
00000230: 5d0d e0bb 5e19 9d3c 24a2 993c 7a77 28bc
00000240: e741 28ba 22eb f1bc 86cc 1cbc 860f 9abc
00000250: b9ae 303b 4ce1 4dbc c9bf 7b3b a60f 8fbc
00000260: 6c36 263c c444 c83b dc59 49bc a6e0 43bc
00000270: 7b8b 843c 5ef3 6c3a e25e 093c 0782 073c
00000280: f22a c0bc b998 da3c e62c 3cba d0d1 aa3b
00000290: 5d7d 7f3c 2ec2 75bc cb87 cc3b 8570 e83a
000002a0: cd7f 89bc 8662 d23b f011 44bc 9446 6fbc
000002b0: aeed 863c ce07 833b 7645 79bb 4d8f c03c
000002c0: 43c8 573b 2dff 04bd ca29 4c3d 430e 30bc
000002d0: 3f19 713b 4923 87bc 33a1 813c 0485 383c
000002e0: 3f80 e53c e7eb a0bc 6ad6 db3c 8a9a a8bc
000002f0: 35d4 4d3c 0a55 3fbc 65f8 bdbc e66c 6a3c
00000300: a3c7 b2bb 5cfe 753c e96f 233d 8f1e b03c
00000310: 286c 523b 358b 833d 45a1 3dbc 1742 6cba
00000320: 6cb0 17bd 567e b3bc 4536 803c cc78 f8bc
00000330: 8606 0cbc 171f 82bc d364 cfbb dd42 f93b
00000340: fc8a 803b 7b97 4dbc 18b4 493b 94e4 c63c
00000350: e77d 0e3d 0701 403c 1d58 eabb 7bd5 53bc
00000360: 02d4 12bc 9877 c73c 4a74 be3b 2f1e 953c
00000370: 6960 c13b 783a a3bc faf6 233d b4c9 a83c
00000380: 799a 63bc d36a b8bc 43bc 99bb baf4 48bc
00000390: b8d0 e6bc 3676 9bbc 4d14 9b3b 3ab4 68bc
000003a0: d898 243c 5dda 3abc c0e0 63bb 5ebd cebc
000003b0: ae46 97bc 6a41 aa3c baba 0f3c 6720 28bd
000003c0: 0967 7bbd 2a7a fb3d 6bf3 23bd 6657 bbbc
000003d0: 29ae 6fbd 7568 f03c d553 8e3d 1405 e4b9
000003e0: 892a 643d 7af1 e83d c6b0 46bc 401e e4bc
000003f0: 6af7 073c 8053 093d 6896 4ebc d29c 0a3c
0.057943538 -0.06777241 -0.05821644 -0.02142339 0.011090263 -0.0043901005 -0.0432055 0.021127049
0.083471335 -0.061546806 -0.051296066 0.07582084 0.12638038 0.032838702 0.029136708 0.079443105
0.002905453 0.025636401 -0.12955895 -0.04839265 0.08272286 0.028132558 -0.13380975 -0.011976939
-0.049020324 0.052779134 0.0043531614 -0.04587505 -0.037251715 0.0052960906 0.03163983 0.16490585
-0.0400031 0.0784221 -0.015549973 -0.018460963 -0.053032212 0.010022015 0.0866676 0.016299546
-0.087268665 0.055702474 -0.002393285 0.072639525 -0.054839857 0.06901366 -0.0015898809 -0.037415504
-0.06559447 0.076485075 -0.022029566 -0.040441584 0.063293226 -0.053152617 0.018786795 -0.09911438
0.017107597 -0.028783878 -0.06935398 -0.0039422945 -0.010671933 -0.013612038 0.14338334 0.012996908
-0.033758257 -0.010208926 -0.015272854 -0.037754286 -0.016021693 -0.034796663 -0.039272413 0.03191144
-0.0023667605 0.0006609191 0.051737648 -0.07546296 -0.009529876 -0.013059789 0.05713571 -0.020211007
-0.014492541 -0.01704714 -0.038881548 -0.039548766 0.006530571 -0.015398644 -0.018283665 -0.022462452
0.033665895 0.09009926 -0.020844689 -0.077502556 -0.0070682163 -0.01199692 0.058760524 0.07989529
0.04267252 -0.01870538 0.00705658 0.019787397 0.014341185 0.006908008 -0.020019278 -0.0708021
0.02299373 0.0593294 -0.014119028 -0.07993852 0.0422985 -0.020836983 0.021988438 0.034821782
-0.022994459 0.0067306953 -0.025662877 -0.009143652 0.006845708 0.032133937 0.022172019 0.115411535
0.0031705142 -0.015437423 0.009972076 -0.0046408833 0.026631521 0.039106235 0.021144321 0.004721648
0.00044764945 0.0038284282 0.0075062467 0.021330642 -0.008052591 -0.014412613 -0.009435444 -0.02538745
-0.01618918 -0.008790095 -0.024864456 -0.027202204 -0.0068375305 0.019177135 0.018754072 -0.010282392
-0.00064185116 -0.029531065 -0.009570247 -0.01880623 0.0026959612 -0.012565922 0.0038413873 -0.017463516
0.010144811 0.006111713 -0.012289491 -0.011955416 0.01617979 0.000903895 0.008384438 0.008270747
-0.023457978 0.026684152 -0.0007178321 0.005213 0.015593854 -0.014999909 0.0062417737 0.0017733729
-0.016784573 0.0064204363 -0.011967167 -0.0146042295 0.016470756 0.003998733 -0.0038035787 0.023505831
0.0032925762 -0.032469917 0.04984454 -0.010745588 0.003678873 -0.016496317 0.015823936 0.011262182
0.028015254 -0.019643737 0.026835639 -0.020581502 0.012562801 -0.01167799 -0.023189733 0.01430819
-0.0054559275 0.015014257 0.039901648 0.021498946 0.0032107923 0.06423036 -0.011574094 -0.00090125337
-0.037033483 -0.021910828 0.015650878 -0.030331038 -0.008546477 -0.015883965 -0.006329158 0.0076068477
0.003922818 -0.012548323 0.003077751 0.024278916 0.03478804 0.011718995 -0.007151617 -0.012929316
-0.008961679 0.024349019 0.0058122026 0.01820287 0.0059013856 -0.019925341 0.040030457 0.020603992
-0.01389181 -0.022511875 -0.004691632 -0.012265379 -0.028175697 -0.018977266 0.0047326447 -0.014203126
0.010046206 -0.011404601 -0.0034771413 -0.025236782 -0.01846632 0.020783145 0.008772546 -0.041046526
-0.06137756 0.1227916 -0.040027063 -0.022868823 -0.0585157 0.029346684 0.069495834 -0.00043491332
0.055704627 0.11374183 -0.012127107 -0.027846456 0.008298734 0.033526897 -0.012609102 0.00846024

model_stack.9.bias f4 [84]
00000000: 46b2 443c e67e 93bb 0e6b a73c 447c a93c
00000010: 85ff 5fbc 2c06 4b3c 545c 7c3c 4307 e13b
00000020: f952 5a3c 4635 23bb 98b6 edba fbf7 c43c
00000030: 9a23 71bc bb48 3fbc f30a 2e3c 3b04 943b
00000040: d50b 8fbb f7d7 61bc 9a22 d0bc 5a13 cdbb
00000050: 4708 253c 632d 45bc e65a b839 6f16 c93c
00000060: 69af edbb e185 cfbc 591a 13bb 6405 443c
00000070: d7a6 933c c1bd 03bb 3118 853c c2b8 713c
00000080: 16cc 84bc 8f94 5e3c 7455 12bc 641a a0bb
00000090: f9e3 733c 96a0 c63c bc53 83bc 0d57 913c
000000a0: 0b4e 913c 8937 ed3b 41db e8ba 2de6 843c
000000b0: b00d ab3c a354 6cbc 47d9 e7bc d274 42bc
000000c0: ffa1 8c3c 5d64 1a3c 57b2 0e3d a9c4 6fbc
000000d0: dd23 40bc d1fb 1d3c ce6f 483c ff2c ea3c
000000e0: ed77 9ebc b47b c03c 1611 1b3c e4ae cf3c
000000f0: e5a5 b2bc 3ada 71bc 2737 8abc 33fe 9e3c
00000100: 252a 9a3c 47e2 2c3d 2b18 abbc 4ad2 7d3c
00000110: 093b 7bbb 2216 523c 8a19 6cbc 48a1 873c
00000120: 3313 003d d628 483c fabc 133d 3deb ac3b
00000130: fbf0 c73b a183 cfbc 316e 883a e75c bc3c
00000140: 8584 aa3c e71e 5f3b e7eb 843c 003c 5bbc
0.012005394 -0.0045012115 0.02043679 0.020689137 -0.01367176 0.012391608 0.015402872 0.0068673207
0.013325446 -0.002490358 -0.0018136082 0.024044028 -0.014717961 -0.011675055 0.010622728 0.004517106
-0.004365424 -0.0137844 -0.025407124 -0.0062584104 0.010072774 -0.012034747 0.0003516294 0.02454683
-0.0072535765 -0.025332393 -0.0022446124 0.011964176 0.018023891 -0.0020102116 0.016246887 0.014753522
-0.016210597 0.013585224 -0.008931506 -0.0048859585 0.014885896 0.024246495 -0.016031139 0.017741704
0.01773741 0.0072392863 -0.0017765538 0.016223038 0.02088055 -0.014424476 -0.028301848 -0.011868672
0.01716709 0.0094233425 0.034838047 -0.01463429 -0.0117273005 0.009642557 0.012233688 0.028585909
-0.019344294 0.023496486 0.009464523 0.025351949 -0.02180762 -0.014761502 -0.016872002 0.019408321
0.018818924 0.042207982 -0.020885548 0.015492031 -0.0038334748 0.01282266 -0.014410386 0.016556397
0.03126831 0.012216767 0.036068894 0.005277066 0.006101725 -0.02533132 0.0010408816 0.022993518
0.020815143 0.003404552 0.016225768 -0.013381004

model_stack.11.weight f4 [10, 84]
00000000: 14e7 a2bd 738f 60bd 756f d53d 12c7 ca3c
00000010: 7482 26bd 4b3e 893e bd7a db3c e7e2 583d
00000020: 3979 02bd 47c8 c13e b08c ecbd c83d 0fbe
00000030: 7e0e 0fbd 6a7f ea3b c1c8 bcbd c164 53bd
00000040: 1ff7 bbbb 2eec 93ba ecec 19bd 9712 96bd
00000050: 74cf 363b fd4c 96bc f6b1 e8bd 76ef bcbd
00000060: 5631 1f3d 0fc6 18bd 636e c93c 0461 083e
00000070: a2c2 193d 9a89 18be c53e bebc 86e3 83bc
00000080: 891b 943d a4e6 1e3e 556a a43b 0ac5 cbbc
00000090: 6c13 f7bd 8cb7 c03b 5e68 223e fa32 3b3d
000000a0: 3d9e fc3c 136f bbbc 3ace 8f3c bf1e a93e
000000b0: f815 1cbe 148e 1e3d e8ea 8d3c 99c4 3bbd
000000c0: 2dda dabd 63e1 b2bb 2c91 ab3d 5d39 02bd
000000d0: 2b7b 5fbc edd1 cf3d a5cf 78bd 4355 1ebe
000000e0: a2e3 cd3b dc28 c03c 9a79 07be cafd 50be
000000f0: 5a11 d63d 6805 3e3b ea33 913d 7e36 7fbe
00000100: b89f 983c 88c9 8d3e 496d 343e 27cc a4bc
00000110: 71d2 083d f515 36bb 0760 d43c 3e44 afbd
00000120: 9fde c9bd 552d 75bd 2864 11be 5cbb 1d3b
00000130: a2ef 723c 7da4 95bd 7a38 e0bd 6d8a 9b3e
00000140: 2ef3 cbbd 6fa6 e0bd f3a2 2cbe 837f 90bd
00000150: b3a7 933d b825 36bc 7139 17be e9f1 1a3e
00000160: 8a3f 633c 688c 4fbe ffe4 07bd f00f 253e
00000170: 4c9d 06bd 5561 17be d98d edbd b718 623e
00000180: fcea ba3c fe69 d7bd 5137 1e3e 0f41 9c3c
00000190: f65b ea3a e28b 95bd 4f51 bfbc 5e0c f73c
000001a0: 822c a0bc b609 00be 7f39 e4bd 021a 1b3d
000001b0: 3395 4cbd 404a 3fbd b8cf d5bd 7a08 4abd
000001c0: f0eb ad3d 801d 80bd fc2d cebd 62e4 073e
000001d0: 905b 343e 1013 15be 5877 10be c524 073c
000001e0: 6731 25bd ecae 15bd 8e57 193e 574c 533d
000001f0: 6571 9bbd e9d0 bc3e 2be1 723c ff80 07bd
00000200: 37d0 64be 1791 033b 0f3b e83d 8658 d5bc
00000210: 6e3d 5a3d e947 b33c afbf 3abe 023e 2d3e
00000220: 22a2 473b ad09 73be 81eb 6b3e 2ae6 303b
00000230: ecef 04bd 3e83 853e 72ba 0b3e da4d 2ebe
00000240: f6a8 05bc 7901 bebd 6768 10bc 8cd5 973d
00000250: a983 373e 3e16 553e 8efa b83c 81e4 0dbe
00000260: 9ec2 c8bc 6d3e 0ebd d19d d3bc c2cc 17be
00000270: 2201 2bbe bfab d1bb cde3 893d 749c 8f3c
00000280: 854f 02be b961 963d dfbb 013c bd11 88bd
00000290: cb31 c13d a715 4b3e e9f8 a23d bd87 a33c
000002a0: 2564 3e3d dabe e9b9 cbb6 61be 51cf 3b3d
000002b0: b3d2 85bc 44eb a8bd 3208 c33c c992 0ebe
000002c0: 0e7d 2b3d 5252 b53e b8de 2a3e 35b4 11be
000002d0: b84a e13b f2af 993d a15e 843d 1740 7f3a
000002e0: 52d8 46bd 354e 01bd e378 cd3c caee 9b3c
000002f0: fda4 78bc dc18 273e aab1 cd3d f9f4 563e
00000300: 99df 163e dba1 583e c92c b0bd 18da 2abd
00000310: b469 90ba 9e5b 6b3d 6224 0c3e e724 1bbd
00000320: f228 efbc 9ca0 26be f57d cc3d e9bd dabc
00000330: 18df 18bc 4ce7 80bd 8cd5 293d 4235 2c3e
00000340: 71ec 7ebd eab4 0c3e 1427 393d e5e4 f1bd
00000350: 6657 753e d5aa 953c addc bdbd 4866 bcbc
00000360: c9ca 0b3e 422b 5db9 b35a 23bc 43a3 ccbd
00000370: 4f68 51bc ec30 d7bc 1c15 843e dace 1dbe
00000380: f795 b43d 9ac0 5abd 77f3 4b3e 4752 9cbc
00000390: 72c8 93bd 4898 793d fa7c febb 9d74 03be
000003a0: 9a98 9fbd 8169 a2be 707b 45bd bbf7 e73e
000003b0: 3000 0ebd a253 123c d7bd 1cbb 7c04 95be
000003c0: af03 fdbd 9163 21be e498 31be 031a 9ebc
000003d0: 5f37 d2bd 56bf 30bd aba9 43bc ccb9 343e
000003e0: c369 d4bd 2b40 e2bb e4bf 86bd 4e0c 503e
000003f0: e7d4 c43e c9d3 42bd becc 7dbd bc43 f3bd
-0.07954231 -0.054824304 0.10421649 0.024753127 -0.040651754 0.26805338 0.026791925 0.052950766
-0.03185389 0.37848112 -0.115502715 -0.13988411 -0.03492593 0.007156302 -0.09217978 -0.05160976
-0.0057362462 -0.0011285597 -0.037579462 -0.073277645 0.0027894648 -0.018347258 -0.11362068 -0.09225361
0.03886541 -0.03729826 0.02458877 0.13318259 0.037539132 -0.14896241 -0.02322329 -0.016099703
0.072318144 0.1551767 0.0050175586 -0.024874229 -0.12064251 0.0058812555 0.15860125 0.045702912
0.030837173 -0.022880113 0.017554391 0.3303127 -0.15242755 0.038709715 0.017323926 -0.045841787
-0.10686145 -0.005458997 0.08377299 -0.031792987 -0.013640205 0.10147462 -0.0607449 -0.15462212
0.0062832395 0.023456983 -0.13229981 -0.20409313 0.10452528 0.0028994922 0.0708998 -0.24923131
0.018630847 0.2769282 0.17619814 -0.020116879 0.033403818 -0.0027784084 0.025924696 -0.08557938
-0.09856915 -0.059857685 -0.14198363 0.0024067974 0.014827641 -0.07306764 -0.10948272 0.30379048
-0.09958492 -0.10969245 -0.16859035 -0.07055571 0.072097205 -0.011117391 -0.14768006 0.15131344
0.013870129 -0.20268404 -0.033177372 0.16119361 -0.032864854 -0.14783223 -0.11599321 0.2207974
0.022817127 -0.10518263 0.15450789 0.019073991 0.001788019 -0.07302071 -0.0233542 0.030157264
-0.019552473 -0.12503704 -0.11143779 0.0378666 -0.049946975 -0.04670167 -0.1044001 -0.04932449
0.08492267 -0.06255627 -0.100673646 0.13270715 0.17613053 -0.14558053 -0.14108026 0.008248513
-0.040330317 -0.03654377 0.14974806 0.051586475 -0.07589988 0.36878136 0.014824192 -0.033082005
-0.22345053 0.0020075494 0.113393895 -0.026043188 0.05328124 0.021884875 -0.18237184 0.16918185
0.003046163 -0.2373416 0.23039056 0.0026992657 -0.03245537 0.26076692 0.13645342 -0.17021886
-0.008157959 -0.09277625 -0.008813954 0.07413778 0.17921318 0.20809266 0.022580411 -0.13856699
-0.024506863 -0.034727503 -0.025832089 -0.14824203 -0.16699651 -0.0063986476 0.06732903 0.017530657
-0.12725647 0.07342858 0.007918327 -0.06644008 0.094333254 0.19832478 0.07957632 0.019962186
0.046482224 -0.0004458342 -0.22042386 0.04585201 -0.01633582 -0.08247998 0.023807619 -0.13923182
0.04186731 0.35414368 0.16686523 -0.142289 0.0068753622 0.07504262 0.064633615 0.0009737028
-0.048546143 -0.031568725 0.025082057 0.019034762 -0.015176055 0.16318077 0.10043652 0.20991887
0.14733733 0.21155493 -0.08602292 -0.041711897 -0.001101783 0.05746042 0.13685754 -0.03787699
-0.029194329 -0.16272205 0.09984962 -0.026701884 -0.009330533 -0.062941164 0.04146342 0.16817191
-0.062237207 0.13740888 0.045203283 -0.11811236 0.23959121 0.018269936 -0.09270606 -0.02299799
0.13651575 -0.00021092317 -0.009970355 -0.09992077 -0.012781217 -0.026268445 0.25797355 -0.15410939
0.08817666 -0.053406335 0.19917093 -0.019082202 -0.07215966 0.060936242 -0.007766363 -0.12837453
-0.07792778 -0.31721118 -0.048213422 0.4530619 -0.034668148 0.008931072 -0.0023916864 -0.29104984
-0.12354218 -0.15760638 -0.1734348 -0.019299513 -0.102644674 -0.043151222 -0.011942307 0.17649001
-0.10371735 -0.006904622 -0.06579569 0.20317194 0.38443682 -0.047565255 -0.061962835 -0.11878154

model_stack.11.bias f4 [10]
00000000: 7267 eabc 2a44 ec3c 9e4c 0ebd 32be 31ba
00000010: cbf5 f23c 96fd 0d3c 063a cabc 0a10 8f3c
00000020: 2f66 323d 6bda ca3b
-0.02861378 0.028841097 -0.034741037 -0.00067803555 0.029658219 0.008666417 -0.02468587 0.017463703
0.04355448 0.006190588
